models/flat_orientation_pi_135.pth (torch, 3984 bytes, 4 tensors)

weight f4 [16, 3]
00000000: 3f6f 1b3d 3754 50be 64dd e93c 411b b43e
00000010: bcfd 47be eb66 99bf d737 ef3e b2bc c23e
00000020: d03b fb3e 3336 c1bf acd4 8f3c 7362 73bd
00000030: 6b37 2bbd 6290 a9be 4e7c 953e 74af debe
00000040: c06d b23e 078c efbf 6737 0a3f 0812 a73c
00000050: 9050 833e 2160 c7be 3f1a d03d 041a 923e
00000060: 3586 703f b01f 58be 060f 49bd 9e75 6b3e
00000070: 5d4f e1be 0e70 cb3c b476 8e3e e4da e9be
00000080: ac8f 3f3e 98ec 9f3f 66cb 6a3e 49ab 28be
00000090: 2771 733e 5082 3c3e 4daf d4bf 39d6 333e
000000a0: 383a 303f 8640 f43e 1bb9 4abe c8de b63e
000000b0: 72ce 05be c0f9 9abe d8b7 d1bd 50c7 233d
0.03794789 -0.20344625 0.02854795 0.35177043 -0.19530386 -1.1984533 0.4672229 0.38034588
0.4906907 -1.5094665 0.017557465 -0.05942006 -0.041800898 -0.33117968 0.291964 -0.43493235
0.34849358 -1.8714608 0.5399079 0.02039434 0.25647402 -0.38940528 0.10161256 0.28535473
0.93954784 -0.21105838 -0.049086593 0.22994086 -0.44005862 0.024833705 0.27824938 -0.45674813
0.1870715 1.2494078 0.22929153 -0.1647159 0.23773633 0.18409085 -1.6615998 0.17562188
0.68838835 0.47705477 -0.19797175 0.35716844 -0.13067034 -0.3026867 -0.102401435 0.039985

bias f4 [16]
00000000: 8dae 75be 9ff6 c83e 53d2 abbe d2e1 753f
00000010: 2bbb 803f 111e 263e 36fb 17bf 2dcc 31be
00000020: 9c24 003f 2228 b8be d414 883f 84a7 56bf
00000030: 6a17 12bf 0f18 a4be ceae 6b3f c2ba 12bf
-0.23992367 0.39250657 -0.33558902 0.960477 1.0057119 0.16222407 -0.5936769 -0.17363043
0.5005586 -0.3596812 1.0631356 -0.8384936 -0.5706698 -0.32049605 0.92063606 -0.5731622

weight f4 [2, 16]
00000000: 1a00 123e 30ca 773f ef89 b0be b386 eabf
00000010: cc13 013f 4ad9 033f dfcb 27bf 1b13 d8bd
00000020: 9c51 5b3e 0aab 01be 4f55 393f c7e9 82bf
00000030: 268f fb3e 55e3 b9be 4fb9 163f ccea 7ebe
00000040: e995 9dbb 1309 933e c19e 05c0 f75d 31c0
00000050: 4886 95bf 9f11 2cc0 7489 9cbf 7918 cdbf
00000060: e18e b3bf e38e b4be 9f64 adbf 88d5 15c0
00000070: 6c08 05c1 367b 2bc0 a78c 17c0 9a00 7cbe
0.14257851 0.9679289 -0.34480235 -1.8322357 0.5042083 0.5150343 -0.6554546 -0.10550519
0.2141785 -0.12662902 0.72395796 -1.0227593 0.4913265 -0.36306253 0.5887651 -0.24894255
-0.0048091304 0.2871786 -2.0878146 -2.7713602 -1.1681604 -2.6885755 -1.2229447 -1.6023093
-1.4027978 -0.35265264 -1.3546332 -2.341158 -8.314556 -2.6793952 -2.3679597 -0.24609604

bias f4 [2]
00000000: 8c70 cc3e 75a5 d0bf
0.39929616 -1.6300493
