models/flat_orientation_v_135.pth (torch, 3720 bytes, 3 tensors)

weight f4 [16, 3]
0.9917432 -8.222372 -3.0092103 5.0258045 -5.662049 -2.1264415 2.3140185 -6.165409
-9.454754 4.7182527 -7.5236483 -3.7824817 1.6470127 -1.7580771 2.4351296 3.1593525
-6.5492964 -3.7837386 3.3412857 -6.43619 -6.1908817 2.4390361 -5.381047 -6.904227
-0.24217182 0.106008075 -0.031872988 -0.6080476 -0.041541673 -0.019151438 3.3372302 -5.498405
-2.509845 -1.2860525 -6.2137046 -6.470017 4.94677 -4.748666 -1.1305748 6.172676
-6.0492306 -1.5826015 2.429285 -10.472298 0.10120134 3.7667253 -7.06567 -4.6853433
00000000: e2e2 7d3f d68e 03c1 e796 40c0 64d3 a040
00000010: 812f b5c0 9e17 08c0 e118 1440 084b c5c0
00000020: ac46 17c1 edfb 9640 bac1 f0c0 2e14 72c0
00000030: 50d1 d23f ac08 e1bf 2ad9 1b40 d532 4a40
00000040: d693 d1c0 c628 72c0 a0d7 5540 45f5 cdc0
00000050: b41b c6c0 2b19 1c40 8931 acc0 6def dcc0
00000060: e4fb 77be c31a d93d 408d 02bd 02a9 1bbf
00000070: 9a27 2abd 7ae3 9cbc 2e95 5540 eff2 afc0
00000080: 4da1 20c0 5e9d a4bf abd6 c6c0 610a cfc0
00000090: f14b 9e40 12f5 97c0 adb6 90bf 9086 c540
000000a0: 4c93 c1c0 b092 cabf 6879 1b40 888e 27c1
000000b0: a642 cf3d 0712 7140 f819 e2c0 55ee 95c0

bias f4 [16]
9.374358 12.455148 5.8600845 11.5836115 6.376902 10.126429 6.8450785 6.3855357
-0.35365972 -0.43016127 10.479167 6.322577 9.825026 12.61642 10.886 8.374491
00000000: 5ffd 1541 4948 4741 d085 bb40 7956 3941
00000010: 950f cc40 da05 2241 e20a db40 4f56 cc40
00000020: e312 b5be 193e dcbe abaa 2741 8d52 ca40
00000030: 4e33 1d41 dbdc 4941 0e2d 2e41 eafd 0541

weight f4 [1, 16]
2.3929684 -4.302502 -0.86139065 -1.9055504 -7.1743245 -1.7691687 -0.3346466 -0.44340616
0.05987938 0.107847765 -2.4822361 0.78843725 -4.875376 -6.030993 3.589759 -0.7278388
00000000: 6526 1940 19ae 89c0 1984 5cbf 13e9 f3bf
00000010: 1194 e5c0 1f74 e2bf cd56 abbe 2206 e3be
00000020: 1544 753d 4adf dc3d f5dc 1ec0 06d7 493f
00000030: 1503 9cc0 e5fd c0c0 9dbe 6540 a553 3abf
