models/flat_orientation_pi_160.pth (torch, 4368 bytes, 4 tensors)

weight f4 [32, 3]
0	0xbf4bd7e2	-0.79626286
1	0x3e928806	0.28619403
2	0x3e65621b	0.22400706
3	0xbe647fab	-0.22314326
4	0x3e3394c4	0.17537218
5	0x3ec4732b	0.38369116
6	0x3ef3c447	0.47610685
7	0x3f0b76e5	0.54478294
8	0x3e5132ef	0.20429586
9	0xbf103c0c	-0.56341624
10	0x3ea3d359	0.31997183
11	0xbf69edb2	-0.9137832
12	0xbf0b5456	-0.5442556
13	0x3ed181d3	0.4091936
14	0xbf2d27a3	-0.67638606
15	0x3e4ba19c	0.19885868
16	0x3ecad3a5	0.39614597
17	0xbd33eb5e	-0.043925636
18	0x3e8552ee	0.26039833
19	0xbf1fd529	-0.6243463
20	0x3e80176d	0.25017872
21	0x3e0f1f73	0.1397684
22	0xbf2b3845	-0.66882735
23	0x3d8b8146	0.06811766
24	0x3ed771d1	0.42079023
25	0xbedddb1b	-0.43331227
26	0x3decff8d	0.1157218
27	0xbeda6445	-0.42654625
28	0xbedca6ce	-0.43096012
29	0x3e70d2a6	0.23517856
30	0xbe0a5054	-0.13507205
31	0x3e7eb9f4	0.24875623
32	0xbf25d1fe	-0.6477355
33	0x3eae2905	0.3401567
34	0xbe86e4f2	-0.26346546
35	0x3d9f98a7	0.07792788
36	0xbdeb6ea3	-0.11495712
37	0xbc28da74	-0.0103059895
38	0xbd1b2bf5	-0.037883718
39	0xbf162abd	-0.58658963
40	0xbde88671	-0.11353768
41	0x3e2de259	0.16980876
42	0xbe713915	-0.23556931
43	0x3dac3be0	0.08409858
44	0xbebf5256	-0.37367505
45	0x3d4b413f	0.04962277
46	0x3f0187c1	0.5059777
47	0x3d1fa95f	0.038979884
48	0xbe85835c	-0.26076782
49	0x3d843012	0.06454481
50	0x3d2c5cf6	0.042080842
51	0x3ef0b7c6	0.47015208
52	0x3f19f0b8	0.6013293
53	0xbe25812a	-0.16162553
54	0x3e8857be	0.26629442
55	0x3ed0e499	0.40799406
56	0x3ecdef87	0.40221807
57	0xbea2e501	-0.3181534
58	0xbc01bdae	-0.007918758
59	0x3dcf6140	0.10125971
60	0x3f222b2b	0.6334712
61	0x3e92908c	0.28625906
62	0x3efd0dab	0.4942449
63	0x3f2d2a21	0.6764241
64	0xbee23823	-0.44183454
65	0x3e3fba13	0.18723325
66	0xbf1aef5b	-0.6052148
67	0x3e3bdf10	0.1834681
68	0x3f020d51	0.5080157
69	0x3ed58bf5	0.4170834
70	0x3e17f5d0	0.14839864
71	0x3eb26401	0.34841922
72	0x3ea8ece1	0.32993224
73	0xbdf0116f	-0.11722075
74	0xbfdf76f9	-1.7458183
75	0xbf3d5cf2	-0.7396995
76	0x3e16751f	0.14693116
77	0x3e0928ac	0.13394421
78	0xbe688222	-0.22705892
79	0x3b2ec95c	0.0026670313
80	0xbd5baf58	-0.053634018
81	0x3ed6d43a	0.4195879
82	0x3ea4df2f	0.32201526
83	0xbe953d74	-0.29148448
84	0xbf162296	-0.58646524
85	0x3dabe00e	0.083923444
86	0xbb2b4cf6	-0.0026138402
87	0x3e5856a5	0.21126802
88	0xbe999328	-0.29995084
89	0xbd453e92	-0.048155375
90	0x3ed2888d	0.41119805
91	0x3eb11294	0.34584486
92	0x3e812b68	0.2522843
93	0x3f078218	0.5293288
94	0x3eef2d0f	0.46714064
95	0xbf01b533	-0.50667113

bias f4 [32]
0	0x3ece899e	0.4033937
1	0x3f438cf4	0.7638695
2	0xbec00381	-0.37502673
3	0x3e7b413b	0.24536602
4	0xbea647b4	-0.3247658
5	0x3f3b9320	0.7327137
6	0xbe5d094a	-0.21585575
7	0xbc744b66	-0.0149105545
8	0xbf11b40a	-0.5691534
9	0xbdd522f2	-0.10407056
10	0x3e60d7ed	0.21957369
11	0x3ec275db	0.37980542
12	0xbecb7329	-0.39736298
13	0xbc4248fd	-0.011858222
14	0x3e8c068c	0.27348745
15	0x3e042aaa	0.129069
16	0xbf02a005	-0.5102542
17	0x3f15bc09	0.58490044
18	0x3df6f923	0.12059238
19	0xbf159755	-0.5843404
20	0xbec5bcd3	-0.38620624
21	0x3f05267e	0.5201186
22	0xbe11a198	-0.142218
23	0xbed4f642	-0.4159413
24	0x3eda282a	0.42608768
25	0xbea6a433	-0.3254715
26	0x3ed824e8	0.42215657
27	0xbd12bfd4	-0.035827473
28	0x3f693f7c	0.91112494
29	0xbe505cc3	-0.20347886
30	0x3ca132bb	0.01967751
31	0x3e8bc8fe	0.27301782

weight f4 [2, 32]
0	0x3e689455	0.22712834
1	0x3e810fa1	0.25207236
2	0xbec1cbb8	-0.37850738
3	0x3edee1db	0.4353169
4	0x3ec381f1	0.38185075
5	0x3e3b364d	0.18282433
6	0x3d7b6753	0.061377835
7	0x3da23814	0.07920852
8	0xbe6323e0	-0.22181654
9	0xbe96c76a	-0.29449016
10	0x3d5d799a	0.054071046
11	0x3eea8c1c	0.4581002
12	0x3e145e79	0.14489163
13	0xbea0066a	-0.31254894
14	0x3d10feb7	0.035399165
15	0xbd17b92c	-0.037041828
16	0x3deaecc9	0.114709444
17	0xbcfe617d	-0.031052345
18	0xbdac215f	-0.084048025
19	0xbe6c7758	-0.23092401
20	0xbea3d9cc	-0.32002103
21	0x3ee25405	0.44204727
22	0x3d898ceb	0.06716331
23	0xbe6b516e	-0.22980282
24	0x3f86bdff	1.0526732
25	0xbf1c2d19	-0.61006314
26	0x3e5c6292	0.21521977
27	0xbe3ef298	-0.1864723
28	0x3ea8c76a	0.3296464
29	0x3de399ec	0.11113343
30	0xbd78131b	-0.060565095
31	0xbe0527af	-0.1300342
32	0xbf3e4e7a	-0.74338496
33	0xbf420ab1	-0.75797564
34	0xbf8430f1	-1.0327436
35	0xbaf4dcf3	-0.0018681571
36	0xbf0bdf96	-0.5463804
37	0xbf311880	-0.6917801
38	0xbe457744	-0.19283777
39	0xbe63e73b	-0.22256176
40	0x3d6e948a	0.058247127
41	0xbd17eab6	-0.037089072
42	0x3dc3958e	0.0955001
43	0xbe0e2591	-0.13881518
44	0x3d41d2a3	0.04732002
45	0xbe9c45bb	-0.3052195
46	0xbe4b7258	-0.19867837
47	0xbfbc1c38	-1.4696112
48	0xbde4fc01	-0.111808784
49	0xbf3d2523	-0.7388479
50	0xbf480dff	-0.78146356
51	0x3e82bb64	0.25533593
52	0xbeccbf3f	-0.3998966
53	0xbe498a9d	-0.19681783
54	0xbf35fa4f	-0.71085066
55	0xbe7c6157	-0.24646507
56	0x3e1dfebb	0.15429203
57	0xbf31b6c4	-0.69419503
58	0xbe844948	-0.2583716
59	0xbe5eec73	-0.21769886
60	0xbebe4414	-0.37161314
61	0xbde3f3d7	-0.11130493
62	0xbf43fbd8	-0.7655616
63	0xbe745860	-0.23861837

bias f4 [2]
0	0x3df4ea20	0.11958718
1	0xbf002de4	-0.50070024
