models/flat_orientation_v_160.pth (torch, 4040 bytes, 3 tensors)

weight f4 [32, 3]
000000 37 f4 b1 3c c7 79 99 bf 99 94 c1 bf ce 38 f6 bc
       0.021722896 -1.1990288 -1.5123473 -0.030056383
000010 85 82 e7 be 6f 7e a0 3f 59 a5 d6 bd e9 c4 be bf
       -0.45216766 1.2538584 -0.10480756 -1.4903842
000020 b6 c9 27 bf 6b 41 ff be 0a cf d9 be 78 1a 2e be
       -0.6554216 -0.49854597 -0.4254077 -0.17002285
000030 be e2 7f 3f 9d 1a f4 bf 7d 80 28 bf d2 b7 a7 bd
       0.99955356 -1.9070622 -0.6582106 -0.08189358
000040 50 22 a9 bf ce 8f 81 bf e1 a3 91 3f fd bf b6 be
       -1.3213596 -1.0122011 1.1378137 -0.3569335
000050 22 8c c3 3f 57 5a 18 3f b9 fd ba bf 6a e3 30 bf
       1.527714 0.5951285 -1.460868 -0.69097006
000060 5c 91 2f 3c 5f de a9 bf b6 7a 3c bf 8c 41 16 3f
       0.010715809 -1.3270987 -0.7362474 0.58693767
000070 dd 71 b2 be 36 5e c9 3f 38 0f a8 be 41 c1 a6 bf
       -0.34852496 1.5731876 -0.3282411 -1.3027726
000080 b8 c1 39 bf d8 56 52 3e ed 28 bf bf c4 ad 64 bf
       -0.72561216 0.20540941 -1.4934365 -0.89327645
000090 de 74 6c bd 6e 30 a4 bf 8f e8 e1 be 91 8b 3d 3f
       -0.05772864 -1.282728 -0.4412274 0.74041086
0000a0 3b 84 f4 bf 7c 0c 31 bf 36 89 8f 3f 07 67 05 3e
       -1.9102854 -0.69159675 1.1213748 0.13027583
0000b0 8c 8c ac 3f 10 01 68 3f 1f ae bc bd 70 f7 c8 3f
       1.3480392 0.9062662 -0.092128985 1.5700512
0000c0 e2 da 90 3e dc 62 e1 bf 3b 63 44 bf 54 30 c0 3e
       0.28291994 -1.7608294 -0.76713914 0.3753687
0000d0 b7 88 30 3e c2 42 bd 3f 1b 0c 02 3f f2 37 1e bf
       0.17239653 1.4785998 0.5079972 -0.61804116
0000e0 3d 8f 9c 3f 48 9b 4b 3f 8d 62 c3 3d 99 88 a8 3f
       1.2231213 0.79533815 0.095402814 1.3166686
0000f0 87 fc 51 bd 33 6b 56 bf 21 fd 93 3f 2b 3e cc 3e
       -0.05126622 -0.83757323 1.1561624 0.3989118
000100 f7 9a b6 bf e0 a7 e4 be cc 78 07 3f 00 c9 a7 bf
       -1.4266042 -0.44659328 0.52918696 -1.3108215
000110 27 81 99 bf d0 ec 90 3d 5d 5a 64 bf 2a c7 c6 3f
       -1.1992539 0.070764184 -0.89200383 1.552953
000120 ff 66 28 40 ab d8 73 c0 bd 05 0d bf 81 6e 3b be
       2.6312864 -3.8100994 -0.5508688 -0.18303873
000130 ca 7a a4 bf cc f4 7d bf 57 c9 1f 3f 04 9d c6 bf
       -1.2849972 -0.99201655 0.62416595 -1.5516667
000140 21 b2 27 bf ee 3e 69 3e 00 81 93 bf 80 0e d7 bf
       -0.6550618 0.22777912 -1.1523743 -1.68013
000150 ef f5 7f 3f 09 c2 fd 3d 78 91 b8 3f 19 50 82 3f
       0.9998464 0.12390525 1.4419394 1.0180694
000160 23 ba 11 bc 0f 76 78 3f 5f 32 44 bf 0c 55 a2 bf
       -0.008894476 0.97055143 -0.7663936 -1.2682204
000170 7a 5b 25 bf 36 2f 9f 3f 76 35 a4 bf 41 f1 e0 3e
       -0.6459271 1.2436283 -1.2828815 0.43934062

bias f4 [32]
000000 d4 d4 58 40 6c b3 36 40 4d 78 81 40 c8 09 15 bf
       3.38799 2.854701 4.045935 -0.5821805
000010 f3 40 91 40 7b 33 6f 40 dc de 40 40 16 ad 58 40
       4.5391784 3.737517 3.0136023 3.3855643
000020 ab 51 60 40 24 52 25 40 cf ef 6d 40 65 8b 7c 40
       3.5049846 2.5831385 3.7177618 3.946008
000030 d9 db 65 40 a0 c0 97 40 3f 6f 2b 40 2d fd 2b 40
       3.5915434 4.742264 2.678665 2.6873276
000040 c2 c9 91 40 39 be 39 40 7f b1 38 40 ae d6 4a 40
       4.5558786 2.9022353 2.8858335 3.169353
000050 87 c1 43 40 4d 20 6d 40 5d 60 51 40 b7 f3 56 40
       3.058687 3.7050965 3.2715065 3.3586252
000060 24 70 cd 40 79 d3 6e 40 e1 22 67 40 5a 18 44 40
       6.419939 3.7316573 3.6115038 3.0639863
000070 64 34 5d 40 99 6b 25 40 a5 fa 7a 40 22 82 4a 40
       3.4563227 2.5846922 3.9215481 3.1641927

weight f4 [1, 32]
000000 82 dc 35 c0 f8 0f 9f bf 9c c4 3c c0 46 ea 4b bc
       -2.8415837 -1.2426748 -2.9495 -0.012445992
000010 77 33 63 c0 fc cb 3f c0 1f 92 8f bf 15 f0 31 c0
       -3.5500162 -2.9968252 -1.1216468 -2.7802784
000020 46 9b e3 bf 05 b3 9b bf fe 87 20 c0 c7 4f 59 c0
       -1.7781761 -1.2164007 -2.5083003 -3.3954942
000030 49 e1 f2 bf dc 6a 68 c0 c3 1c 48 bf 13 c9 85 bf
       -1.8975002 -3.6315222 -0.78168887 -1.0451988
000040 cd 36 43 c0 d3 b7 81 bf 51 0b c1 bf 2e 58 77 bf
       -3.0502198 -1.0134224 -1.5081578 -0.96618927
000050 9f 1a ca bf 40 b3 25 c0 fd e8 2b c0 b0 f6 bd bf
       -1.5789374 -2.5890656 -2.6860955 -1.4840908
000060 0d cf b2 c0 9f 87 3d c0 07 c7 52 c0 7b 27 46 c0
       -5.5877748 -2.9614027 -3.2933977 -3.0961597
000070 28 f4 40 bf 1a 85 a1 bf 11 b4 14 c0 e0 6c 28 c0
       -0.7537255 -1.2618744 -2.3234904 -2.6316452
