models/flat_orientation_pi_140.pth (torch, 4368 bytes, 4 tensors)

weight f4 [32, 3]
000000 1d 33 a3 bf 50 ec 29 3f 5e 58 ad bd 0e 18 48 bf
       -1.2749974 0.6637621 -0.0846412 -0.78161705
000010 4f 02 bf bc 92 45 7a 3e c1 e9 19 3f 46 71 a0 bf
       -0.02331653 0.24440601 0.60122305 -1.2534568
000020 78 0b c2 bd 4d 0f 48 3f 19 1f ef 3e 2c 7e f8 bd
       -0.09474844 0.7814835 0.46703413 -0.121334404
000030 e5 a2 fe be f4 84 4b bf ed 83 54 3e a5 07 49 bd
       -0.49733654 -0.79499745 0.2075345 -0.049079556
000040 2e 23 6a bf c9 07 b3 be fc 79 1c bf ab 87 73 bd
       -0.9145993 -0.34966877 -0.61123633 -0.059455555
000050 b7 e8 cb 3e 66 92 c8 be 84 b5 2f 3d 81 32 0c bf
       0.39825985 -0.39174193 0.042897716 -0.5476456
000060 95 40 73 3f 2b af b1 3e ef 25 20 3e 1d 1b 81 3f
       0.9502042 0.34703955 0.1563947 1.0086399
000070 8f 32 50 bf 7a 0e 03 bd cf 9d 8a 3f f1 29 a5 3e
       -0.81327146 -0.031996228 1.0829409 0.3225856
000080 1a ea 84 3e c4 ef e3 be 74 a4 56 be 4d 2b ed 3e
       0.25959855 -0.44518864 -0.20961171 0.46322098
000090 52 ea 7d 3f ac 0b 3f 3e b3 64 45 bd dc 3d f9 bf
       0.9918567 0.18656796 -0.048191737 -1.9472003
0000a0 9c 34 ba 3e ab bd 5d 3d c8 93 78 bf f2 61 03 3f
       0.36368263 0.05413596 -0.97100496 0.5132133
0000b0 f7 87 89 3d 94 f1 25 3e 9e 86 30 bf a8 f1 2a bf
       0.06715386 0.16205436 -0.6895541 -0.6677499
0000c0 5a 72 d5 be da 40 4a 3e 71 da f5 3e 1e ea 6d 3e
       -0.41688806 0.19751301 0.4801822 0.2323384
0000d0 47 9c ee 3e bb 02 9d 3e c0 ac c3 bf df fa fe 3e
       0.46603605 0.30666146 -1.5287094 0.49800774
0000e0 eb 39 ad 3d d9 26 b3 bf 82 e6 ba 3e 0f a2 0a 3e
       0.084583126 -1.399623 0.36503989 0.13538383
0000f0 94 71 a2 be d9 f6 a7 bd b5 08 d6 3e 6a 56 d4 bf
       -0.31727278 -0.08201379 0.41803518 -1.6588871
000100 6d 53 f5 3e a4 cd c6 3d 70 9c 5d 3f e8 1c a3 bf
       0.4791521 0.097071916 0.8656683 -1.2743196
000110 de f7 39 be 5b 21 21 3f 56 c1 26 3d 06 ee cc 3e
       -0.1816096 0.6294152 0.040711723 0.40025347
000120 50 19 38 3e e9 7f b7 be 58 cf 31 3e 4e 96 84 bf
       0.17978406 -0.35839775 0.17364252 -1.0358369
000130 37 21 51 be 70 39 42 3e 2c 2f 08 bf 87 f4 48 bd
       -0.20422827 0.18967223 -0.5319698 -0.049061324
000140 6c 5e ba be a3 95 4a bf d4 29 11 3f 7e 64 a6 be
       -0.36400163 -0.7913458 0.5670445 -0.32498544
000150 8b 82 bb bf 25 1d 15 3f 82 8b 88 3d 77 11 b9 3e
       -1.4649214 0.58247596 0.06667234 0.36146137
000160 30 e4 8a 3e de 60 cc 3e 0a 98 93 bf 66 b7 62 bf
       0.27127218 0.39917654 -1.1530774 -0.88561094
000170 3f cf fa 3d 66 cd 88 3f 56 af da 3e 1c 7b 15 3e
       0.1224656 1.0687683 0.42711896 0.14597744

bias f4 [32]
000000 cd 87 bb 3d b7 09 14 3f 74 1b b9 bd 58 59 47 bf
       0.09156761 0.57827324 -0.090384394 -0.778707
000010 03 73 d4 3e d1 ee 96 3e 06 1a 15 3f 88 bf ef 3e
       0.41493997 0.29479077 0.58242834 0.46825814
000020 f5 33 5f bf 16 1b 1b bf 0c 87 24 3e 25 6b 5c 3f
       -0.87188655 -0.60588205 0.16067141 0.8610099
000030 9d eb 39 bf 8c 0d af 3e 4a 1b ac 3d f3 65 07 bf
       -0.7262514 0.34190023 0.084036425 -0.5288994
000040 1c ba e3 be 6a c5 31 bf bb 6e 4a 3e a6 66 16 3d
       -0.44477928 -0.69441855 0.19768803 0.036718987
000050 ca eb 90 be 6f 74 39 3e 21 77 19 3f bd cf 17 bf
       -0.28304893 0.18110822 0.599474 -0.5930136
000060 aa 22 68 3f 7f 9a 20 bd be a3 84 3f 28 09 24 3f
       0.90677893 -0.03920984 1.036247 0.6407647
000070 a4 56 94 3e a2 bf 44 bf 9b 93 89 be 36 80 07 be
       0.28972352 -0.7685491 -0.26870427 -0.13232502

weight f4 [2, 32]
000000 c9 1d 13 3f be 4d ce 3e 53 91 a9 40 d0 ab 41 bf
       0.57467324 0.40293688 5.29899 -0.7565279
000010 1d 3a bc bd a5 29 14 40 8f 5d 9e 3e 22 a0 01 40
       -0.09190772 2.3150418 0.30930755 2.0253987
000020 77 1d 05 bf 7b b5 03 40 9a e6 a1 bd 18 11 53 3e
       -0.51998085 2.0579517 -0.07905312 0.2061199
000030 c0 54 68 bf 86 45 48 c0 37 11 71 bd 37 11 f1 3f
       -0.9075432 -3.1292434 -0.058854308 1.8833379
000040 27 1a 5d 3e b3 4c e7 bd c5 c2 61 3e 06 5f c7 3c
       0.21592008 -0.11293926 0.22046955 0.024337303
000050 85 91 cd be bc cf 4b 3e 85 c4 66 40 bb 1b ed be
       -0.40150085 0.19903463 3.6057446 -0.4631022
000060 6e e8 a6 3e dd 65 30 be ff 0f 9a 3f 2e cd 22 3f
       0.32599205 -0.17226358 1.2036132 0.6359433
000070 3b a9 8c 3e 9f d8 b6 be be ab a8 bf cc ac 21 be
       0.27472863 -0.35712144 -1.3177412 -0.15788573
000080 37 ce a3 c0 4f 87 24 bc 88 04 63 3f bd 6a 66 bf
       -5.1189227 -0.010042026 0.8867879 -0.9000662
000090 fc 3a 91 be fe a3 04 3e c1 2e 91 3d 6b f3 c1 3e
       -0.28365314 0.12953183 0.07088996 0.37881026
0000a0 3b 34 91 3f 52 96 b8 3f d1 a9 b1 3e 0d 5c 01 be
       1.1344064 1.4420874 0.34699872 -0.12632771
0000b0 24 3d 80 be d4 2a 6d c0 3a dd f4 be b7 41 bf 3f
       -0.25046647 -3.705739 -0.47825032 1.494193
0000c0 d0 0a df 3e 9f bb 4d 3e 4a b1 4c c0 f2 64 78 bf
       0.43562937 0.20091103 -3.1983209 -0.9702903
0000d0 b7 b3 ec 3d 3c a3 f7 bf 8d 6d 57 be 51 c2 13 3e
       0.115577154 -1.934669 -0.21037884 0.14429595
0000e0 a2 59 4e bb d3 ce a6 3d ba 9f 39 3f d3 e9 e7 be
       -0.003148653 0.08144917 0.7250935 -0.4529558
0000f0 13 ca 50 bf 4b 18 1d 3e 1e 2c 15 3f 7c 31 ae 3e
       -0.8155834 0.15341298 0.5827044 0.3402213

bias f4 [2]
000000 a9 ee 24 3f 2f c3 51 bd
       0.64426666 -0.051211532
