models/flat_orientation_2_pi_40.pth (torch, 3928 bytes, 4 tensors)

weight f4 [16, 2]
00000000: ad5f 453f d645 f33e 9eee 5dbe 3972 e83d
00000010: 1f9e 123f 9fe9 92be 4c25 01bf be79 73be
00000020: 9230 b93e 9607 a5be 317a 503f e871 b73e
00000030: 07a8 3b3f 0290 2cbc 650c 36bf 1bca f93e
00000040: cea8 15be 3080 d4bd 4ed0 9b3e aefd b13d
00000050: ef99 ae3e d695 9bbe d48a c1bd d6f6 7c3e
00000060: 2564 9dbe 1395 c3be e3e4 b83e e657 0bbe
00000070: d06c 963c e571 133f 913a 3bbf 7a2f c93e
0.77099115 0.47514218 -0.21673056 0.11349911 0.57272524 -0.28693864 -0.50447536 -0.2377691
0.3616987 -0.3223235 0.8143645 0.3582909 0.73303264 -0.010532381 -0.7111266 0.48787007
-0.14615175 -0.10376012 0.3043236 0.08690964 0.34101817 -0.30387753 -0.094503075 0.24703535
-0.30740467 -0.38199672 0.36112127 -0.1360775 0.018362433 0.57595664 -0.7313624 0.39294034

bias f4 [16]
00000000: 9901 2cbf 02d8 eebe 0719 2d3f 6d8a 983f
00000010: efd5 babd 2b35 52be be01 27bf 13fc a93e
00000020: 11a9 763f eff3 c1bd aa66 823f b20b 5cbf
00000030: b176 023f 809b 39bf 6046 78bf 8b9f a33f
-0.6718994 -0.46649176 0.67616314 1.1917244 -0.09122836 -0.20528094 -0.65237033 0.3320013
0.96351725 -0.09470355 1.018758 -0.85955346 0.5096236 -0.725029 -0.96982384 1.2783064

weight f4 [2, 16]
00000000: cdc9 cebe b572 a9be 07b5 213e bf67 bb40
00000010: ec5f bd3d 3b0e b2be 1a50 10bf da7c 473c
00000020: 6104 1d3f 8af0 debc d7fc d03e 97a7 0cbf
00000030: 4928 623f edab fdbe 0157 0abf ece0 1a3f
00000040: 9a97 90bf fa86 b23d 381a b7bf 7525 ccbf
00000050: f4ea 21bf 2a54 b5bf 3e8d c4bf 79fd adbf
00000060: a629 babf 703e b5bf 0e6f 9fbf d7bb b7be
00000070: 2249 88bf fd37 09bf c41d 50bf a94d 9bbf
-0.40388337 -0.33095327 0.15791713 5.8564143 0.09246811 -0.34776482 -0.56372225 0.012175763
0.61334807 -0.027214307 0.40817901 -0.5494322 0.8834272 -0.4954523 -0.5403901 0.60499454
-1.1296265 0.08717151 -1.4304876 -1.5948931 -0.63249135 -1.416631 -1.5355604 -1.3592979
-1.454396 -1.415968 -1.2455766 -0.35885498 -1.0647318 -0.53601056 -0.8129542 -1.2133075

bias f4 [2]
00000000: c3f4 823f 1809 c9bf
1.0230945 -1.57059
