models/flat_orientation_v_140.pth (torch, 4040 bytes, 3 tensors)

weight f4 [32, 3]
0	0x3d023663	0.03179015
1	0xbf732abc	-0.9498708
2	0xbe2c5fea	-0.16833463
3	0xbec1ddb2	-0.37864453
4	0x3b652036	0.0034961826
5	0x3f309d00	0.68989563
6	0x3ec0711b	0.37586293
7	0x3eab83e9	0.33499077
8	0xbe044e50	-0.12920499
9	0x3efba12e	0.49146408
10	0x3e28aedc	0.16472954
11	0x3f2e208c	0.6801841
12	0x40086b4e	2.1315494
13	0xbf45f364	-0.7732451
14	0x3da070a9	0.07833988
15	0xbe714b67	-0.2356392
16	0x3e96bbaa	0.2944005
17	0xbe0f7fad	-0.14013548
18	0x3f79d918	0.97596884
19	0x3f1ad0a5	0.60474616
20	0xbe0867f7	-0.1332091
21	0x405cc922	3.4497762
22	0xbfaaafec	-1.3334937
23	0x3d8e0ca2	0.06936003
24	0x3f404133	0.75099486
25	0xbd9de85f	-0.07710337
26	0x3f05cd77	0.5226664
27	0xbcffb110	-0.03121236
28	0x3d1a8b77	0.03773066
29	0x3c99088f	0.018680839
30	0x3eec72d1	0.46181348
31	0x3e60c8de	0.21951625
32	0x3e38b1e3	0.18036608
33	0x3f38e7e4	0.72228837
34	0xbf84da4f	-1.0379122
35	0xbde79054	-0.11306825
36	0x3f2cd5c8	0.67513704
37	0xbea8528b	-0.32875475
38	0x3dd0b81f	0.10191368
39	0x3f47b2e9	0.7800737
40	0xbeca0310	-0.39455462
41	0x3e199638	0.1499871
42	0xbc75680f	-0.014978423
43	0x3ecc44de	0.39896291
44	0x3dd096d6	0.1018502
45	0x3f35cbb8	0.71013975
46	0xbe5cae69	-0.21550907
47	0xbd315e2d	-0.043302704
48	0x3f6e1c4e	0.9301194
49	0xbf1565a5	-0.5835822
50	0x3ca3673b	0.019946685
51	0x3eb3180b	0.3497928
52	0x3f42e678	0.7613292
53	0x3ec04bad	0.37557736
54	0x3f5db930	0.866107
55	0x3ead26fd	0.33818808
56	0xbe4c6bca	-0.19962993
57	0xbe56f061	-0.20990135
58	0xbee7a46b	-0.45242628
59	0x3eaa64ec	0.33280122
60	0xbef33632	-0.47502285
61	0x3f0209ff	0.507965
62	0xbc48deb1	-0.012260125
63	0xbe439ffb	-0.19103996
64	0xbe208693	-0.15676336
65	0x3e818ba0	0.25301838
66	0x3f91c19f	1.1387213
67	0x3f34cbab	0.7062327
68	0x3e17c8b3	0.14822654
69	0xbf0e7f8d	-0.5566338
70	0xbcb6c898	-0.022312447
71	0x3ef92e23	0.48668012
72	0x3f8abbd6	1.0838573
73	0xbea2677c	-0.31719577
74	0x3f1f6a72	0.622718
75	0x3f17f1dc	0.59353423
76	0x3da2c94d	0.07948551
77	0x3e740117	0.2382854
78	0x3f735c94	0.9506314
79	0xbeb75da0	-0.35813618
80	0xbe229140	-0.15875721
81	0x3dc99c7f	0.098443024
82	0x3c117923	0.008878979
83	0x3f162d17	0.5866255
84	0xbf0353c4	-0.5129969
85	0xbfab1e24	-1.3368573
86	0xbeae7d0e	-0.34079784
87	0xbe16c4bf	-0.1472349
88	0x3e6e4958	0.23270166
89	0x3ecc6ef8	0.39928412
90	0x3f450e63	0.7697508
91	0xbcab82f2	-0.020936463
92	0xbfb05e1e	-1.3778722
93	0x3d495688	0.04915479
94	0xbf696ef4	-0.91184926
95	0xbe234749	-0.15945162

bias f4 [32]
0	0x40777df1	3.8670619
1	0x410f151a	8.942652
2	0x40842b68	4.1302986
3	0x4030ac04	2.760499
4	0x3fb5dd94	1.4208245
5	0xbf4a0969	-0.7892061
6	0x403eb0ee	2.979549
7	0x40008085	2.0078442
8	0x40701803	3.7514656
9	0xbea32fbd	-0.3187236
10	0x4060953e	3.509109
11	0x405c73c2	3.4445653
12	0x4079ca1b	3.9029605
13	0x405a3a06	3.4097915
14	0xbfb411c4	-1.4067922
15	0x406f47b6	3.738752
16	0x3ffde22e	1.983465
17	0x405c9c62	3.4470448
18	0x4074f670	3.8275414
19	0x402b5426	2.677011
20	0xbfaf2797	-1.3683957
21	0x405811ba	3.376082
22	0x405b4cbb	3.4265583
23	0x411b7f29	9.718545
24	0x40714be1	3.7702563
25	0x407eda38	3.982069
26	0x40802dd4	4.0055943
27	0x406314e7	3.5481508
28	0x40b84590	5.7584915
29	0x407c15a2	3.9388204
30	0x4068048c	3.6252775
31	0x406e4399	3.7228758

weight f4 [1, 32]
0	0xc0cc7ac8	-6.389988
1	0x40c3ccfa	6.1187716
2	0xc0799c12	-3.9001508
3	0xc09798ef	-4.7374187
4	0xc0306730	-2.756298
5	0x3c0496ec	0.008092623
6	0xc0b30289	-5.5940595
7	0xbfee3899	-1.8611022
8	0xc07d563c	-3.9583883
9	0x3c9f33fe	0.019433971
10	0xc0914f41	-4.5409245
11	0xc09b983d	-4.862334
12	0xc06334ca	-3.550097
13	0xc069ff81	-3.6562197
14	0xc04c10c1	-3.1885226
15	0xc04b75a3	-3.179055
16	0xc0557cc1	-3.3357394
17	0xc0be1773	-5.9403625
18	0xc098ceee	-4.77526
19	0xc09698ba	-4.7061434
20	0xc0617e59	-3.5233366
21	0xc087e88c	-4.247137
22	0xc0c42888	-6.1299477
23	0x410390e4	8.222874
24	0xc06638b5	-3.5972111
25	0xc07c2114	-3.939519
26	0xc05cdd4c	-3.451007
27	0xc08aa41a	-4.332532
28	0xc0cd5a39	-6.4172635
29	0xc07ff18b	-3.9991176
30	0xc09524e7	-4.6607547
31	0xc0c0a247	-6.0198092
