models/flat_orientation_2_v_40.pth (torch, 3664 bytes, 3 tensors)

weight f4 [16, 2]
0.116424 0.7287161 -1.9599743 -0.3922 -0.10766788 0.92962193 0.11662507 1.4627278
-2.4799473 -0.31279638 -3.0657117 -1.3153565 -0.31378132 0.87997574 -3.1375277 -0.81819695
-2.3075175 -0.9726694 -2.4053428 -0.25073627 0.38705438 0.9809964 -0.783448 1.2792974
-3.2949595 -1.1246883 -1.5732592 -0.1048482 -1.7929546 -0.0028240697 -0.66523117 0.56423163
00000000: b56f ee3d 238d 3a3f 70e0 fabf 70ce c8be
00000010: fa80 dcbd b4fb 6d3f 20d9 ee3d aa3a bb3f
00000020: 75b7 1ec0 d926 a0be 9f34 44c0 9a5d a8bf
00000030: f2a7 a0be 1746 613f 41cd 48c0 5b75 51bf
00000040: 5eae 13c0 dd00 79bf 23f1 19c0 8160 80be
00000050: fe2b c63e 9422 7b3f 0c90 48bf 04c0 a33f
00000060: 9ee0 52c0 c9f5 8fbf 8f60 c9bf a7ba d6bd
00000070: 897f e5bf 0714 39bb 974c 2abf 7c71 103f

bias f4 [16]
2.6161206 5.0105896 2.9295135 1.3990042 2.4070039 -0.22990103 1.8406991 3.0567982
2.1726727 3.375873 2.87237 0.59015745 0.9688885 4.8571496 2.6086905 1.6113368
00000000: 856e 2740 c056 a040 267d 3b40 9212 b33f
00000010: 5a0c 1a40 2d6b 6bbe 079c eb3f 95a2 4340
00000020: 120d 0b40 4e0e 5840 e9d4 3740 8f14 173f
00000030: 1409 783f c56d 9b40 c9f4 2640 4940 ce3f

weight f4 [1, 16]
0.10361997 -2.1702147 -0.2939006 0.189967 -1.7669204 -1.2496094 -0.2992877 -1.2085904
-1.0763056 -1.5072339 0.09782411 0.3004734 -1.1228667 -2.8186207 -1.3615748 -0.63117164
00000000: b536 d43d cce4 0ac0 247a 96be b686 423e
00000010: 732a e2bf 33f3 9fbf 3d3c 99be 17b3 9abf
00000020: 62c4 89bf 0aed c0bf 0258 c83d a6d7 993e
00000030: 19ba 8fbf 4864 34c0 1548 aebf 7794 21bf
