models/orientation3D_v_170_new.pth (torch, 73384 bytes, 5 tensors)

weight f4 [128, 4]
0	0x3f07d76d	0.5306309
1	0x3f568998	0.838037
2	0x3ef019f3	0.46894798
3	0x3f1f6eee	0.6227864
4	0xbefbfbad	-0.4921545
5	0x3f17cc78	0.5929637
6	0x3f3fd16b	0.7492892
7	0xbf23107f	-0.63697046
8	0xbe0b621e	-0.13611647
9	0x3f0a2b04	0.53971887
10	0xbf8ff223	-1.1245769
11	0x3ee2954d	0.44254532
12	0xbf0defe3	-0.55444163
13	0x3d5f5c8f	0.05453163
14	0xbf2c21fe	-0.6723937
15	0xbf07d5ec	-0.53060794
16	0xbef4548e	-0.4772076
17	0x3f3301e0	0.69924736
18	0xbf2d8fe4	-0.67797685
19	0xbdc0182d	-0.09379611
20	0x3d16c264	0.03680648
21	0x3f513fb0	0.81737804
22	0x3f6128d6	0.87952936
23	0x3f1cbf68	0.6122956
24	0x3ce694cf	0.02814713
25	0x3f567495	0.8377164
26	0xbfa6cc3c	-1.3031077
27	0x3eeead49	0.4661658
28	0xbd9881a0	-0.07446599
29	0x3d690960	0.056893706
30	0x3e8cf04c	0.27527082
31	0x3daf6af0	0.085653186
32	0xbea3263a	-0.31865102
33	0x3f35953e	0.7093085
34	0xbf95928c	-1.1685348
35	0x3d868125	0.06567601
36	0x3f30bdb4	0.69039464
37	0x3f86285d	1.0481068
38	0x3ee73026	0.45153922
39	0x3ea03109	0.3128741
40	0x3e0af5e4	0.13570362
41	0xbe817475	-0.25284162
42	0x3ecfac77	0.40561268
43	0xbe2d3cf8	-0.16917789
44	0xbf1642f9	-0.5869594
45	0x3e94c0af	0.29053256
46	0xbe7118e0	-0.23544645
47	0x3d77d294	0.060503557
48	0xbbec3e6d	-0.00720959
49	0xbe280187	-0.16406833
50	0xbf4b7da3	-0.7948858
51	0x3e20e057	0.15710579
52	0xbf0dcc62	-0.5538999
53	0x3f29b5c1	0.6629296
54	0xbe81c5c5	-0.253462
55	0x3cde3ee1	0.027129592
56	0xbea5610d	-0.32300606
57	0x3e9a01bc	0.30079448
58	0xbdd3db23	-0.103445314
59	0xbe34ad76	-0.17644295
60	0x3ebaeb9d	0.36507884
61	0x3ec131fa	0.37733442
62	0xbe9b28c3	-0.30304536
63	0x3ed38fe9	0.41320732
64	0xbea2e503	-0.31815347
65	0xbef77864	-0.48334038
66	0xbf927d6e	-1.1444528
67	0x3f35e68b	0.71054906
68	0xbf2fb755	-0.6863912
69	0x3f4f1887	0.808968
70	0xbf0f01e6	-0.5586227
71	0xbe9297b9	-0.2863138
72	0xbcafab5f	-0.02144402
73	0x3e209250	0.15680814
74	0x3e286a88	0.16446888
75	0x3f41fa0e	0.7577218
76	0x3e961131	0.2930999
77	0x3eccfebb	0.40038094
78	0xbec71c7e	-0.38888925
79	0x3daeb6fb	0.085309945
80	0xbe36666d	-0.1781251
81	0x3f4f58d5	0.8099492
82	0xbf968ac6	-1.17611
83	0x3f2e2527	0.6802544
84	0xbdb38f73	-0.08767595
85	0xbe63db01	-0.22251512
86	0xbfa35ea0	-1.2763252
87	0xbed73605	-0.420334
88	0xbf584def	-0.8449392
89	0x3f001ebb	0.5004689
90	0x3f96a755	1.1769816
91	0xbf3fad55	-0.7487386
92	0xbe2b691a	-0.16739312
93	0x3f4b71ba	0.7947041
94	0xbf61eea2	-0.8825475
95	0x3e59d890	0.21274018
96	0xbf0baabd	-0.545574
97	0x3efeca93	0.49763927
98	0xbf8b918a	-1.090379
99	0x3e6bd29d	0.23029561
100	0xbd80d1d8	-0.062900245
101	0xbedce328	-0.43142056
102	0x3e6f745c	0.23384231
103	0x3db570e0	0.0885942
104	0xbf2e205b	-0.6801812
105	0xbfad15b0	-1.3522243
106	0x3f792eb7	0.97336906
107	0x3fd25f3d	1.6435314
108	0xbeef8a55	-0.46785226
109	0x3f10140c	0.5628059
110	0xbe414689	-0.18874563
111	0x3f257717	0.6463484
112	0x3eef1436	0.46695107
113	0x3edabddf	0.42722985
114	0x3dd3f3ca	0.103492334
115	0x3f08ed32	0.5348693
116	0xbe8d4349	-0.27590397
117	0x3d571b9a	0.052516557
118	0x3fc3f34a	1.5308621
119	0x3f44d8d3	0.7689335
120	0xbe57035f	-0.2099738
121	0x3f04f8a4	0.51941895
122	0xbf2ca4d8	-0.6743903
123	0x3f14e992	0.581689
124	0xbe5f477e	-0.21804616
125	0x3f134e3e	0.57541263
126	0xbf4a69c2	-0.79067624
127	0x3f092d9c	0.5358522
128	0xbd150094	-0.036377504
129	0x3f8f4171	1.1191846
130	0x3fc6e07b	1.5537256
131	0xbf25b4ea	-0.6472918
132	0xbe854aa9	-0.26033524
133	0x3f275bcd	0.6537445
134	0xbf5fb880	-0.873909
135	0x3edd7ef4	0.4326092
136	0xbe985e0c	-0.29759252
137	0x3d8e91f0	0.06961429
138	0xbee34bdc	-0.44393814
139	0x3e8d6b5e	0.27620977
140	0xbd87cbfd	-0.066307046
141	0xbc908323	-0.017640656
142	0xbf83b06f	-1.0288218
143	0x3f0d8169	0.5527559
144	0xbebc1e2c	-0.3674177
145	0x3e87f2e2	0.26552492
146	0xbf82729d	-1.0191227
147	0x3f21d880	0.6322098
148	0xbe73d060	-0.23809958
149	0xbed0f05a	-0.40808374
150	0x3e14d3f4	0.14533979
151	0xbe13ac2c	-0.14421147
152	0x3eac680b	0.33673128
153	0x3f17afaf	0.59252447
154	0xbe56946a	-0.20955053
155	0x3c422838	0.011850409
156	0xbe2e8535	-0.17043002
157	0x3edbe786	0.42950076
158	0xbf3c2c8e	-0.73505485
159	0x3deee73a	0.11665197
160	0xbe657aa4	-0.22410065
161	0xbe302e00	-0.17205048
162	0xbec61646	-0.38688868
163	0x3dd05a18	0.10173434
164	0x3eaff8a7	0.34369394
165	0x3f081153	0.53151435
166	0x3e1226e9	0.14272656
167	0x3e9ef09c	0.31042945
168	0xbe941bbf	-0.2892742
169	0xbd89c335	-0.06726686
170	0xbf714d7c	-0.94258857
171	0x3f0f31b4	0.55935216
172	0xbee9fc0a	-0.45700103
173	0x3da6bb42	0.08141185
174	0xbf10238f	-0.5630426
175	0xbdffad10	-0.12484181
176	0xbec92c38	-0.3929155
177	0xbf747e8d	-0.955056
178	0x3ff13327	1.8843735
179	0x3fe50bbc	1.7894206
180	0x3ec649d2	0.38728195
181	0x3ef0e01d	0.47045985
182	0x3f0b24d9	0.543531
183	0xbe8c4269	-0.27394417
184	0xbf175fed	-0.59130746
185	0x3eedba67	0.46431276
186	0xbf720d33	-0.9455139
187	0x3e58bf23	0.21166663
188	0xbe67cee8	-0.22637522
189	0xbb47ebec	-0.003050561
190	0xbed0fdff	-0.40818784
191	0x3e379087	0.17926227
192	0xbe4a2fd5	-0.19744809
193	0x3f29668f	0.66172117
194	0xbf59acb9	-0.8502918
195	0x3e271c92	0.16319492
196	0xbef79cf8	-0.48361945
197	0xbe80aa56	-0.25129956
198	0xbd1e1ba0	-0.038600564
199	0xbe4051d8	-0.18781221
200	0xbee3b82c	-0.4447645
201	0x3e58d3f4	0.21174604
202	0xbf14ba93	-0.5809719
203	0xbe28e282	-0.16492656
204	0xbe9435a3	-0.28947172
205	0x3f19a752	0.60020936
206	0xbf172f0c	-0.5905616
207	0xbe830f34	-0.25597537
208	0x3e190062	0.14941552
209	0xbee9ac91	-0.4563947
210	0xbf7b5b54	-0.9818623
211	0x3f4d55ee	0.80209243
212	0xbdf72c67	-0.12069016
213	0x3f4d2e84	0.801491
214	0xbf92a500	-1.1456604
215	0x3e77092d	0.24124594
216	0xbefc42a4	-0.49269593
217	0x3efd40bb	0.49463448
218	0xbf0a7f92	-0.54100907
219	0x3f18083b	0.5938756
220	0xbe88102b	-0.26574835
221	0xbde7fd2d	-0.11327586
222	0xbf430e7a	-0.76193964
223	0x3efc8a59	0.493243
224	0xbd6c9ff0	-0.057769716
225	0xbe219dac	-0.15782803
226	0x3e9c3406	0.3050844
227	0x3c206c00	0.009791374
228	0xbe80fa90	-0.25191164
229	0x3e85d68d	0.26140252
230	0x3ee08fb0	0.43859625
231	0x3e95d71a	0.29265672
232	0xbf2915ab	-0.6604869
233	0x3f483351	0.782033
234	0xbe8c62ef	-0.2741923
235	0x3ea9c8d6	0.33161038
236	0xbe300f35	-0.17193301
237	0x3f858394	1.043078
238	0x3fd4eb7a	1.6634362
239	0xbd69f992	-0.057122774
240	0xbe94cecc	-0.29064023
241	0x3f36e7c5	0.714474
242	0xbed9863d	-0.42485228
243	0x3e89e1ee	0.26930183
244	0xbe983299	-0.29726103
245	0x3e677497	0.22603069
246	0xbec91375	-0.39272657
247	0x3ce66252	0.028123055
248	0xbe57d399	-0.21076812
249	0x3f438b86	0.7638477
250	0xbf937cd1	-1.1522466
251	0x3f0bb150	0.5456743
252	0xbe9c03f0	-0.30471754
253	0xbe0f1ac0	-0.13975048
254	0xbd95e768	-0.07319528
255	0x3deb7118	0.1149618

bias f4 [128]
0	0x3f3c92e8	0.7366166
1	0x3e06292b	0.13101642
2	0x3def3b07	0.116811804
3	0x3f0efc1f	0.55853456
4	0x3efce242	0.4939137
5	0xbe6694d2	-0.22517708
6	0xbd667103	-0.05626012
7	0xbeb803b8	-0.35940337
8	0x3eac16c1	0.3361111
9	0x3f1121ff	0.566925
10	0xbeecab11	-0.46224263
11	0x3f170af1	0.5900107
12	0x3e86bb7e	0.2631492
13	0x3f11a70d	0.56895524
14	0x3ea7bb19	0.32759932
15	0x3edd6561	0.43241408
16	0xbe14898b	-0.14505593
17	0x3f341e8c	0.7035911
18	0xbe907f28	-0.28222013
19	0x3e92c66d	0.28667012
20	0x3e1960a5	0.14978273
21	0x3e1ca6f1	0.15298058
22	0xbe132680	-0.14370155
23	0xbde2dd71	-0.11077393
24	0x3f0e44c5	0.55573684
25	0xbe8448de	-0.25836843
26	0x3f85656c	1.0421576
27	0x3ef4e3c1	0.47830012
28	0x3ec4afc6	0.38415354
29	0x3e1c607d	0.15271182
30	0x3e5bf4de	0.21480128
31	0xbde463d7	-0.111518554
32	0xbea456da	-0.32097512
33	0x3e880e18	0.26573253
34	0xbedc8fa0	-0.43078327
35	0x3ef1e3e3	0.47244176
36	0x3ec072f0	0.3758769
37	0xbe425628	-0.18978179
38	0x3eed553f	0.463541
39	0x3ee536d6	0.447684
40	0xbe5167cc	-0.20449752
41	0x3eb574a7	0.3544056
42	0x3e9626b1	0.29326394
43	0x3ee9bc79	0.45651606
44	0x3f01f382	0.5076219
45	0x3e4363aa	0.19080988
46	0x3f197d96	0.59957254
47	0xbd8aa0da	-0.06768961
48	0x3ead0c0f	0.33798262
49	0xbeace6ec	-0.3376993
50	0x3f308ea2	0.6896764
51	0x3e9c37d3	0.3051134
52	0xbe21087a	-0.1572589
53	0x3dd80cdd	0.105493285
54	0x3f2a9e6f	0.66648
55	0x3eb6425d	0.35597506
56	0xbe875744	-0.26433766
57	0x3e834d72	0.25645024
58	0x3f2d425d	0.6767939
59	0xbdc4d508	-0.09610945
60	0x3e9869ca	0.2976821
61	0x3eed76f5	0.4637982
62	0x3e447519	0.19185294
63	0xbec042de	-0.37551016
64	0xbe6242cc	-0.22095793
65	0x3bdef08b	0.0068035773
66	0x3f2417c3	0.6409876
67	0x3e8bfccd	0.2734131
68	0xbdaca129	-0.08429176
69	0xbeae9dae	-0.34104675
70	0x3e2bb8f1	0.16769768
71	0xbeb2a95e	-0.34894842
72	0x3df68d13	0.120386265
73	0xbe8cf6f0	-0.27532148
74	0xbde923a6	-0.113837525
75	0xbe9fae48	-0.31187654
76	0x3ea82383	0.32839593
77	0xbcb33fa1	-0.021880927
78	0x3e6a9f3a	0.22912303
79	0x3e8c27b9	0.27374056
80	0x3e810269	0.2519715
81	0x3f111d9e	0.5668582
82	0x3e9c9974	0.30585825
83	0xbd50f5c0	-0.051015615
84	0x3f0e845f	0.5567073
85	0xbecddcb4	-0.40207446
86	0x3ee69158	0.45032763
87	0xbdc5104f	-0.09622251
88	0xbea4637c	-0.3210715
89	0x3e136ee6	0.14397773
90	0xbed0eb14	-0.4080435
91	0xbea6e04a	-0.32592994
92	0xbed90e6c	-0.42393816
93	0x3f3888b1	0.72083575
94	0x3eb92a5e	0.36165136
95	0x3e0e1783	0.13876157
96	0xbed52bf8	-0.41635108
97	0xbe85caaa	-0.26131183
98	0x3f028433	0.5098297
99	0x3f041097	0.51587814
100	0x3e07e47f	0.13270758
101	0x3ee8f500	0.4549942
102	0xbdb64435	-0.08899728
103	0xbe9860da	-0.29761392
104	0x3f3344fe	0.7002715
105	0x3f17b08a	0.5925375
106	0x3ee2f080	0.44324112
107	0x3ed48cd0	0.4151368
108	0xbe70e4c0	-0.23524761
109	0x3e97d819	0.29657057
110	0x3db7471d	0.08949111
111	0xbe8a4abc	-0.27010143
112	0x3ec45e72	0.38353306
113	0xbd01cd7c	-0.031690106
114	0x3e934534	0.28763735
115	0xbee7adb8	-0.45249724
116	0x3f00bff7	0.50292915
117	0x3ecddf91	0.4020963
118	0x3eb666d3	0.35625324
119	0x3eee43f6	0.46536225
120	0x3efbd49a	0.4918564
121	0x3ee6adca	0.45054466
122	0xbe475668	-0.19466555
123	0x3e2e736e	0.1703622
124	0x3f36aa45	0.7135356
125	0x3ecbe6f9	0.39824656
126	0xbea48d3c	-0.32139003
127	0x3eba9dad	0.36448422

weight f4 [128, 128]
0	0xbce8ad62	-0.028402988
1	0x3db1e8d9	0.0868699
2	0x3eb1b685	0.34709564
3	0x3f37f13f	0.7185249
4	0x3e78615a	0.24255887
5	0x3f42390b	0.7586829
6	0x3ed7879e	0.42095655
7	0xbd91dfd5	-0.07122771
8	0x3f1cb3c3	0.61211795
9	0xbe381e83	-0.1798039
10	0x3cf16db5	0.029471258
11	0x3e702c03	0.23454289
12	0x3d896be8	0.067100346
13	0x3eaa929c	0.3331498
14	0x3d9b0c86	0.07570748
15	0x3cd46a6f	0.025929658
16	0x4007d0a0	2.1221085
17	0x3e3f7ebd	0.1870069
18	0x3eed72e1	0.46376708
19	0xbbbbab24	-0.0057271887
20	0x3e8fb076	0.28064317
21	0x3ef8377b	0.48479828
22	0x3fbf6ff4	1.495604
23	0xbe40d96e	-0.18832943
24	0x3eb8a1d3	0.36060962
25	0xbd9e6e31	-0.07735861
26	0x3fee95e3	1.8639492
27	0x3e81bc60	0.2533903
28	0xbda3fb68	-0.08006936
29	0x3f14c3ad	0.5811108
30	0x3ef529c4	0.47883427
31	0xbe45c8a0	-0.19314814
32	0x3fb02e02	1.376404
33	0x3eb0a9e7	0.34504625
34	0x3d9a3941	0.075304516
35	0x3e225527	0.15852796
36	0x3ef098a4	0.46991456
37	0xbda7ae46	-0.08187537
38	0x3d98507c	0.07437226
39	0x3d9efb66	0.07762794
40	0x3d9d8031	0.07690466
41	0xbd7eb86c	-0.062187597
42	0x3ed59de3	0.4172202
43	0x3e9a0236	0.30079812
44	0x3fb5fef9	1.4218436
45	0xbd00f68e	-0.031485133
46	0x3ea2678b	0.31719622
47	0xbecbc9ae	-0.39802307
48	0x3d48263d	0.048864592
49	0xbbc6b750	-0.006064333
50	0x3e4648fc	0.19363779
51	0x3ec12fee	0.3773188
52	0x40096b1f	2.1471632
53	0x3e73c7aa	0.23806635
54	0x3df4642f	0.11933171
55	0x3e8b4bbf	0.27206227
56	0x3c06e568	0.008233406
57	0x3d3a1c74	0.04543729
58	0x3e9aceae	0.3023581
59	0x3f980601	1.1876832
60	0x3e05d56f	0.130697
61	0x3e00a98a	0.12564674
62	0x3e9ec393	0.31008586
63	0xbd09fc70	-0.03368801
64	0xbd4d9a3e	-0.050195925
65	0x3d81e137	0.063417844
66	0x3edee394	0.43533003
67	0x3ea8204f	0.3283715
68	0xbd43c270	-0.047792852
69	0xbc3321e0	-0.010933369
70	0x3fe5ab1f	1.7942847
71	0x3c0a5d68	0.008445121
72	0x3f5f336b	0.8718783
73	0xbcfe58de	-0.031048235
74	0xbe32fe97	-0.17479931
75	0xbb29c2a0	-0.002590336
76	0x4034ca7a	2.8248582
77	0x3f48c640	0.78427505
78	0xbf08eb45	-0.5348399
79	0xbca9bac9	-0.020718949
80	0x3e868016	0.26269597
81	0x3eea1005	0.45715347
82	0x3d83d81f	0.06437706
83	0xbe57978c	-0.21053904
84	0x3ebe5640	0.3717518
85	0xbd94e2f2	-0.07269849
86	0x3e63c560	0.22243261
87	0xbdb6421b	-0.08899327
88	0xbd434383	-0.047671806
89	0x3e9b6b1e	0.3035516
90	0x3d225cba	0.039639212
91	0xbc284900	-0.010271311
92	0x3ff73ab6	1.9314792
93	0x3f016f7a	0.50560725
94	0x3e8d630f	0.27614638
95	0x3e053700	0.13009262
96	0xbda764e4	-0.0817354
97	0x400132ae	2.0187182
98	0x3e10123e	0.14069459
99	0x3e454e2f	0.19268106
100	0xbe67b416	-0.22627291
101	0x3f9f3149	1.2436916
102	0x3e214731	0.15749814
103	0xbc408560	-0.011750549
104	0x3f09d0bc	0.5383413
105	0x3ea75fc0	0.3269024
106	0x3ead3e0e	0.33836406
107	0xbebec691	-0.3726087
108	0x3da191b3	0.07889118
109	0x3e00f851	0.12594725
110	0x3d9cd199	0.07657165
111	0x3d94646f	0.07245719
112	0x3f0a3109	0.5398107
113	0xbe695fd8	-0.22790468
114	0xbd469f7b	-0.048491936
115	0xbcc62854	-0.024189152
116	0xbd1eaf22	-0.03874124
117	0x3de3ac8a	0.111168936
118	0x3df1f654	0.118145615
119	0x3e905133	0.2818695
120	0x3eaee991	0.34162572
121	0x3f097469	0.5369325
122	0x3d8c6c95	0.06856648
123	0xbe10e5aa	-0.1415011
124	0x3ec66001	0.3874512
125	0x3d74246c	0.059605047
126	0x3f9a1cef	1.204008
127	0x3f0af552	0.5428058
128	0xbd806d40	-0.06270838
129	0xbc88ada3	-0.016684359
130	0xbd1b0d8f	-0.037854727
131	0xbdac2f06	-0.084074065
132	0xbdba0a6d	-0.0908402
133	0xbcce7537	-0.025202377
134	0x3d22f7ea	0.03978721
135	0x3ca5f9e0	0.020260751
136	0xbd02944c	-0.03187971
137	0x3d83a505	0.06427959
138	0xbda48bcf	-0.08034479
139	0xbd5db11c	-0.054123983
140	0x3ba3ee31	0.00500276
141	0xbd9d0dbc	-0.07668635
142	0xbdbad7f6	-0.091232225
143	0x3d6d30ed	0.057907987
144	0xbd2b20ad	-0.04177921
145	0x3c932263	0.017960733
146	0x3d3eceec	0.046584055
147	0xbbaffc81	-0.005370677
148	0xbd53f204	-0.051744476
149	0xbd39cdff	-0.04536247
150	0xbd2cf096	-0.042221628
151	0xbd954ca5	-0.072900094
152	0x3b814f88	0.0039462484
153	0xbda3dde0	-0.08001304
154	0xbda03262	-0.0782211
155	0xbd91a842	-0.07112171
156	0x3ced1383	0.028939968
157	0x3d57206c	0.052521154
158	0x3d0c0be1	0.034191016
159	0xbd99b6ab	-0.07505544
160	0x3d3c15fe	0.04591941
161	0x3cf25d34	0.029585458
162	0x3da0b607	0.07847219
163	0xbd8c6fa1	-0.06857229
164	0x3d5e5410	0.054279387
165	0xbc8af4cc	-0.016962431
166	0xbd122f1d	-0.035689462
167	0xbd5bba11	-0.053644244
168	0x3be1a110	0.006885655
169	0xbcc4017d	-0.02392649
170	0xbda74d02	-0.08168985
171	0x3d871f3c	0.06597754
172	0xbaa89800	-0.0012862682
173	0xbd70b2be	-0.05876421
174	0xbd1798be	-0.0370109
175	0xbd6d5f36	-0.05795213
176	0x3d51bd4f	0.05120593
177	0xbdaeed5c	-0.085413665
178	0x3acffdf0	0.0015868526
179	0x3dab40b1	0.08361948
180	0x3d687251	0.056749646
181	0xbda33467	-0.07968979
182	0x3d4bd3cd	0.049762536
183	0x3c6e2e5b	0.014537419
184	0x3c9f8d50	0.019476563
185	0x3d0913a9	0.033466015
186	0x3d876a23	0.06612041
187	0x3d850061	0.06494213
188	0xbdac1796	-0.08402936
189	0x3d5fc2d4	0.054629162
190	0xbd325055	-0.04353364
191	0x3d12ba66	0.035822295
192	0xbd4680ed	-0.048462797
193	0x3d06d224	0.03291525
194	0xbbaeae1b	-0.0053308136
195	0x3d8b68a7	0.0680707
196	0x3d9442d0	0.07239306
197	0x3ca83354	0.020532288
198	0xbd97d279	-0.07413191
199	0x3d6dc482	0.058048733
200	0x3d342492	0.04398019
201	0xbd3fb574	-0.046803907
202	0xbda0cd63	-0.078516744
203	0x3d37f3a2	0.04491008
204	0xba46496d	-0.0007564042
205	0xbd8651a4	-0.065585405
206	0xbd42e8da	-0.047585346
207	0xbd10ad29	-0.03532139
208	0xb9e90dd5	-0.0004445153
209	0xbcafa8da	-0.02144282
210	0x3d246aa4	0.040140763
211	0xbdaeb625	-0.08530835
212	0x3da665a3	0.081248544
213	0xbdad92e0	-0.0847528
214	0xbc03e43d	-0.008050022
215	0xbb5af3cd	-0.0033409477
216	0x3c9d9c78	0.01923965
217	0xbd187868	-0.037224203
218	0x3d08f6e2	0.03343857
219	0xbc9285c4	-0.01788605
220	0xbb5d8380	-0.0033800304
221	0xbc183185	-0.00928915
222	0xbbbc84a7	-0.005753118
223	0xbcbcf36c	-0.023065291
224	0x3b52e960	0.003218256
225	0x3dacab49	0.084311076
226	0xbd94e57a	-0.07270332
227	0x3be6ad9c	0.007039739
228	0xbc53feab	-0.012939136
229	0xbd3aa2bb	-0.045565348
230	0x3d8c798d	0.068591215
231	0xbcb61d14	-0.022230662
232	0x3af5970f	0.0018737036
233	0xbcbc2478	-0.022966608
234	0xbd36fc68	-0.044674307
235	0x3cf6444e	0.030061867
236	0x3d71daf6	0.059046708
237	0x3c76af43	0.015056434
238	0x3d8e37e9	0.06944258
239	0x3d1760c6	0.036957525
240	0x3da95f1d	0.082700945
241	0xbd8b6c24	-0.068077356
242	0x3d5605b0	0.052251518
243	0x3d80a123	0.062807344
244	0x3c39481a	0.011308694
245	0x3d9e0ee5	0.07717685
246	0x3d9ab914	0.07554832
247	0x3d6e4ad1	0.05817682
248	0x3ce9d9f8	0.028546318
249	0xbc724439	-0.014786773
250	0x3d26a8c6	0.0406883
251	0xbd69328f	-0.056932982
252	0x3d315b46	0.043299936
253	0xbd655a84	-0.055994526
254	0xbd433e4e	-0.04766684
255	0x3d029b76	0.03188654

bias f4 [128]
0	0xbd549fa2	-0.05191005
1	0xbcce6850	-0.025196224
2	0xbb1d652b	-0.00240166
3	0x3c973efb	0.018462649
4	0xbdb8e5db	-0.090282165
5	0xbd575f8f	-0.052581366
6	0xbaf97f1a	-0.0019035072
7	0xbda6add8	-0.08138627
8	0x3d9dbef7	0.07702439
9	0xbda9e078	-0.08294767
10	0xbd807bbd	-0.06273601
11	0x3d8b970b	0.068159185
12	0x3d8d91bd	0.06912563
13	0xbe049446	-0.12947187
14	0xbe31620f	-0.17322563
15	0x3d229a5d	0.039697994
16	0xbdbd4a94	-0.0924274
17	0x3ca997ea	0.020702321
18	0xbe20d2cd	-0.15705414
19	0x3cc62242	0.024186257
20	0x3d1d83a4	0.03845562
21	0xbd56d72b	-0.052451294
22	0x3d88f6df	0.06687712
23	0xbd60bcb8	-0.054867476
24	0xbd890225	-0.06689862
25	0xbd91db9a	-0.07121964
26	0x3e69cf75	0.22833045
27	0xbd08dc0d	-0.03341298
28	0xbd207df2	-0.03918261
29	0xbcfb7bac	-0.03069862
30	0xbd2ef5a8	-0.042714745
31	0xbc80a960	-0.015705764
32	0xbcd89890	-0.026439935
33	0x3d42cfc5	0.047561426
34	0xbba32810	-0.004979141
35	0xbda71bb2	-0.08159579
36	0xbd8518bb	-0.064988576
37	0xbc9a6b4e	-0.018849995
38	0xbd8ff009	-0.07028205
39	0xbdb2c684	-0.0872927
40	0xbcd48377	-0.025941594
41	0xbe2d0f44	-0.16900355
42	0xbbe8dab5	-0.00710615
43	0xbd2212c5	-0.03956868
44	0xbce889a4	-0.028385945
45	0xbbf9628a	-0.0076106237
46	0xbdbfad00	-0.09359169
47	0xbdd77ee3	-0.105222486
48	0xbccee9fc	-0.025258057
49	0xbe0b1e5d	-0.13585801
50	0xbe0ba4a8	-0.1363703
51	0x3d880edf	0.066434614
52	0xbe50dbe3	-0.2039638
53	0xbd808623	-0.062755845
54	0xbd8303e1	-0.06397224
55	0xbd99cfff	-0.07510375
56	0xbd1c70c1	-0.038193468
57	0xbd3c4e68	-0.04597321
58	0xbd7ffcd5	-0.06249698
59	0x3d8b793d	0.06810234
60	0xbbb575bb	-0.005537716
61	0x3d1f1a44	0.03884341
62	0xbc521349	-0.012821981
63	0x3da66dbd	0.081264
64	0x3da27ebf	0.07934331
65	0xbd8df9c9	-0.06932408
66	0x3c895106	0.016762268
67	0xbd6360cc	-0.055512235
68	0xbc836917	-0.016041322
69	0x3cfe704f	0.031059412
70	0xbc98d675	-0.018656949
71	0xbcb6e50c	-0.022326015
72	0xbcd43f90	-0.025909215
73	0xbd4cae6d	-0.049971033
74	0xbcc83fb4	-0.024444439
75	0xbdbc3fbd	-0.091918446
76	0xbde385ae	-0.11109482
77	0xbd86f8a6	-0.06590395
78	0xbd3911ca	-0.04518298
79	0x3ce019ce	0.027356055
80	0xbc93c00c	-0.018035911
81	0xbdf66e04	-0.120327026
82	0xbd95822b	-0.07300218
83	0xbc79ee68	-0.015254594
84	0xbe29beca	-0.16576687
85	0xbdc4505c	-0.0958564
86	0xbdd14d10	-0.10219777
87	0x3d843871	0.06456078
88	0xbe2d411f	-0.16919373
89	0xbd007138	-0.031357974
90	0x3c28f9b8	0.010313444
91	0x3df15ffc	0.11785886
92	0xbd3bcebf	-0.045851465
93	0xbdf48bb0	-0.11940706
94	0xbe1b5c16	-0.15171847
95	0xbce349ce	-0.027745154
96	0x3d6e557a	0.058186986
97	0xbd3d41bf	-0.04620528
98	0xbd9c326c	-0.07626805
99	0x3d902e5c	0.07040092
100	0xbdbec853	-0.093155526
101	0xbd608ed4	-0.05482371
102	0x3d981249	0.074253626
103	0x3d3e8288	0.046511203
104	0xbd81efaa	-0.063445404
105	0xbe28db70	-0.16489959
106	0xbda66d4a	-0.08126314
107	0xbd087935	-0.033318717
108	0xbc9e6390	-0.019334584
109	0xbe3f74f1	-0.18696953
110	0xbcba8473	-0.022768235
111	0xbdafaef3	-0.08578291
112	0xbcc501de	-0.024048742
113	0x3cf0ea3e	0.02940857
114	0xbe0b1f4f	-0.13586162
115	0xbe20f62c	-0.15718907
116	0x3cad7cd5	0.021177689
117	0xbe149216	-0.14508852
118	0x3cb5ab5f	0.022176443
119	0xbdff93e7	-0.12479382
120	0xbe10924a	-0.14118305
121	0xbe57ab11	-0.2106135
122	0xbc59c6d7	-0.013292036
123	0xbdc55086	-0.09634499
124	0x3d6b33a2	0.057422288
125	0xbd63ce39	-0.05561659
126	0xbd593367	-0.053027537
127	0xbdae2460	-0.08503032

weight f4 [1, 128]
0	0xbe8add16	-0.271218
1	0x3d89c110	0.06726277
2	0x3cd69720	0.026195109
3	0x3c485900	0.0122282505
4	0x3d38b162	0.04509104
5	0xbebbdeee	-0.3669352
6	0x3c63cdef	0.013904079
7	0x3d50596c	0.05086653
8	0xbd8c6f19	-0.06857128
9	0x3d421af8	0.047389
10	0xbe7c2c8d	-0.2462637
11	0x3ce76572	0.028246615
12	0x3c715d28	0.014731683
13	0xbebeb9a9	-0.37251022
14	0xbeb89d89	-0.3605769
15	0xbc51e40f	-0.012810721
16	0x3ca3e087	0.020004524
17	0x3d491297	0.049089994
18	0xbeabe07f	-0.33569714
19	0x3b892252	0.0041849995
20	0x3cdc0a73	0.026860451
21	0xbe907717	-0.28215858
22	0x3f3954ee	0.7239522
23	0x3c997e79	0.018737065
24	0xbeb1fd2d	-0.3476347
25	0x3d40cc1f	0.047069665
26	0x404f5fda	3.2402253
27	0x3c960154	0.01831118
28	0xbeb190ab	-0.34680685
29	0xbcd2728d	-0.025689388
30	0xbea949ac	-0.3306402
31	0xbe8a90de	-0.2706365
32	0x3d922ef2	0.0713786
33	0xbb2a5027	-0.0025987716
34	0x3da0dd54	0.07854715
35	0xbea28b47	-0.31746885
36	0xbcc1b189	-0.023644226
37	0x3d321dbc	0.04348539
38	0xbc01186f	-0.007879361
39	0x3bcf590b	0.0063277534
40	0xbea2fab4	-0.31831896
41	0xbebac051	-0.3647485
42	0x3cb1e351	0.021714838
43	0x3d1b2796	0.03787955
44	0xbe9cc961	-0.3062239
45	0x3b0a5736	0.002110911
46	0x3ca0c2e3	0.01962418
47	0xbe8f9174	-0.2804066
48	0xbb5e599c	-0.0033927923
49	0xbe886c00	-0.26644897
50	0xbeb1cdb2	-0.34727246
51	0x3cd7fcdc	0.02636569
52	0xbeb04adb	-0.3443211
53	0x3cb5ba59	0.022183584
54	0xbe905f3e	-0.28197664
55	0x3bd033ed	0.0063538463
56	0x3c8c99ff	0.017163275
57	0xbd8eebd8	-0.069785774
58	0xbc03fb18	-0.008055471
59	0x3d61bcda	0.055111744
60	0x3d8b0bf7	0.067893915
61	0x3c29bb66	0.010359621
62	0x3d75378b	0.059867423
63	0x3c53cbf0	0.01292704
64	0x3d16f796	0.03685721
65	0xbe9e881e	-0.30963224
66	0x3da3b825	0.07994107
67	0x3d9a4d93	0.07534327
68	0x3d452524	0.048131123
69	0x3d23f066	0.040024184
70	0xbeb7a453	-0.35867557
71	0xbe877258	-0.26454425
72	0xbd0e8ba0	-0.034801126
73	0xbe9088fe	-0.28229517
74	0xbe8bd9fd	-0.2731475
75	0x3d965a78	0.07341474
76	0xbea6abe5	-0.3255302
77	0xbe936130	-0.28785086
78	0xbe84300e	-0.25817913
79	0x3d415e68	0.047209173
80	0x3d9027ea	0.07038863
81	0xbebac53e	-0.3647861
82	0x3d049d37	0.032376494
83	0x3cbdd247	0.023171557
84	0xbeb74b3f	-0.35799596
85	0x3d2d4b8d	0.04230838
86	0xbe9f873c	-0.31157863
87	0x3cb5fd58	0.02221553
88	0xbeb7b559	-0.35880545
89	0xbe8ccc18	-0.2749946
90	0x3f277dad	0.6542614
91	0x3e2a68b0	0.16641498
92	0xbea702da	-0.32619363
93	0xbe8da07c	-0.27661502
94	0xbea67a8d	-0.32515374
95	0xbc296538	-0.010339074
96	0x3d8bff5f	0.068358175
97	0xbe9c862a	-0.3057111
98	0xbe6b9c38	-0.23008811
99	0xbbaf55b1	-0.0053507914
100	0xbeb9bda7	-0.36277506
101	0xbe6979c0	-0.2280035
102	0xbd7fbed4	-0.062437847
103	0x3d7ef525	0.062245507
104	0x3c1bcb13	0.009508866
105	0xbea7fb1c	-0.3280877
106	0x3a905100	0.0011010468
107	0xbe93d9a4	-0.28876984
108	0x3d2b7ec0	0.041868925
109	0xbeb1a48c	-0.34695852
110	0xbea4e4b2	-0.3220573
111	0xbebf4b73	-0.3736225
112	0xbeac6dc5	-0.33677498
113	0x3d224b52	0.039622612
114	0xbea8e288	-0.3298533
115	0xbe8b73a2	-0.27236658
116	0x3cdb1f62	0.026748363
117	0xbe8d29b8	-0.2757089
118	0x3d0f2f57	0.034957256
119	0xbeb20579	-0.347698
120	0xbe85a5f3	-0.26103172
121	0xbeb16353	-0.3464609
122	0xbe834312	-0.25637108
123	0xbe93fcb6	-0.2890374
124	0x3d3e2001	0.04641724
125	0xbe8ad896	-0.27118367
126	0xbe9cc6c9	-0.3062041
127	0xbe97208d	-0.29517022
