models/orientation3D_v_200.pth (torch, 3696 bytes, 3 tensors)

weight f4 [16, 4]
000000 5f d6 04 c1 06 ce 9f 3e 14 39 7e 3e 3b cf 3a be
       -8.302337 0.3121187 0.24826461 -0.18243115
000010 c3 d9 1f c0 c7 dc 82 bb 3d 74 a7 3b f3 4a e1 38
       -2.4976661 -0.003993604 0.005110292 0.000107427964
000020 99 e1 09 42 45 95 92 c1 e0 1c 18 be ab 7f 7d 3d
       34.47031 -18.322886 -0.14854765 0.06188933
000030 fc f9 04 c1 40 59 e2 3d c0 bb c8 be 14 39 80 3e
       -8.311031 0.11052179 -0.39205742 0.25043547
000040 8c 0e 38 c0 85 ec 9e bc 3b f2 03 3a 38 8f b8 3b
       -2.8758879 -0.01939989 0.00050333486 0.0056323074
000050 78 81 e2 c0 61 04 2a 3e f5 07 5e be 13 9e a0 be
       -7.0783043 0.16603233 -0.21682723 -0.313706
000060 1b 20 f8 41 e3 58 82 40 b4 67 a9 3e 68 08 8d bd
       31.015676 4.0733504 0.33086932 -0.06886369
000070 61 28 4c c0 49 b0 c3 bc d2 40 d2 39 7b 5a a7 3b
       -3.1899645 -0.02388777 0.00040102616 0.0051072217
000080 5c 3b a9 c0 ed d6 ba 3c 5f 8c f0 bd 19 1f 54 3d
       -5.288496 0.022807563 -0.11745524 0.05178747
000090 a3 b7 fa 41 30 dd 15 c1 4c 7e af 3f 8d 24 31 40
       31.339666 -9.366501 1.3710418 2.767856
0000a0 c9 3c df c0 c8 23 1a 3e 07 ba 19 3e 8a b5 b0 bb
       -6.97617 0.15052712 0.1501237 -0.005392735
0000b0 d2 07 e7 41 e2 58 23 3e b1 57 cc 3f ef 5c 2f 40
       28.878819 0.15951875 1.5964261 2.7400472
0000c0 40 cd e8 c0 f3 bf d0 3d 01 b7 ac 3d 05 c2 77 be
       -7.275055 0.101928614 0.08433343 -0.24195106
0000d0 cf 2e 04 42 8f 3c 8a c1 70 b6 79 be 36 ee 8b bd
       33.04571 -17.27957 -0.24386 -0.068325445
0000e0 15 86 08 42 e0 f0 c1 bf 06 08 f7 3e 24 58 18 3e
       34.13094 -1.5151634 0.4824831 0.14877373
0000f0 52 90 04 42 38 20 c3 c0 28 59 44 3f 40 30 70 40
       33.140938 -6.097683 0.7669854 3.752945

bias f4 [16]
000000 67 06 14 c1 28 fd 3a c0 24 1d 09 42 ba 42 12 c1
       -9.251563 -2.9217014 34.278458 -9.141291
000010 6d c2 54 c0 a0 c5 eb c0 80 49 e2 41 dd 0d 60 c0
       -3.3243668 -7.367874 28.285889 -3.5008461
000020 e4 c0 a4 c0 e8 74 f5 41 c0 4d 02 c1 a4 0e d1 41
       -5.148546 30.682083 -8.143982 26.132149
000030 84 8d ec c0 20 87 01 42 e4 c3 01 42 73 94 fd 41
       -7.392275 32.381958 32.4413 31.697485

weight f4 [1, 16]
000000 cc 66 ff 3d 98 a4 ad 3d f6 60 fc bd 20 fb 2e 3e
       0.12470779 0.084786594 -0.12323181 0.17087984
000010 5e 15 32 3e d5 b7 a6 3d 78 1e 50 be d4 8e 5a 3b
       0.17390963 0.08140532 -0.20324123 0.0033349292
000020 04 69 5a 3e de d1 6e ba a0 47 2f 3d e8 54 01 c1
       0.21329123 -0.0009110252 0.042792916 -8.083229
000030 74 f1 53 3e 86 0b 2b be f4 07 44 be b2 2d ab bd
       0.20697576 -0.16703615 -0.19143659 -0.08358325
