models/orientation3D_pi_200.pth (torch, 4216 bytes, 4 tensors)

weight f4 [16, 4]
0.90566754 0.0059153154 0.27734324 0.003514307 0.1392757 0.3507291 0.21259941 -0.22062634
-0.21351999 0.27673808 -0.4921516 -0.033675052 -0.020339208 -0.028736118 -0.41301546 -0.09058382
-0.4009388 -0.05029903 0.35197672 -0.25848106 -0.8048099 -0.16497573 -0.21350631 0.13507235
-1.6482189 0.24352401 -0.12899938 0.18534397 0.31340146 0.39961055 -0.12574275 -0.4711733
-1.4383006 -0.23048227 -0.08539095 -0.015982578 -0.71463627 -0.42592126 -0.3401594 0.055899587
-0.28751302 -0.011419253 -0.64742786 -0.24065313 -0.2247548 0.36485177 0.20655392 -0.5379662
0.31183624 -0.07399386 0.34330747 -0.045622658 1.9393986 -0.28838158 0.026976004 -0.2083087
2.4158976 -0.12608789 -0.12646814 0.27048635 -0.82131296 0.22488444 -0.23591276 0.16268656
00000000: d4d9 673f 43d5 c13b efff 8d3e 4a50 663b
00000010: 4a9e 0e3e c492 b33e a9b3 593e dfeb 61be
00000020: fca4 5abe 9db0 8d3e 4bfb fbbe daee 09bd
00000030: 699e a6bc 0268 ebbc c376 d3be 0384 b9bd
00000040: da47 cdbe 5b06 4ebd 4b36 b43e a157 84be
00000050: 0608 4ebf 66ef 28be 66a1 5abe 6850 0a3e
00000060: d6f8 d2bf 5c5e 793e 6a18 04be cfca 3d3e
00000070: 2876 a03e c199 cc3e b5c2 00be a03d f1be
00000080: 3c1a b8bf 8b03 6cbe 73e1 aebd e5ed 82bc
00000090: 67f2 36bf 5a12 dabe 5f29 aebe f7f6 643d
000000a0: e834 93be d217 3bbc d5bd 25bf c66d 76be
000000b0: 1f26 66be dacd ba3e df82 533e 27b8 09bf
000000c0: 00a9 9f3e 188a 97bd ffc5 af3e d3de 3abd
000000d0: 373e f83f c0a6 93be c8fc dc3c e04e 55be
000000e0: 119e 1a40 2f1d 01be dd80 01be 307d 8a3e
000000f0: 9141 52bf 1b48 663e 1d93 71be 4e97 263e

bias f4 [16]
0.27484024 0.18923132 0.3656795 -0.17305711 0.93932855 0.05313588 -0.046557307 -0.40395066
-0.0709404 0.22181924 0.37810266 0.4511582 -0.2614631 1.119991 0.7540365 -0.7779266
00000000: dcb7 8c3e dbc5 413e 583a bb3e e235 31be
00000010: d677 703f 02a5 593d e0b2 3ebd 9fd2 cebe
00000020: 3349 91bd 9524 633e ac96 c13e 35fe e63e
00000030: 7ede 85be dd5b 8f3f 8908 413f 3326 47bf

weight f4 [6, 16]
0.09420587 -0.25427747 0.06816905 -0.029542036 0.11729489 -0.18928558 0.015452514 0.011194172
0.19720665 0.25751188 0.020303205 -0.007919462 -0.17482054 -0.025776342 -0.015584927 -0.08156755
-0.24361314 -0.10295641 0.31376082 0.09240068 -0.14542729 0.00555282 0.16897626 -0.36203524
-0.1489878 0.19526145 0.12373405 0.08240908 -0.13438803 0.0058720475 -0.21381788 0.17150111
-0.2072526 -0.0052340967 0.05457761 -0.225158 0.46375528 0.17343514 0.037240177 0.09458714
0.30982462 -0.15904556 0.32872707 -0.07035374 -0.24013399 0.15871446 -0.28159407 -0.21648061
-2.24442 -0.53313196 0.27443808 -0.13715325 -4.178572 0.5121805 0.3829345 -0.2718392
0.57410985 0.34934384 0.05661194 -1.2518785 -0.5732115 -0.5121924 -0.47566044 0.5035983
-0.53497356 -0.20016843 0.57972616 0.74640197 0.0016470896 0.31543803 -0.2364744 0.2780687
0.4388497 0.22624154 0.036813445 0.08912918 -0.26882887 -0.40186015 -0.57431376 -0.13707164
0.092539705 -0.6722732 0.6121394 0.23722836 0.4518227 -0.13147025 -0.05237089 -0.41415608
0.07211528 -0.11114358 0.45645523 -0.2849118 0.26326606 -0.92318314 -0.08172188 -0.24818613
00000000: 02ef c03d a830 82be 379c 8b3d 2402 f2bc
00000010: 4e38 f03d 14d4 41be 8b2c 7d3c c367 373c
00000020: 8af0 493e 99d8 833e e852 a63c a2c0 01bc
00000030: 2804 33be e828 d3bc ec57 7fbc e30c a7bd
00000040: b975 79be cfda d2bd 42a5 a03e 913c bd3d
00000050: e4ea 14be 6ef4 b53b 1d08 2d3e af5c b9be
00000060: 4290 18be 9ef2 473e 4768 fd3d 17c6 a83d
00000070: 049d 09be 4e6a c03b 13f3 5abe fd9d 2f3e
00000080: 073a 54be c982 abbb c68c 5f3d d28f 66be
00000090: 5571 ed3e fb98 313e 2889 183d e7b6 c13d
000000a0: 55a1 9e3e d7dc 22be ea4e a83e 9f15 90bd
000000b0: afe5 75be 0b86 223e 192d 90be 18ad 5dbe
000000c0: 94a4 0fc0 567b 08bf 2683 8c3e e771 0cbe
000000d0: ddb6 85c0 431e 033f fe0f c43e 822e 8bbe
000000e0: ddf8 123f 32dd b23e ece1 673d 8e3d a0bf
000000f0: fdbd 12bf 0b1f 03bf c489 f3be d1eb 003f
00000100: 07f4 08bf f4f8 4cbe ef68 143f 3314 3f3f
00000110: 28e3 d73a 1881 a13e 5826 72be 055f 8e3e
00000120: e8b0 e03e ddab 673e b2c9 163d 5c89 b63d
00000130: f0a3 89be 9dc0 cdbe 3a06 13bf 825c 0cbe
00000140: 7585 bd3d 191a 2cbf 2bb5 1c3f feeb 723e
00000150: 4e55 e73e 23a0 06be dc82 56bd 440c d4be
00000160: 2db1 933d 3f9f e3bd 80b4 e93e f6df 91be
00000170: cfca 863e bb55 6cbf cd5d a7bd 8124 7ebe

bias f4 [6]
-0.040996127 0.9292283 0.40915954 -1.4768155 -1.1421456 -0.6310712
00000000: 8eeb 27bd e8e1 6d3f 5c7d d13e 4a08 bdbf
00000010: d431 92bf e28d 21bf
