models/orientation3D_pi_0.pth (torch, 74486 bytes, 6 tensors)

weight f4 [128, 1]
0	0x3ea41848	0.32049775
1	0x3ecb975e	0.39763921
2	0x3dc5b140	0.096529484
3	0xbf532981	-0.82485205
4	0xbf720dd1	-0.9455233
5	0xbf136e12	-0.5758983
6	0xbf8978a9	-1.0739948
7	0xbf90a221	-1.1299478
8	0x3de51a19	0.11186618
9	0xbf4afd12	-0.79292405
10	0xbf61f33a	-0.8826176
11	0xbec4857f	-0.383831
12	0xbf4828d6	-0.7818731
13	0xbe15fd10	-0.14647317
14	0xbe6b0768	-0.22952044
15	0x3eaadd60	0.3337202
16	0x3ebb0e59	0.36534384
17	0xbf5d701e	-0.864992
18	0xbe0b4bc0	-0.13603115
19	0x3f866172	1.0498488
20	0xbe6004d1	-0.21876837
21	0xbf739e4c	-0.95163417
22	0x3f1c68cc	0.6109741
23	0xbf847422	-1.0347941
24	0x3f88c45d	1.0684925
25	0xbe007ac0	-0.12546825
26	0xbf65e116	-0.8979658
27	0xbf7dcd6f	-0.9914159
28	0xbfc2e07a	-1.5224755
29	0x3d9950d9	0.074861236
30	0x3f8c0a29	1.0940601
31	0xbf6b04b9	-0.9180408
32	0xbea65135	-0.3248383
33	0xbf26e440	-0.6519203
34	0x3e4b715d	0.19867463
35	0x3ec47deb	0.38377318
36	0xbdb1c300	-0.086797714
37	0xbf16afcd	-0.58862
38	0xbe966508	-0.29373956
39	0x3e894664	0.26811516
40	0xbeaad96a	-0.33369
41	0x3e3c7748	0.18404877
42	0xbf9508bc	-1.164329
43	0x3f43bad6	0.76456964
44	0xbf67f488	-0.906075
45	0xbf2262c5	-0.6343196
46	0x3dfc6b10	0.12325108
47	0xbe922c94	-0.28549635
48	0xbd916120	-0.07098603
49	0x3df48990	0.119403005
50	0xbf9e98d1	-1.2390386
51	0x3f761776	0.9612955
52	0xbf52dfad	-0.8237255
53	0xbdde6cf1	-0.10860623
54	0xbec572a4	-0.38564026
55	0xbf3d140a	-0.738587
56	0xbf8f4cf5	-1.119536
57	0xbe81b9fc	-0.25337207
58	0xbf40f0ad	-0.7536724
59	0x3f04e2c0	0.51908493
60	0xbe5c0a92	-0.21488407
61	0x3eb8f138	0.36121535
62	0x3ef63192	0.48084694
63	0x3e0f4508	0.13991177
64	0xbf1451a6	-0.57937086
65	0x3d7c330c	0.06157212
66	0xbeee4372	-0.46535832
67	0xbf5ce734	-0.8629029
68	0x3f9b9f00	1.2157898
69	0xbf164242	-0.5869485
70	0xbf7e181a	-0.99255526
71	0x3f88c218	1.0684233
72	0xbf493944	-0.78603005
73	0x3d6d3b67	0.05791798
74	0xbf5525dd	-0.832609
75	0x3f48f7bc	0.7850301
76	0xbe53b3c8	-0.2067405
77	0xbf56d11a	-0.83912814
78	0x3f05b45d	0.5222834
79	0x3ed7cd3f	0.42148778
80	0x3de22b13	0.11043372
81	0x3ea4a98b	0.321606
82	0xbf3221f9	-0.6958309
83	0xbec33973	-0.38129768
84	0x3e0590e7	0.13043557
85	0x3f553d52	0.8329669
86	0xbde5019a	-0.11181946
87	0xbf9b8eee	-1.2152994
88	0xbc15ff00	-0.009155035
89	0x3f205b40	0.62639236
90	0x3e6add90	0.22936082
91	0xbe575028	-0.21026671
92	0x3e08ac7f	0.13347052
93	0x3f9997f3	1.1999496
94	0xbea459a4	-0.3209964
95	0x3ecc04b4	0.39847338
96	0xbf452230	-0.7700529
97	0xbe8eda3f	-0.27900884
98	0xbf1fd044	-0.62427163
99	0x3f6d80f8	0.92774916
100	0x3e2a8e18	0.16655767
101	0xbf103446	-0.5632976
102	0xbdaefd4f	-0.085444085
103	0x3f174fe2	0.59106266
104	0xbc20d6e0	-0.009816855
105	0x3d447c78	0.047970265
106	0xbf6ef6a0	-0.9334507
107	0x3f9b22ff	1.2120055
108	0xbf373f78	-0.7158122
109	0x3d7f4dce	0.06233006
110	0xbf315bf0	-0.6928091
111	0x3f4b35d7	0.7937903
112	0xbf779dea	-0.9672533
113	0x3eb12cb2	0.34604412
114	0x3eda7120	0.42664433
115	0xbf7aaf16	-0.9792341
116	0xbec35fc3	-0.38158998
117	0xbf04eb36	-0.51921403
118	0xbe8b1fec	-0.27172792
119	0xbf3414fa	-0.7034451
120	0xbf457996	-0.7713865
121	0xbf30bb5e	-0.690359
122	0xbf38521c	-0.7200029
123	0xbe7ee2be	-0.24891183
124	0xbf2deded	-0.6794117
125	0xbf02bd3e	-0.5107001
126	0x3f36e551	0.7144366
127	0xbf9618ef	-1.1726359

bias f4 [128]
0	0xbf13b388	-0.5769582
1	0xbec99bb5	-0.39376608
2	0xbf1fcfac	-0.6242626
3	0x3f0fb9b9	0.56142765
4	0x3f717525	0.94319373
5	0x3f0fa670	0.5611334
6	0x3e9f40be	0.31104082
7	0x3e67fd09	0.22655119
8	0xbde7afb0	-0.113128066
9	0x3f461391	0.77373606
10	0x3f60a5c9	0.8775297
11	0x3ebeccc0	0.37265587
12	0xbe2750a8	-0.16339362
13	0xbf5eebc8	-0.87078524
14	0xbea7bc98	-0.32761073
15	0xbf02303e	-0.5085486
16	0xbe2cabd0	-0.16862416
17	0xbe708868	-0.23489535
18	0xbdf44da0	-0.11928868
19	0xbec68971	-0.38776734
20	0x3e84bb24	0.25924027
21	0xbe1aeba0	-0.15128946
22	0xbf794d1c	-0.97383285
23	0x3f01ceca	0.5070616
24	0xbea293ba	-0.3175333
25	0xbf0779e6	-0.5292038
26	0xbf592e34	-0.84836125
27	0x3ef34813	0.47515926
28	0x3ec39791	0.38201573
29	0xbd98aa7c	-0.07454392
30	0xbe8d16ec	-0.2755655
31	0x3f6af607	0.9178166
32	0x3e78b9b3	0.24289589
33	0x3f22b6d4	0.63560224
34	0xbe4a92fb	-0.19782631
35	0xbe453eb1	-0.19262196
36	0xbf2ea70c	-0.68223643
37	0x3ea3208b	0.31860766
38	0xbf0912e8	-0.53544474
39	0xbece6f3c	-0.4031924
40	0x3e6eb8da	0.23312703
41	0xbf3260d6	-0.6967901
42	0x3e6e7428	0.23286498
43	0xbd625b7c	-0.055263028
44	0xbe0ce560	-0.13759375
45	0x3e80be83	0.2514535
46	0xbf352028	-0.7075219
47	0xbf0cd7de	-0.5501689
48	0xbf5e5914	-0.8685467
49	0xbea036fc	-0.3129195
50	0x3e9f4c6c	0.31112993
51	0xbed9c2b7	-0.42531368
52	0x3f5256ac	0.821635
53	0x3d9cf622	0.076641336
54	0xbf787bec	-0.9706409
55	0xbddb06a0	-0.10694623
56	0x3e900cec	0.2813486
57	0xbe434868	-0.1907059
58	0x3f3c37cb	0.73522633
59	0xbf6570e8	-0.89625406
60	0x3e17e649	0.1483394
61	0xbf22f1e4	-0.63650346
62	0xbe81497d	-0.2525138
63	0xbe0e58b8	-0.13901031
64	0x3f142726	0.57872236
65	0xbd7dce87	-0.061964538
66	0x3eb23e64	0.34813225
67	0xbed97254	-0.42470038
68	0xbdb643e0	-0.08899665
69	0xbf59cf30	-0.8508177
70	0xbf174daa	-0.5910288
71	0xbe875d5f	-0.26438424
72	0xbf17c5cc	-0.5928619
73	0xbd6d9630	-0.058004558
74	0x3f551998	0.8324218
75	0xbeafa190	-0.3430295
76	0xbec0d924	-0.37665665
77	0xbdda76b0	-0.10667169
78	0xbe77cd97	-0.2419952
79	0xbd04f901	-0.03246403
80	0xbde0fe25	-0.10985974
81	0xbcc8a4b0	-0.024492592
82	0x3ebdbdb9	0.3705881
83	0x3e8568b3	0.26056442
84	0xbe07e3ac	-0.13270444
85	0xbd79c949	-0.060982976
86	0xba30a85d	-0.0006738955
87	0x3e9c310b	0.30506167
88	0xbdad6970	-0.08467376
89	0xbf6d1148	-0.92604494
90	0xbf44aa90	-0.7682276
91	0xbf0cb1bc	-0.549587
92	0x3e245d62	0.16051248
93	0xbf01b14f	-0.50661176
94	0x3ea4080b	0.32037386
95	0xbf40d394	-0.7532284
96	0xbf03163a	-0.5120579
97	0x3e896a6d	0.2683901
98	0xba223d04	-0.00061889016
99	0xbd888172	-0.06665315
100	0xbf66c21a	-0.90139925
101	0x3f0ec161	0.5576382
102	0x3e84b37f	0.25918195
103	0xbf7ec3b8	-0.99517393
104	0xb903e4d1	-0.00012578374
105	0x3dd49762	0.103804365
106	0x3ef5691f	0.47931764
107	0xbeadf96c	-0.33979356
108	0x3f32a47d	0.6978224
109	0xbd7f2a81	-0.062296394
110	0xbf4c2390	-0.79741764
111	0xbd65d271	-0.056108896
112	0xbef347b0	-0.4751563
113	0x3eed7ad2	0.46382767
114	0xbe64f275	-0.22358115
115	0xbf34c7e4	-0.7061751
116	0x3e59feb9	0.21288575
117	0xbf0f11e0	-0.5588665
118	0xbf390a30	-0.7228117
119	0xbf66daac	-0.90177417
120	0xbf6e13c4	-0.9299891
121	0x3f2ff7bf	0.68737406
122	0xbeec3c10	-0.46139574
123	0x3df2f70f	0.11863529
124	0x3f29a763	0.66271037
125	0x3f028943	0.50990695
126	0xbe86a782	-0.26299673
127	0x3e96e687	0.29472753

weight f4 [128, 128]
0	0xbd9f0e01	-0.07766343
1	0xbd8af7a8	-0.06785518
2	0xbd1a9615	-0.037740786
3	0xbcd2d2e0	-0.025735319
4	0xbd44cb29	-0.04804531
5	0xbd653e2c	-0.055967495
6	0x3a955340	0.0011392608
7	0xbdab9bf0	-0.08379352
8	0x3c6c1e10	0.014411464
9	0xbd8549fb	-0.06508251
10	0x3da529ef	0.08064639
11	0x3d644a94	0.055735186
12	0xbcdfa450	-0.02730003
13	0xbd885277	-0.06656354
14	0x3c1d85f0	0.009614453
15	0x3d7b17da	0.061302043
16	0xbd47682f	-0.04868334
17	0x3c215e48	0.009849139
18	0xbd3f8b94	-0.04676397
19	0x3d653113	0.055955004
20	0xbc7483ee	-0.014924033
21	0xbd1903a6	-0.037356995
22	0xbdaa99da	-0.08330126
23	0x3d25fe6e	0.040525846
24	0x3d2be2df	0.041964408
25	0x3d91dde3	0.071224
26	0xbd4fb5fd	-0.050710667
27	0xbd5530e3	-0.052048575
28	0xbda4f4d2	-0.08054508
29	0x3d837fe2	0.06420876
30	0xbdc32647	-0.09528785
31	0xbb62cf7b	-0.0034608531
32	0xbd34ea48	-0.04416874
33	0xbd88a3ce	-0.06671868
34	0xbd4826c3	-0.04886509
35	0xbd9dfbcf	-0.07714044
36	0xbd9a6c14	-0.075401455
37	0x3d35e592	0.04440839
38	0xbca56e30	-0.020194143
39	0x3c5f72d0	0.013638213
40	0x3d828fd9	0.06375093
41	0x3c6dbb38	0.014509968
42	0xbd70b2dd	-0.058764327
43	0xbd74224c	-0.05960302
44	0xbd380420	-0.04492581
45	0xbda1766e	-0.07883917
46	0x3d8b6ced	0.06807885
47	0xbbe01650	-0.0068385974
48	0x3dad802d	0.08471713
49	0x3cc96124	0.024582453
50	0x3da0adad	0.07845626
51	0xbd0d56e2	-0.034506686
52	0x3d8095d1	0.06278575
53	0x3d54fa60	0.05199659
54	0x3d669dfe	0.056303017
55	0xbc9c86dc	-0.019107275
56	0xbd3f9f9c	-0.046783075
57	0x3cfa86f0	0.030581921
58	0xbd92787e	-0.07151888
59	0x3b7d3f40	0.0038642436
60	0xbdad60fe	-0.084657654
61	0xbda9ed0f	-0.082971685
62	0x3c095e75	0.008384337
63	0xbd84e359	-0.064886756
64	0xbd9f8e45	-0.07790808
65	0x3c4061b4	0.011742044
66	0x3cba11ae	0.022713508
67	0x3c959a34	0.018262006
68	0x3d1d584d	0.03841429
69	0x3d50a74a	0.05094079
70	0x3d01547e	0.03157472
71	0xbd0bc9d5	-0.03412803
72	0x3d5169ae	0.051126175
73	0x3d078ad1	0.03309137
74	0xbdac7617	-0.08420961
75	0xbd6ecd82	-0.058301456
76	0xbd9fc143	-0.078005336
77	0x3c820ac8	0.015874282
78	0x3d885ece	0.066587076
79	0xbc12b63b	-0.00895458
80	0x3cd6f409	0.026239412
81	0xbda9744e	-0.082741365
82	0xbd2cfc7f	-0.042232987
83	0xbc5fa752	-0.013650732
84	0x3d0ae04c	0.033905312
85	0xbd9cf719	-0.07664318
86	0xbd1ae300	-0.03781414
87	0x3c6d7550	0.0144933015
88	0x3c87d768	0.016582206
89	0xbd85c892	-0.065323964
90	0xbdad40b4	-0.08459607
91	0x3cafecf0	0.021475285
92	0xbd8287f0	-0.06373584
93	0x3d862831	0.06550635
94	0x3c0210f0	0.0079386085
95	0xbc824640	-0.015902638
96	0x3d052d70	0.032514036
97	0xbdc84f28	-0.09780723
98	0x3cd97a5c	0.026547603
99	0xbd882cfa	-0.066492036
100	0xbd3fe0f6	-0.0468454
101	0x3d97b8af	0.074082725
102	0x3cb49664	0.022044368
103	0xbcc77548	-0.024347916
104	0x3c8ab004	0.016929634
105	0x3d11534d	0.035479832
106	0x3d358bf6	0.04432293
107	0xbc1e7ae7	-0.009672857
108	0xbcf513ab	-0.029916605
109	0x3d72b0d8	0.059250683
110	0xbd71bfeb	-0.059020918
111	0xbdac478d	-0.08412085
112	0x3d2e9b4a	0.042628564
113	0x3bf9fa6e	0.0076287305
114	0x3bbbbcb9	0.0057292846
115	0xbd55a157	-0.05215582
116	0xbca15707	-0.019694818
117	0x3d71cec6	0.059035085
118	0x3d9d1e9b	0.07671853
119	0xbd83da36	-0.06438105
120	0xbd5ef713	-0.054434847
121	0xbdc0a926	-0.094072625
122	0xbda8cf48	-0.08242661
123	0xbce3884c	-0.027774952
124	0x3d5b606c	0.053558752
125	0x3d16f36d	0.036853243
126	0x3d0d8bf5	0.0345573
127	0x3b02eb80	0.0019976795
128	0x3c9698f8	0.018383488
129	0x3d70091f	0.05860245
130	0x3cf44558	0.029818222
131	0xbc99c943	-0.018772727
132	0xbd803ada	-0.06261225
133	0xbd48023b	-0.048830252
134	0x3da25990	0.07927239
135	0x3d05dffd	0.032684315
136	0x3d9055a7	0.07047587
137	0xbd9a473c	-0.07533118
138	0xbc50723b	-0.012722547
139	0x3d607a2e	0.05480402
140	0xbd765e0e	-0.06014829
141	0x3d2c572e	0.04207533
142	0x3c02bda8	0.007979788
143	0x3d693926	0.056939267
144	0xbdb4b9a5	-0.088244714
145	0xbca26690	-0.019824296
146	0xbd0e855a	-0.034795143
147	0xbd976e90	-0.07394135
148	0xbd7f5df6	-0.062345468
149	0x3d457af6	0.048212968
150	0x3da1296d	0.078692295
151	0x3c9636bb	0.018336644
152	0xbdc9edb4	-0.098597914
153	0x3cdb0d3c	0.02673971
154	0x3d8e8c25	0.06960324
155	0xbd1f0f5b	-0.038833003
156	0xbcf33cb0	-0.029692024
157	0x3d0f2ec3	0.034956705
158	0x3d3fda98	0.046839327
159	0xbd8781fc	-0.066165894
160	0x3d43c5d8	0.0477961
161	0xbd7353a2	-0.05940593
162	0x3bd61053	0.0065327077
163	0xbdc45d1b	-0.09588071
164	0x3d3e5b3e	0.046473734
165	0x3d952bf1	0.07283772
166	0xbc0bbcc0	-0.008528888
167	0xbb08dee0	-0.0020884797
168	0x3bc36a4a	0.0059635984
169	0x3cf53d78	0.029936537
170	0x3d491992	0.04909665
171	0xbc9a0d42	-0.01880515
172	0xbcc4942c	-0.023996435
173	0x3d54dbc2	0.05196739
174	0x3c159b30	0.009131238
175	0xbda40142	-0.080080524
176	0xbd93e630	-0.07221639
177	0xbc8b9204	-0.0170374
178	0x3c129c57	0.008948407
179	0x3d4386cc	0.047735974
180	0xbdb212e3	-0.086950086
181	0x3d51db95	0.0512348
182	0x3d80bcad	0.06285987
183	0x3c8cc23c	0.017182462
184	0xbd2de734	-0.04245682
185	0x3dac7b9f	0.08422016
186	0x3d8b5e64	0.06805113
187	0xbd5fe024	-0.054657117
188	0xbd9b806b	-0.07592853
189	0x3d32856e	0.04358428
190	0x3bdf4756	0.006813924
191	0x3ceda0c0	0.029007316
192	0x3c054c06	0.008135801
193	0x3c224e95	0.009906431
194	0x3d255e2d	0.040373016
195	0xbcfe4594	-0.031039037
196	0xbd724792	-0.059150286
197	0x3d84fb21	0.064932115
198	0x3d00fa1c	0.031488523
199	0xbcb77b78	-0.022397742
200	0x3c69b6f8	0.014264815
201	0x3c9823e9	0.01857181
202	0xbdb729ed	-0.089435436
203	0x3c7aea6e	0.015314681
204	0xbca046ac	-0.019564949
205	0xbd7673ca	-0.06016902
206	0xbd3cd8cf	-0.046105202
207	0xbdb903f6	-0.090339586
208	0xbd6cf16f	-0.057847437
209	0x3c62861e	0.013825921
210	0x3c9bb459	0.019006895
211	0x3babe2dd	0.00524555
212	0x3d4189e9	0.047250662
213	0x3c32c4a4	0.010911141
214	0x3d55108d	0.052017737
215	0xbd52e699	-0.051489446
216	0x3d01cd2e	0.031689815
217	0x3d54e6be	0.051977865
218	0xbd9e5fa8	-0.07733089
219	0x3d62e072	0.05538983
220	0xbdcb8cd4	-0.0993897
221	0xbcfcb8dc	-0.030849867
222	0xbdc8cfda	-0.098052695
223	0xbb946c90	-0.004529543
224	0x3d1306f6	0.03589531
225	0xbcaf2399	-0.021379279
226	0x3cf9fa9d	0.03051501
227	0x3d5c1858	0.053734154
228	0x3bd3eb30	0.0064672455
229	0xbd8633dc	-0.0655286
230	0x3d87ca21	0.0663035
231	0xbd23b8a0	-0.039970994
232	0x3c37a4fb	0.011208768
233	0xbd62f8bd	-0.055412997
234	0x3c921694	0.017833032
235	0xbd6425b1	-0.055700008
236	0x3d0ea957	0.034829464
237	0xbcdb2252	-0.026749764
238	0x3da64ef5	0.081205286
239	0xbd580f88	-0.052749187
240	0xbd187399	-0.037219618
241	0x3cad518b	0.021157047
242	0x3d57714e	0.05259829
243	0xbd7b4252	-0.061342545
244	0x3c10e293	0.008843082
245	0xbda70a7f	-0.08156299
246	0xbd0a4668	-0.03375855
247	0xbda1ab95	-0.07894055
248	0xbd6051b6	-0.054765426
249	0xbd781c4c	-0.06057386
250	0xbcc8f4d8	-0.024530813
251	0xbdab9761	-0.083784826
252	0xbcec3499	-0.028833674
253	0x3d534231	0.051576797
254	0x3d82c512	0.063852444
255	0xbc39c53a	-0.011338526

bias f4 [128]
0	0xbda6dfd2	-0.08148159
1	0x3d0ee65f	0.034887668
2	0xbdf8e001	-0.121521
3	0xbe4cd03d	-0.20001312
4	0x3d6a0d8f	0.057141837
5	0xbdaf36c8	-0.085553706
6	0x3d92a78e	0.07160865
7	0x3bd878a6	0.0066061793
8	0x3d6e504e	0.058182053
9	0x3c71f75a	0.014768446
10	0xbd5375db	-0.051626068
11	0xbe6b7f11	-0.2299769
12	0xbda2daca	-0.07951887
13	0xbc898cd0	-0.016790777
14	0x3ce40b46	0.027837407
15	0xbdecb32b	-0.11557611
16	0xbc959de4	-0.018263765
17	0x3b5dd23b	0.003384723
18	0xbd57d45d	-0.05269276
19	0xbdb6f375	-0.089331545
20	0xbc8f8156	-0.017517727
21	0xbcb331ca	-0.021874327
22	0x3d1e01b2	0.038575836
23	0xbdf0bfc8	-0.11755329
24	0xbcab3ddc	-0.02090352
25	0xbdc24c4d	-0.094872095
26	0xbc235b9b	-0.009970571
27	0x3d85b0f3	0.06527891
28	0x3d7e84bb	0.0621383
29	0xbc931f53	-0.017959272
30	0xbda38750	-0.07984793
31	0xbd993c59	-0.074822135
32	0xbd91a67b	-0.07111832
33	0xbd39870b	-0.045294803
34	0x3c858d0f	0.016302614
35	0xbd979586	-0.07401566
36	0x3ccf4e6e	0.025305953
37	0x3da1dceb	0.07903465
38	0xbe10eeed	-0.14153643
39	0xbc1596a2	-0.009130152
40	0x3b941225	0.0045187646
41	0xbb55aa23	-0.003260263
42	0xbc939d0a	-0.018019218
43	0x3d29f5d6	0.041494213
44	0x3d1dc049	0.038513456
45	0xbd846072	-0.06463708
46	0xbc1bab56	-0.009501299
47	0xbc4c6aa5	-0.012476598
48	0xbb2e312a	-0.0026579597
49	0xbd2e150d	-0.042500544
50	0x3cf36e65	0.029715726
51	0xbc338180	-0.010956168
52	0xbda236c7	-0.07920604
53	0xbc8e5a78	-0.017377123
54	0xbca41593	-0.020029819
55	0x3e484c4a	0.19560352
56	0xbd1fafe1	-0.03898609
57	0x3d6d7a58	0.057978004
58	0x3decdb26	0.11565237
59	0x3d16ac34	0.03678532
60	0xbd3c4871	-0.045967523
61	0x3d74a456	0.059727035
62	0x3d7f6411	0.06235129
63	0x3c202492	0.009774344
64	0x3ba26215	0.00495554
65	0x3d52b0be	0.051438086
66	0xbd9bb5f5	-0.07603065
67	0xbca0eedc	-0.019645147
68	0x3e28bcc2	0.16478255
69	0x3d1a50df	0.03767478
70	0x3d1ef3fe	0.038806908
71	0x3cc66381	0.024217369
72	0xbd56b566	-0.05241909
73	0xbd3a098d	-0.045419265
74	0xbc870486	-0.01648165
75	0xbdb4cfb2	-0.08828677
76	0xbda8ff90	-0.0825187
77	0xbc5ad6b9	-0.013356858
78	0xbd9c296d	-0.07625089
79	0x3d25ddbf	0.040494677
80	0x3bf0bead	0.007346949
81	0xbc6b6c88	-0.014369138
82	0x3cf2b5c4	0.029627688
83	0x3d46a88a	0.048500575
84	0xbd76c98e	-0.06025081
85	0xbdb8f32d	-0.09030757
86	0xbd8ffd58	-0.07030743
87	0x3c6d0759	0.014467084
88	0xbd7229d2	-0.059121914
89	0x3de27a2b	0.11058458
90	0xbcd02a1c	-0.025410704
91	0xbda159d6	-0.07878463
92	0x3d385c23	0.045009743
93	0x3d48e83a	0.049049594
94	0xbcbedcc5	-0.02329863
95	0xbd1fd1b9	-0.039018366
96	0xb9d78202	-0.0004110486
97	0xbd6ef23e	-0.05833649
98	0xbbe9fbd0	-0.007140614
99	0x3d6cef82	0.0578456
100	0xbda8b1d7	-0.08237045
101	0x3ce59634	0.028025724
102	0x3d74cbd6	0.059764706
103	0xbd64d7da	-0.055869915
104	0x3d76fb1e	0.060298078
105	0xbdbbd2ca	-0.09171064
106	0xbda783a9	-0.08179409
107	0xbd915ee1	-0.07098175
108	0xbb1f9a7b	-0.0024353552
109	0x3d3a51f2	0.045488305
110	0xbd7a603b	-0.06112693
111	0xbb76a879	-0.0037637039
112	0xbd2cafcd	-0.042159844
113	0xbda69885	-0.081345595
114	0xbc08f53a	-0.008359248
115	0xbd5094fa	-0.050923325
116	0xbcce1636	-0.025157075
117	0x3dbc7f12	0.09203924
118	0x3b9512db	0.004549367
119	0xbce3fab0	-0.027829498
120	0x3a2a67e7	0.0006500468
121	0xbc91d360	-0.017800987
122	0xbd2eaa38	-0.042642802
123	0x3e014d24	0.12627083
124	0x3d82988d	0.06376753
125	0xbdaca901	-0.084306724
126	0x3c4f7e7a	0.012664432
127	0xbd6fe526	-0.058568142

weight f4 [6, 128]
0	0xbbe2da63	-0.0069230064
1	0x3c7a8e36	0.015292695
2	0xbb6ccf4f	-0.0036134308
3	0xbeae03bb	-0.3398722
4	0x3d2209e9	0.039560232
5	0xbcbe0614	-0.023196258
6	0xbc96b940	-0.018398881
7	0xbe08d3a0	-0.13361979
8	0xbd531aa7	-0.05153909
9	0x3cc3420b	0.023835203
10	0x3c63f184	0.013912562
11	0x3e9860e5	0.29761425
12	0x3d32a1eb	0.04361145
13	0x3d93dd93	0.07219996
14	0x3d74ab70	0.059733808
15	0xbc098ded	-0.008395654
16	0xbd10e568	-0.03537503
17	0x3d5fc823	0.054634225
18	0xbd63dc24	-0.055629864
19	0xbd871a0f	-0.06596767
20	0x3d573a48	0.052545816
21	0x3dee40e6	0.11633472
22	0x3d62ef26	0.05540385
23	0x39bfed86	0.00036607328
24	0xbd992c4c	-0.07479152
25	0xbd186ec2	-0.037215002
26	0x3cced9ff	0.025250433
27	0xbd3f78e5	-0.046746153
28	0x3c7b9dfd	0.015357492
29	0xbc8f442e	-0.017488565
30	0xbc46acbb	-0.012126143
31	0x3ca9a414	0.020708121
32	0x3d6fcd03	0.058545124
33	0xbbacad10	-0.005269654
34	0xbd990669	-0.07471926
35	0xbc39bf97	-0.0113371825
36	0x3d8af78a	0.067854956
37	0xbd8a8fd3	-0.067657135
38	0xbb8d1a5c	-0.004306121
39	0x3d30ccc0	0.043164015
40	0xbd0366c3	-0.032080423
41	0xbb58dfb0	-0.0033092313
42	0x3c183cb0	0.009291813
43	0x3d27d7c0	0.04097724
44	0xbeb286e6	-0.34868544
45	0xbc5afdb8	-0.013366155
46	0xbcb855bf	-0.022501824
47	0x3ac41e9e	0.0014962738
48	0xbd8a6dac	-0.067591995
49	0x3b834320	0.0040058047
50	0xbb848b01	-0.004044891
51	0x3d58071a	0.052741148
52	0xbc48b284	-0.012249593
53	0x3be8ef30	0.0071085915
54	0xbc5e3f41	-0.013564886
55	0xbcf6f9f8	-0.030148491
56	0x3c87ae80	0.0165627
57	0xbd66d66d	-0.056356836
58	0xbe2a8b07	-0.16654597
59	0x3d75fab8	0.060053557
60	0xba1cb3d9	-0.0005977727
61	0x3d5d738e	0.05406528
62	0xbc31bafc	-0.010847803
63	0xbc035818	-0.008016609
64	0xba727307	-0.0009248708
65	0xbb922de4	-0.004461037
66	0x3d287a42	0.04113222
67	0x3bb421b3	0.0054971813
68	0x3df4178a	0.11918552
69	0xbbea9514	-0.007158885
70	0x3d3b227a	0.045687176
71	0x3c59dc2d	0.013297123
72	0xbd17d6d7	-0.03707012
73	0xbc1bb9d8	-0.009504758
74	0x3d3633f5	0.044483144
75	0x3d812913	0.063066624
76	0x3d30f17f	0.04319906
77	0xbb7ed688	-0.0038885195
78	0xbd8ad95b	-0.067797385
79	0xbd6f74d5	-0.05846103
80	0xbd83779a	-0.064192966
81	0x3d7d4a12	0.061838217
82	0xbcdc0562	-0.026858035
83	0x3c042553	0.008065539
84	0xbbd75de7	-0.0065724733
85	0xbbe7b3a2	-0.0070709744
86	0x3d6c2c90	0.057659686
87	0x3d04e473	0.03244443
88	0xbc864335	-0.016389469
89	0xbda0a577	-0.0784406
90	0x3d207752	0.039176293
91	0x3d487b2f	0.048945602
92	0xbd386ad4	-0.045023754
93	0xbcf1f205	-0.02953435
94	0x3d5c6b08	0.05381301
95	0xbc49ae03	-0.012309554
96	0x3d5ab968	0.053399473
97	0xbdb25c0a	-0.08708961
98	0xbdb36bd5	-0.08760802
99	0x3d0418d8	0.032250255
100	0xbdadd224	-0.08487347
101	0xbd910528	-0.070810616
102	0xbd966aa0	-0.07344556
103	0x3d348de6	0.044080637
104	0x3ba20243	0.0049441173
105	0xbcde087a	-0.027103651
106	0xbd965334	-0.073400885
107	0xbbe1046d	-0.0068669827
108	0x3ca0c9f2	0.019627545
109	0x3d887a66	0.06663971
110	0x3ad4a8a2	0.0016224573
111	0xbcdf8df6	-0.027289372
112	0x3b5ee35c	0.0034010028
113	0x3c8aecbc	0.016958587
114	0x3af9da19	0.001906219
115	0xbd7f2d50	-0.062299073
116	0x3d82842e	0.063728675
117	0x3d2c2bf8	0.04203412
118	0x3d620b58	0.0551866
119	0xbd5d35b8	-0.05400631
120	0xbd84cb33	-0.0648407
121	0xbd792b38	-0.060832232
122	0x3d303f61	0.043029193
123	0xbddd3bcc	-0.10802421
124	0xbc79fc73	-0.0152579425
125	0xbb213c04	-0.0024602422
126	0xbc105d26	-0.008811271
127	0x3d92443d	0.07141922
128	0x3d0001c0	0.03125167
129	0x3cb6aaa9	0.022298174
130	0xbd8d9721	-0.06913591
131	0xbe8df3de	-0.27725118
132	0xbcd11b24	-0.025525637
133	0xbbbdc6c0	-0.005791515
134	0xbc0d01ef	-0.008606418
135	0x3eec3bd2	0.4613939
136	0x3d508a5d	0.050913204
137	0x3d73e592	0.059545107
138	0x3d946edb	0.072477065
139	0xbec16b7c	-0.37777317
140	0xbd38e618	-0.04514131
141	0xbcf0d996	-0.029400628
142	0xbd79cab7	-0.06098434
143	0xbd4bb4b8	-0.049732894
144	0xbcc9760c	-0.024592422
145	0x3d4bf480	0.04979372
146	0xbd151ab5	-0.036402423
147	0xbd68b25a	-0.056810714
148	0xbd490788	-0.049079448
149	0xbf14e214	-0.5815747
150	0x3c5bd39a	0.013417149
151	0xbda550b9	-0.08072037
152	0x3c889cb0	0.016676277
153	0x3c664e37	0.014056734
154	0xbcf9fc94	-0.030515946
155	0x3cfa8caf	0.030584661
156	0xbccf1391	-0.025277885
157	0x3ca2cea4	0.019873925
158	0xbd990cbc	-0.07473132
159	0x3de2507e	0.11050509
160	0x3d967dee	0.07348238
161	0xbd4174e8	-0.04723063
162	0xbd870691	-0.06593049
163	0xbd27f5a4	-0.041005746
164	0x3d704f71	0.05866951
165	0xbd8d3911	-0.0689565
166	0xbf3aa566	-0.7290863
167	0x3d568d8b	0.05238108
168	0xbac3ffa1	-0.0014953503
169	0xbd0ddf16	-0.03463658
170	0xbd8e0088	-0.06933695
171	0xbd9e1c3a	-0.077202275
172	0xbe799c7f	-0.24376105
173	0x3cadbf40	0.02120936
174	0x3df24c2b	0.11830934
175	0xbd3bfd61	-0.045895938
176	0xbd583361	-0.052783374
177	0x3d65c43e	0.056095354
178	0xbdb49bd1	-0.08818782
179	0xbd850f28	-0.064970315
180	0xbc4706c5	-0.01214761
181	0xbdb35b96	-0.08757703
182	0xbc3e4ea8	-0.011615433
183	0xbde06925	-0.10957555
184	0x3d988e6b	0.07449039
185	0xbd8d5b3a	-0.06902166
186	0x3f051863	0.51990336
187	0x3cf9e185	0.030503044
188	0x3c1cbcc1	0.009566487
189	0x3d315f56	0.04330381
190	0x3c867fab	0.016418299
191	0x3cd3c2b0	0.02584967
192	0x3bcb7f6e	0.006210259
193	0xbd9869c4	-0.07442048
194	0x3d1a99e6	0.037744425
195	0xbc46c604	-0.012132172
196	0x3e2f34b0	0.17109942
197	0x3bc14522	0.005898134
198	0xbcf00652	-0.029299889
199	0x3bcded26	0.006284374
200	0x3d19e2d4	0.037569836
201	0x3cc8a984	0.024494894
202	0x3d5659d3	0.052331757
203	0x3c708548	0.014680214
204	0xbd49e2eb	-0.04928867
205	0x3dfe48a1	0.124161966
206	0x3cba829c	0.022767358
207	0xbcfc415e	-0.030792888
208	0xbd564945	-0.05231597
209	0xbd1a53ae	-0.03767746
210	0x3c34a000	0.011024475
211	0x3cd1e8b7	0.025623662
212	0x3d24a972	0.04020066
213	0x3db026de	0.08601163
214	0xbd2ef206	-0.04271128
215	0xbd7a7ff0	-0.061157167
216	0xbc5fe699	-0.013665819
217	0xbdfe7477	-0.12424558
218	0x3d8fd80a	0.07023628
219	0xbd130624	-0.035894528
220	0xbc9cdc02	-0.019147877
221	0xbccc59d2	-0.024945173
222	0x3e3d83ce	0.18507311
223	0xbba628e0	-0.0050707906
224	0x3c938144	0.018005975
225	0x3cf51e05	0.029921541
226	0xbcef24c6	-0.02919234
227	0xbd96f407	-0.07370763
228	0xbd5e2d34	-0.054242328
229	0x3db10939	0.08644337
230	0xbd14bde2	-0.0363139
231	0x3d094723	0.033515107
232	0xbd586905	-0.05283453
233	0x3bd7b208	0.0065825023
234	0x3ca26239	0.019822227
235	0xbd8f10fc	-0.069856614
236	0x3d840835	0.06446878
237	0xbd466086	-0.048431896
238	0x3d3204b3	0.043461513
239	0x3cbb303b	0.022850147
240	0x3d372308	0.044711143
241	0x3d71a02d	0.058990646
242	0xbca16102	-0.019699577
243	0xbcd84b35	-0.026403049
244	0x3cb92b79	0.022603737
245	0x3e52cdf6	0.2058638
246	0x3cdfd09f	0.027321158
247	0x3d0401e3	0.03222836
248	0xbda0d8ac	-0.07853827
249	0xbd91db5a	-0.07121916
250	0xbcb29043	-0.021797305
251	0xbe46196f	-0.1934564
252	0x3d32b963	0.04363383
253	0xbd301e4f	-0.042997655
254	0xbd98e525	-0.07465581
255	0x3c04fae8	0.008116461

bias f4 [6]
0	0xbd65b260	-0.056078315
1	0x3e1e1b18	0.15440023
2	0xbd79f357	-0.061023083
3	0xc0217f71	-2.5234034
4	0xbf05891b	-0.5216233
5	0xbec9b79f	-0.39397904
