models/orientation3D_pi_170.pth (torch, 4216 bytes, 4 tensors)

weight f4 [16, 4]
0	0xbe2fbe92	-0.1716254
1	0x3d8164fb	0.063180886
2	0xbedc2d50	-0.4300332
3	0x3e291a2c	0.1651389
4	0x3e865f05	0.2624437
5	0xbeb65bc7	-0.35616896
6	0xbe9c149f	-0.30484483
7	0xbf06b275	-0.52616054
8	0x3f204408	0.6260381
9	0xbdcae059	-0.09906072
10	0xbef56ac8	-0.4793303
11	0x3e946579	0.28983667
12	0x3f1a8e31	0.60373217
13	0x3e77343e	0.24141023
14	0xbe79c58e	-0.24391767
15	0x3e4ac591	0.19801928
16	0x3eaf6a9b	0.3426102
17	0xbcba388f	-0.022732047
18	0xbce185ad	-0.027529562
19	0x3e0b3957	0.13596092
20	0x3e30dd37	0.17271887
21	0x3d2a4bfe	0.041576378
22	0x3e6ec8a0	0.2331872
23	0xbe25ab93	-0.16178732
24	0xbded2849	-0.115799494
25	0x3eb6744b	0.356356
26	0xbf29c57f	-0.6631698
27	0x3dc26ec3	0.09493782
28	0x3f94b39a	1.161731
29	0xbce78115	-0.028259793
30	0xbd540539	-0.051762793
31	0xbd4b8d5f	-0.04969537
32	0x3f822812	1.0168478
33	0xbd6cfcc5	-0.057858247
34	0xbe5b2f5a	-0.21404782
35	0x3e1f3ddb	0.1555094
36	0x3e72a0d3	0.23694162
37	0x3ee2b77a	0.44280607
38	0xbd95e935	-0.07319871
39	0xbe201b9d	-0.15635534
40	0xbf0dbbd5	-0.55364734
41	0xbe533714	-0.2062648
42	0xbee4efa0	-0.4471407
43	0x3e9d9f64	0.30785668
44	0x3f5f26b0	0.8716841
45	0xbe8588b0	-0.26080847
46	0xbd690eb5	-0.05689879
47	0x3e161c6c	0.1465928
48	0xbea0db64	-0.31417382
49	0xbdabe1a7	-0.08392649
50	0x3e3a09a1	0.18167736
51	0xba854f14	-0.0010170662
52	0x3f3003f4	0.6875603
53	0xbe2a3111	-0.1662028
54	0x3ea6e589	0.32596996
55	0xbd1bfa69	-0.038080607
56	0x3fcfcbf1	1.6234113
57	0x3e32af7a	0.17449751
58	0xbe32a18e	-0.1744444
59	0x3d65a4ed	0.05606549
60	0x3d010fec	0.031509325
61	0xbe97f8ab	-0.29681906
62	0xbea50e70	-0.32237577
63	0x3eb1e364	0.34743798

bias f4 [16]
0	0x3d9c57c7	0.0763393
1	0x3ef02d8e	0.46909755
2	0x3ee79f9f	0.4523897
3	0x3eb7ef17	0.359246
4	0xbe6218ea	-0.22079816
5	0x3eeadc6f	0.45871302
6	0x3ecb9541	0.3976231
7	0x3f5379d4	0.8260777
8	0xbf09d7e7	-0.53845066
9	0xbce4d090	-0.027931482
10	0x3ebb1525	0.3653957
11	0xbf2054c2	-0.6262933
12	0x3cfa0fd1	0.03052512
13	0xbf010e7f	-0.50412744
14	0x3f18dcab	0.5971171
15	0xbf09f6bb	-0.53892106

weight f4 [6, 16]
0	0x3dc1bec9	0.094602175
1	0x3ed047f3	0.40679893
2	0xbd5c2418	-0.05374536
3	0xbe0bdb5f	-0.13657902
4	0x3d6d7158	0.05796942
5	0xbe3514f1	-0.1768377
6	0xbda08dd9	-0.07839555
7	0xbcce1f6e	-0.025161471
8	0x3e2c64f9	0.16835393
9	0xbeef22cf	-0.46706244
10	0xbd3baaf2	-0.045817323
11	0x3e689f05	0.22716911
12	0x3db33851	0.08750976
13	0x3d99f12f	0.07516705
14	0xbd7c45a9	-0.06158987
15	0xbdf70e9f	-0.120633356
16	0xbd5b8414	-0.053592756
17	0x3e98b4d5	0.29825464
18	0x3e3ba8b5	0.18326075
19	0xbe274785	-0.16335876
20	0x3d8801ab	0.06640943
21	0xbed43ea6	-0.41454047
22	0x3e110ea4	0.14165741
23	0x3d036c84	0.03208591
24	0x3c46bb3b	0.0121296
25	0x3e24d388	0.16096318
26	0x3c16eb13	0.0092113195
27	0xbe4009a3	-0.18753676
28	0x3e09a123	0.13440375
29	0xbe44674b	-0.19180028
30	0xbd1bb693	-0.038015913
31	0xbd2a4e3e	-0.041578524
32	0x3bcdf442	0.0062852213
33	0x3ea5c8e9	0.32379845
34	0xbe63ef33	-0.22259216
35	0xbd227135	-0.039658744
36	0xbe72fc7f	-0.23729132
37	0x3c9a9c6a	0.018873412
38	0x3e0fe4e0	0.14052153
39	0x3e2c0a03	0.16800694
40	0xbf29afdd	-0.6628397
41	0x3d4f0afb	0.05054758
42	0x3ebec6cf	0.37261054
43	0xbe8068f0	-0.2508006
44	0x3c8661ee	0.016404118
45	0xbe06f561	-0.13179542
46	0xbe1abba4	-0.15110642
47	0x3d63de7f	0.05563211
48	0x3e1370e8	0.14398539
49	0xc00ab5f8	-2.1673565
50	0xbff9f8a7	-1.9529008
51	0xbe111873	-0.14169483
52	0x3dfebc88	0.12438303
53	0x3d9339bf	0.071887486
54	0x3eba7d08	0.36423516
55	0xc0b5bd77	-5.679378
56	0xbdd05cea	-0.10173972
57	0x3df176c9	0.117902346
58	0xbfb6eabd	-1.4290386
59	0xc07cf9df	-3.952751
60	0x3c271a66	0.010199165
61	0xbe92c1c2	-0.2866345
62	0xbdf37dec	-0.11889252
63	0xbfad14e3	-1.3521999
64	0xbdcc6b9a	-0.09981461
65	0xc0b7f05c	-5.7480907
66	0xbe89d535	-0.26920477
67	0x3d9b338e	0.07578193
68	0x3ba555a2	0.0050456086
69	0x3dbdc6e5	0.09266452
70	0xbdd8876e	-0.10572706
71	0xc0c95e42	-6.292756
72	0xbebd15a4	-0.36930573
73	0xbba81e29	-0.0051305485
74	0x3d992080	0.07476902
75	0xc00e99ad	-2.2281296
76	0x3e6dac4b	0.23210256
77	0xbcd17ca7	-0.025572134
78	0xbe08e74c	-0.13369483
79	0xbdfb1f6f	-0.12261855
80	0x3e17a8e5	0.14810522
81	0xc0d736b8	-6.7254295
82	0xbdc243f7	-0.094856195
83	0xbc67e7a0	-0.014154345
84	0x3c69e31a	0.014275337
85	0xbfbfaba2	-1.4974253
86	0x3dd75605	0.10514454
87	0xbff5d34b	-1.9205106
88	0xbcfdd7d8	-0.030986711
89	0xbe0ce109	-0.13757719
90	0x3dd06ff2	0.10177602
91	0x3d12eff6	0.035873376
92	0xbccf891e	-0.025333937
93	0x3dfa147a	0.12210937
94	0xbeaf86a3	-0.34282407
95	0x3d4dcbbf	0.050243136

bias f4 [6]
0	0x3e6d69e9	0.23184933
1	0x3d21c613	0.03949554
2	0x3e928cce	0.2862305
3	0xbf3142cb	-0.69242543
4	0xbf74eadd	-0.9567087
5	0xbf7adf61	-0.979971
