models/orientation3D_pi_1.pth (torch, 74998 bytes, 6 tensors)

weight f4 [128, 2]
0	0x3e321b6b	0.17393272
1	0xbf3a5b01	-0.7279511
2	0xbe31f92a	-0.17380205
3	0xbee3d4fe	-0.44498438
4	0x3d153fa7	0.036437657
5	0x3e869e21	0.26292518
6	0x3f20044b	0.6250655
7	0xbf1f418f	-0.6220941
8	0x3e6306cd	0.22170563
9	0x3f14778d	0.5799492
10	0xbe1f61dc	-0.15564674
11	0xbf2fc83c	-0.6866491
12	0x3f37615d	0.7163294
13	0x3ebe19a9	0.37128952
14	0xbf03e504	-0.51521325
15	0xbcf2cb6d	-0.029638017
16	0xbe8a5d7d	-0.2702445
17	0x3e907e4c	0.28221357
18	0xbb1b5b32	-0.002370548
19	0xbe8f684e	-0.28009266
20	0x3e0e547c	0.13899416
21	0xbf1050ed	-0.5637348
22	0x3f520d8d	0.82051927
23	0xbec3b39b	-0.38222966
24	0xbeaa720e	-0.33290142
25	0xbf26c41a	-0.6514298
26	0xbf5b26d6	-0.85606134
27	0xbf2dfbe7	-0.679625
28	0xbe8e19f9	-0.2775419
29	0xbedfd329	-0.4371579
30	0x3ee188b5	0.44049612
31	0xbeca5d72	-0.39524418
32	0x3f0b9edd	0.5453928
33	0xbc75d44a	-0.015004227
34	0x3e1a66d8	0.15078294
35	0xbe13db60	-0.14439154
36	0x3f01235f	0.50444597
37	0xbebea8b1	-0.37238076
38	0x3cdc8397	0.026918216
39	0xbe281eb6	-0.16417965
40	0x3ea23f3a	0.31688863
41	0x3ed2b08f	0.4115033
42	0xbdafdfba	-0.08587594
43	0xbf0c4c38	-0.548038
44	0x3e0d902d	0.1382453
45	0xbec0bf05	-0.37645736
46	0xbd6733fe	-0.056446068
47	0xbf3b6919	-0.7320724
48	0x3e99bacf	0.30025336
49	0x3eb7e9e6	0.35920638
50	0x3ce6c95d	0.02817219
51	0xbe930e6b	-0.28721938
52	0xbf3d63d0	-0.73980427
53	0xbef08cf4	-0.4698254
54	0xbf2854ec	-0.6575458
55	0x3ea4e5cd	0.32206574
56	0xbebc453a	-0.36771566
57	0xbe9e4b32	-0.30916744
58	0x3e82a3c5	0.2551557
59	0x3f3a0ea1	0.7267857
60	0x3ea55398	0.3229034
61	0x3f5ca530	0.86189556
62	0xbe586702	-0.21133044
63	0xbcdae4ef	-0.026720492
64	0xbeef3c00	-0.46725464
65	0x3e676354	0.22596484
66	0x3f56fa97	0.8397612
67	0xbf464b17	-0.7745833
68	0x3d1f1fa5	0.038848538
69	0x3eac44d7	0.3364627
70	0xbd96b47a	-0.07358642
71	0x3e6f082c	0.23342961
72	0x3f2d47f1	0.676879
73	0xbf031cb3	-0.51215667
74	0xbf04e1b5	-0.519069
75	0xbe46f13c	-0.19427961
76	0xbebf7c8e	-0.37399715
77	0x3f4b5efc	0.7944181
78	0x3ea69703	0.32537088
79	0x3f50a42f	0.81500524
80	0xbf2d425e	-0.67679393
81	0x3e807553	0.2508951
82	0x3f3c5dc0	0.7358055
83	0xbf73a4f7	-0.9517359
84	0xbf09b3d2	-0.5379001
85	0x3e66b2d8	0.22529161
86	0xbe63175a	-0.22176877
87	0xbf0185f9	-0.5059505
88	0x3ef4ebb5	0.4783608
89	0x3f30427d	0.68851453
90	0x3e8a6b1a	0.27034837
91	0xbdf9a4a0	-0.12189603
92	0x3ead6484	0.3386575
93	0x3f64254a	0.891194
94	0xbf9f8007	-1.2460946
95	0x3e9b037c	0.30276096
96	0xbfbfe2dd	-1.4991108
97	0x3f08f68d	0.53501207
98	0x3f4d92c1	0.80302054
99	0xbfe48282	-1.7852328
100	0xbf992b50	-1.1966343
101	0x3f442304	0.7661593
102	0x3eb9d303	0.36293802
103	0xbe8913c5	-0.26772895
104	0xbf3f6188	-0.74758196
105	0xbe242d44	-0.16032892
106	0xbead5a27	-0.33857843
107	0x3e8faeee	0.28063148
108	0x3d923238	0.07138485
109	0xbf12e91d	-0.5738695
110	0xbf305a30	-0.68887615
111	0xbf08acf8	-0.5338893
112	0x3eafc88a	0.34332687
113	0xbf19ea57	-0.601232
114	0x3ee66a7f	0.45003125
115	0x3f07d393	0.5305721
116	0xbe78fa03	-0.24314122
117	0xbf0db637	-0.5535616
118	0x38b9e082	8.863305e-05
119	0xbf295b19	-0.6615463
120	0xbf3269c9	-0.69692665
121	0xbe700373	-0.23438816
122	0xbf48e385	-0.7847217
123	0x3e860eb4	0.26183093
124	0xbf4f3c88	-0.8095174
125	0x3e1977cf	0.1498711
126	0xbf600ba8	-0.87517786
127	0xbe609586	-0.21932039
128	0xbff2cba5	-1.8968397
129	0x3f2b0be3	0.6681501
130	0xbf50ae1a	-0.8151566
131	0x3e9c1562	0.30485064
132	0xbf5565b2	-0.833583
133	0x3efc417b	0.49268708
134	0x3ebaa680	0.36455154
135	0x3e1ccd75	0.1531275
136	0x3e11a8de	0.14224574
137	0xbf40c37a	-0.75298274
138	0xbef26c71	-0.4734836
139	0x3e4ce320	0.20008516
140	0x3d704fa2	0.058669694
141	0xbf98e6e2	-1.194546
142	0x3ef2e8b3	0.4744316
143	0x3f6340c2	0.8877069
144	0x3ab3461e	0.0013677513
145	0x3eca00b2	0.39453655
146	0x3dc4b980	0.09605694
147	0x3e4342b0	0.19068408
148	0xbe126288	-0.14295399
149	0x3d9fe9e5	0.07808284
150	0x3e599504	0.21248251
151	0x3e19f18b	0.15033548
152	0xbe4c58e4	-0.19955784
153	0xbf34d89e	-0.7064303
154	0x3da210f3	0.07913389
155	0xbf402e4e	-0.75070655
156	0x3f0256f6	0.5091394
157	0x3e1d0c70	0.15336776
158	0xbecfc14a	-0.40577155
159	0x3ec47f91	0.38378575
160	0xbf61eef4	-0.8825524
161	0x3f1b94ab	0.60773724
162	0xbedbe3c1	-0.429472
163	0xbdcfad10	-0.10140431
164	0x3f47ab76	0.77996004
165	0x3f746d25	0.9547904
166	0xbe629dd8	-0.22130525
167	0xbe3fa94c	-0.18716925
168	0x3f2dd321	0.6790028
169	0xbf37f16a	-0.71852744
170	0xbf2c74fb	-0.67366
171	0x3e99de66	0.3005249
172	0x3da3cf8f	0.07998573
173	0x3e904ffb	0.2818602
174	0xbeebbb47	-0.4604132
175	0x3d6e495a	0.058175422
176	0x3d9a7608	0.07542044
177	0xbeba8d1b	-0.3643578
178	0x3eb76e3e	0.35826296
179	0x3f03d7c4	0.5150111
180	0xbefbba5d	-0.4916562
181	0xbee0e3d1	-0.4392381
182	0xbee86a96	-0.4539382
183	0x3daf4351	0.085577615
184	0x3d316b74	0.043315366
185	0x3e663cea	0.22484174
186	0xbe873762	-0.2640944
187	0xbf50ef4e	-0.8161515
188	0x3ea592d5	0.32338586
189	0x3ea4ef85	0.3221399
190	0xbf0105f4	-0.5039971
191	0x3d849f71	0.064757235
192	0xbee7e7c7	-0.4529402
193	0xbf2aede3	-0.66769236
194	0x3d95ec08	0.0732041
195	0xbc352e00	-0.011058331
196	0xbdbc1914	-0.09184471
197	0x3e800744	0.25005543
198	0xbdf6e9ae	-0.120562896
199	0x3ecb2c85	0.39682403
200	0xbefa8698	-0.48930812
201	0xbec0ee57	-0.3768184
202	0xbed259af	-0.41084048
203	0xbf2aa8e0	-0.6666393
204	0xbf2c8aa7	-0.67399067
205	0x3e981b21	0.29708198
206	0xbf2ba4cd	-0.6704834
207	0xbe8727f3	-0.26397666
208	0x3db08e30	0.0862087
209	0xbf00ee9f	-0.50364107
210	0x3cc15f2b	0.02360495
211	0x3e56d856	0.20980963
212	0x3e92b762	0.28655535
213	0x3a936078	0.001124396
214	0xbe9d0003	-0.3066407
215	0xbf2d0010	-0.6757822
216	0x3ed9fb5b	0.42574582
217	0xbfec16df	-1.844448
218	0x3de663c6	0.11249499
219	0xbf5c79f6	-0.861236
220	0xbf310f8f	-0.69164366
221	0xbea46271	-0.32106355
222	0xbe0bf804	-0.13668829
223	0xbf1b40c1	-0.6064568
224	0xbedb9169	-0.42884377
225	0xbf1d2b74	-0.6139443
226	0xbeb7eeaf	-0.3592429
227	0xbd353ed0	-0.044249356
228	0xbec38d86	-0.3819391
229	0xbed52f0b	-0.41637453
230	0x3e894d64	0.26816857
231	0x3f4a415a	0.7900597
232	0x3f312365	0.6919463
233	0x3f399736	0.72496355
234	0x3f25e9ad	0.64809686
235	0xc000dac2	-2.013352
236	0xbe3b5f23	-0.1829801
237	0xbf45a908	-0.77211046
238	0xbf2ee28d	-0.6831444
239	0xbea3af4d	-0.3196968
240	0xbe875c49	-0.26437595
241	0xbf0819af	-0.5316419
242	0xbf34c156	-0.7060751
243	0xbf74af96	-0.9558042
244	0xbd886cc0	-0.066613674
245	0xbd0b3da0	-0.033994317
246	0xbe9e517b	-0.3092154
247	0x3f01e712	0.5074321
248	0xbe5e8141	-0.21728994
249	0xbf2e1616	-0.6800245
250	0xbda9e4d8	-0.082956016
251	0x3f0bdcd1	0.54633814
252	0xbd9dff68	-0.077147305
253	0x3d1e07f0	0.03858179
254	0xbe8348e8	-0.2564156
255	0xbefa91e6	-0.48939437

bias f4 [128]
0	0x3e1abb03	0.15110402
1	0xbd08ab74	-0.033366635
2	0xbca1e7af	-0.019763796
3	0xbeda074a	-0.42583686
4	0xbe3cbae8	-0.18430674
5	0xbe8a05b0	-0.26957464
6	0xbf0aedcf	-0.5426912
7	0x3e7866dd	0.24257989
8	0x3e8422e7	0.25807878
9	0x3da4f2ae	0.080541
10	0xbd8a8b45	-0.06764845
11	0xbe0db673	-0.1383913
12	0x3eb6c28a	0.35695297
13	0x3ec9ef0d	0.39440194
14	0x3e77c8a1	0.24197628
15	0xbd25592a	-0.040368237
16	0xbed06e5d	-0.407092
17	0xbf2c23a9	-0.67241913
18	0xbf2f524e	-0.6848496
19	0xbd5e4e0b	-0.054273646
20	0xbe3804fb	-0.1797065
21	0x3db3df54	0.08782831
22	0x3d7fb483	0.06242801
23	0x3eb981ab	0.3623174
24	0xbf066d0b	-0.52510136
25	0xbd896305	-0.067083396
26	0x3ef95df9	0.48704508
27	0x3ec6a4b5	0.38797536
28	0x3c967d00	0.018370152
29	0xbe4d6033	-0.20056228
30	0xbe7f9617	-0.24959598
31	0x3e52ef94	0.20599204
32	0xbe364990	-0.178015
33	0xbec7ac8d	-0.38998833
34	0xbeaa2a59	-0.33235434
35	0x3da624ef	0.08112513
36	0xbdb89b58	-0.090140045
37	0xbe5aa28c	-0.21351069
38	0xbd21008c	-0.039307162
39	0xbe74752f	-0.23872827
40	0x3e2584a5	0.16163881
41	0xbef182cc	-0.47170103
42	0xbe9d5352	-0.3072763
43	0x3e8230dc	0.25427902
44	0xbee4c189	-0.44678906
45	0xbf107c04	-0.5643923
46	0xbe8f7418	-0.2801826
47	0x3dbdb4f6	0.09263031
48	0x3d426dff	0.04746818
49	0xbe8d9ff3	-0.27661094
50	0x3c873349	0.016503947
51	0x3c41c2a6	0.011826193
52	0x3f0a3fb1	0.54003435
53	0xbf0564ec	-0.5210712
54	0xbf075dcc	-0.528775
55	0x3ee963b5	0.45583883
56	0x3e9af3f7	0.30264255
57	0xbe6247e7	-0.22097741
58	0x3e9050c3	0.28186616
59	0xbdeddf95	-0.116149105
60	0x3ee7972b	0.4523252
61	0x3eb02a59	0.3440731
62	0x3ed0cec9	0.40782765
63	0x3ef9f9b2	0.48823315
64	0xbe43f445	-0.1913615
65	0x3eb56691	0.35429814
66	0x3eb5b92c	0.35492837
67	0x3da41521	0.080118425
68	0x3e797fea	0.24365202
69	0xbe94c167	-0.29053804
70	0x3e155182	0.14581874
71	0xbeb69704	-0.3566209
72	0xbe9f93c0	-0.31167412
73	0xbf0decf1	-0.5543967
74	0x3d9b00e7	0.075685315
75	0xbd21ae22	-0.039472707
76	0xbed417b4	-0.41424334
77	0x3ec51825	0.38494983
78	0xbda046ab	-0.07825979
79	0x3cd6100e	0.026130702
80	0x3e1e8198	0.15479124
81	0xbd2adc30	-0.041713893
82	0xbf1a6432	-0.60309136
83	0xbf05dbcc	-0.5228851
84	0xbedf265c	-0.43583953
85	0xbeeb2764	-0.4592849
86	0xbe131063	-0.1436172
87	0x3e04d711	0.12972666
88	0xbf2fc43d	-0.6865881
89	0x3e31a75a	0.17348996
90	0xbec0dd82	-0.37668997
91	0xbd38a0a9	-0.045075092
92	0xbc80be86	-0.015715849
93	0x3ef1dc6f	0.4723849
94	0x3d4671ef	0.0484485
95	0xbd246ab6	-0.04014083
96	0xbe34adf0	-0.17644477
97	0xbeb5b045	-0.35486045
98	0xbe052d79	-0.13005628
99	0x3e5ef431	0.21772839
100	0x3e6518c8	0.22372735
101	0xbef4af54	-0.47790015
102	0x3d564d10	0.052319586
103	0xbf028750	-0.5098772
104	0xbf241875	-0.6409982
105	0xbd6aab01	-0.05729199
106	0x3d6394ec	0.055561945
107	0x3eb1a0f1	0.346931
108	0xbe8944ff	-0.26810452
109	0x3ede9079	0.434696
110	0xbf08fa78	-0.53507185
111	0xbf006fe2	-0.5017072
112	0x3eba283e	0.36358827
113	0xbe553c00	-0.2082367
114	0xbda79900	-0.08183479
115	0xbe68ea8e	-0.22745726
116	0xbe9d6acf	-0.3074555
117	0xbf1d8676	-0.61533296
118	0x3ec5e0b2	0.3864799
119	0x3ee472b7	0.4461877
120	0x3e92c280	0.28664017
121	0x3f30c1c5	0.6904567
122	0xbec40e68	-0.3829224
123	0x3d3d3858	0.04619631
124	0x3eaefebc	0.34178722
125	0xbf34e38d	-0.70659715
126	0xbeb5c4b0	-0.35501623
127	0x3e8cb11c	0.27478874

weight f4 [128, 128]
0	0xbc2cf46f	-0.010556324
1	0x3d76bbc9	0.06023768
2	0x3cb83258	0.022484943
3	0xbec052fa	-0.37563306
4	0x3e13084c	0.14358634
5	0xbc7e00a8	-0.015503086
6	0xbf928432	-1.1446593
7	0xbf968c35	-1.1761538
8	0x3e17ef4b	0.14837377
9	0x3d93ab3e	0.07210396
10	0x3d3d214c	0.046174332
11	0xbdb23e2d	-0.08703265
12	0x3e02bb58	0.12766778
13	0xbf551526	-0.83235395
14	0x3dc2132e	0.094763145
15	0x3c0df425	0.008664166
16	0xbf9a4b11	-1.2054158
17	0x3d45ee8a	0.04832319
18	0x3d6b1f8c	0.057403132
19	0x3d3cb044	0.046066537
20	0xbed31776	-0.41228837
21	0x3dabf501	0.0839634
22	0x3cb5021e	0.022095736
23	0xb94c0ccb	-0.00019459722
24	0x3d29828b	0.04138426
25	0xbcf67394	-0.030084409
26	0xbf45975b	-0.77184075
27	0xbf363c05	-0.7118533
28	0xbd8d04c0	-0.068856716
29	0x3dea9b66	0.11455421
30	0x3d6369dc	0.055520877
31	0x3d58ae7d	0.05290078
32	0xbda4128c	-0.0801135
33	0xbe071ced	-0.13194628
34	0xbdbb63c1	-0.09149886
35	0xbe068b4e	-0.13139078
36	0x3d4ffdb9	0.05077908
37	0x3d2d832a	0.042361416
38	0xbe1b1e3f	-0.15148257
39	0x3e92392d	0.28559247
40	0xbf16ed2a	-0.58955634
41	0xbf12a9c0	-0.5729027
42	0x3c960018	0.018310592
43	0x3e1e147e	0.15437505
44	0xbf79921b	-0.97488564
45	0xbc6958c8	-0.0142423585
46	0x3d821f6a	0.06353648
47	0xbe9cf78f	-0.30657622
48	0xbd0f7789	-0.035026107
49	0xbebeea67	-0.3728821
50	0xbe1e1ac1	-0.15439893
51	0x3d9bcd29	0.076074906
52	0x3af593ed	0.0018736102
53	0x3c860db4	0.016363956
54	0x3d6efbd2	0.058345623
55	0xbf705223	-0.9387533
56	0xbbb8ebf0	-0.0056433603
57	0x3cc08050	0.023498684
58	0x3cf63b17	0.030057473
59	0x3da88c94	0.08229938
60	0xbeebc6f2	-0.4605022
61	0xbf8422d5	-1.032313
62	0xbf825c40	-1.0184402
63	0xbf47f0d5	-0.78101856
64	0xbd1ee949	-0.038796697
65	0xbf55c889	-0.8350912
66	0xbe4fbffc	-0.2028808
67	0x3d2226e6	0.039587878
68	0x3da67d83	0.08129408
69	0xbca06478	-0.019579157
70	0x3d6f2719	0.058386896
71	0xbd469b2a	-0.04848782
72	0xbd9e8141	-0.07739497
73	0xbd1e3c86	-0.03863194
74	0x3dba5942	0.09099056
75	0xbd105112	-0.035233565
76	0xbd657869	-0.056023035
77	0xba5cba74	-0.00084201177
78	0x3d2dcd3b	0.04243205
79	0xbe952028	-0.29126096
80	0xbe90a19e	-0.28248304
81	0x3c07c6f0	0.0082871765
82	0xbfb992fa	-1.4497979
83	0xbc781858	-0.015142523
84	0x3d09e311	0.033663813
85	0xbd2e4cb7	-0.04255363
86	0x3e9a441c	0.30130088
87	0x3e5d4f13	0.21612196
88	0x3c895d20	0.016768038
89	0x3d972abe	0.07381199
90	0xbd1a86e9	-0.037726317
91	0xbe6cd52f	-0.23128198
92	0x3ce07b11	0.027402433
93	0x3d71d3d7	0.059039917
94	0x3df1f0ee	0.11813532
95	0xbd5ea7d8	-0.054359287
96	0x3d9594e1	0.07303787
97	0xbd634d76	-0.055493794
98	0xbdd902cd	-0.10596237
99	0x3d8f994d	0.07011662
100	0xbf33031e	-0.6992663
101	0xbcd3ebe4	-0.025869317
102	0xbc08428c	-0.008316647
103	0xbd221a46	-0.039575838
104	0xbd8a42cf	-0.06751024
105	0x3ce9b642	0.02852929
106	0x3da4651a	0.08027096
107	0x3e1e38bf	0.15451334
108	0xbddf566d	-0.10905156
109	0x3ce055ae	0.027384605
110	0xbda051ac	-0.07828078
111	0xbd592bed	-0.053020407
112	0x3deaba86	0.11461358
113	0x3d1ee76a	0.038794912
114	0x3ce937a0	0.028468907
115	0x3ec85597	0.391278
116	0xbda8b7da	-0.08238192
117	0xbfd229f7	-1.6419057
118	0xbc840cff	-0.016119478
119	0xbed929ba	-0.42414647
120	0x3e2ca54e	0.16859934
121	0x3dc7b3dc	0.09751102
122	0xbd6ca682	-0.05777598
123	0xbf39dce1	-0.7260266
124	0x3b9861bb	0.0046503223
125	0xbc8e1980	-0.017346144
126	0xbd9d3c32	-0.07677497
127	0x3dd59967	0.1042965
128	0xbd513a01	-0.051080707
129	0x3d215102	0.039383896
130	0x3ca4c897	0.02011518
131	0xbc3bc419	-0.011460328
132	0x3c23c1f0	0.009994969
133	0x3c742050	0.014900282
134	0x3c09a775	0.008401741
135	0xbd2206fc	-0.039557442
136	0xbd8b4ffe	-0.06802367
137	0xbdc28342	-0.09497692
138	0x3d918c9e	0.07106899
139	0xbc2424dd	-0.0100185545
140	0x3b175d4b	0.0023096378
141	0xbd081647	-0.03322437
142	0x3c97f01a	0.018547107
143	0xbd55e5a8	-0.05222097
144	0x3d927e26	0.07152967
145	0xbda7dacc	-0.08196029
146	0xbd4b5e51	-0.049650494
147	0xbcb3b79a	-0.021938134
148	0x3d35179b	0.044211965
149	0xbcf84ef2	-0.030311082
150	0xbd72850f	-0.059208926
151	0xbd02c9bd	-0.031930674
152	0xbd37cd2f	-0.044873413
153	0xbdbb6366	-0.09149818
154	0xbd05f175	-0.032700974
155	0x3d988128	0.074465096
156	0xbbde61a0	-0.00678654
157	0xbd88fd15	-0.066888966
158	0x3be1296c	0.006871393
159	0xbd4b3ffd	-0.04962157
160	0xbd0671e7	-0.03282347
161	0x3d66f483	0.05638553
162	0xbd933087	-0.0718699
163	0xbd8c0c96	-0.06838338
164	0x3ca14f69	0.019691186
165	0x3c38bad8	0.011275016
166	0x3c47ac26	0.0121870395
167	0x3c406281	0.011742235
168	0x3d23d1af	0.03999489
169	0x3d74dbde	0.059779994
170	0xbd303d4a	-0.0430272
171	0xbd959f5d	-0.07305787
172	0x3c3ad1c9	0.011402556
173	0xbc10b628	-0.008832492
174	0x3b228f8e	0.0024804804
175	0x3cf97e14	0.030455627
176	0x3d437ffb	0.047729474
177	0xbabe5590	-0.0014521349
178	0xbd811359	-0.063025184
179	0xbd81d5bb	-0.06339594
180	0xbbdf3be6	-0.0068125604
181	0x3a9ba200	0.0011873841
182	0x3d027230	0.03184718
183	0x3ca2c28c	0.019868158
184	0x3d8e5251	0.06949294
185	0xbdbe6388	-0.09296328
186	0x3d380e93	0.044935774
187	0x3d81d359	0.063391395
188	0xbd1be419	-0.038059328
189	0xbdaaf760	-0.08347964
190	0x3d91b836	0.071152136
191	0xbdabfd09	-0.08397872
192	0xbabbbee2	-0.0014323855
193	0x3b2d8386	0.00264761
194	0xbc7e6aef	-0.015528425
195	0x3d06fc85	0.032955665
196	0x3d917498	0.071023166
197	0xbc3bf2e8	-0.011471488
198	0xbd4860bc	-0.048920378
199	0x3bf7db4d	0.0075639845
200	0x3d8fef1d	0.07028029
201	0xbc493e38	-0.0122829005
202	0xbc2e214d	-0.010628057
203	0xbd5da68c	-0.05411391
204	0x3cdb4b70	0.02676937
205	0x3d10835e	0.03528153
206	0xbd821e56	-0.06353442
207	0xbb4610b5	-0.003022236
208	0x3da816cc	0.08207473
209	0xbdac502f	-0.08413731
210	0x3d17482d	0.036934067
211	0x3d3cce72	0.04609532
212	0xbc40795a	-0.0117476825
213	0x3da4db0d	0.08049593
214	0xbdc648e8	-0.096818745
215	0x3d769df3	0.060209226
216	0xbd21de5e	-0.039518707
217	0xbdb5938b	-0.08866032
218	0xba826640	-0.0009948686
219	0x39a30436	0.0003109292
220	0xbccac982	-0.02475429
221	0xbcfc9a23	-0.030835217
222	0x3d792f34	0.060836032
223	0xbd3054e9	-0.043049727
224	0xbd18e8e1	-0.037331466
225	0xbccd5028	-0.025062636
226	0xbd823396	-0.063574955
227	0x3cee5607	0.029093755
228	0xbc92001c	-0.017822318
229	0xb9692000	-0.00022232533
230	0x3d49a68b	0.049231093
231	0x3d214de2	0.039380915
232	0x3db20cb9	0.08693833
233	0xbc8f3946	-0.017483365
234	0x3be8fa9a	0.007109952
235	0xbda1a1fb	-0.078922234
236	0xbbee2d80	-0.0072686076
237	0x3d1a3c84	0.03765537
238	0x3d37462a	0.044744648
239	0xbdb3e52e	-0.08783947
240	0xbc5b04f7	-0.013367883
241	0xbb93be30	-0.004508756
242	0xbc392370	-0.011299953
243	0x3c3b4185	0.011429195
244	0x3c9d7b93	0.019223964
245	0xbdd8353e	-0.1055703
246	0x3d05ae54	0.032636955
247	0xbdb7aa70	-0.08968055
248	0xbcde1b58	-0.027112648
249	0xbdbe37bb	-0.092879735
250	0x3cc091ac	0.023506962
251	0x3d569bb9	0.052394602
252	0xbdb364fb	-0.08759495
253	0x3d63e032	0.05563373
254	0x3d9a8cad	0.07546363
255	0xbdbc9481	-0.09208012

bias f4 [128]
0	0x3db96c90	0.0905391
1	0xbcde11e9	-0.02710815
2	0xbdeab602	-0.114604965
3	0xbda8e269	-0.08246309
4	0xbd4a4236	-0.04937955
5	0xbd671dd1	-0.05642492
6	0x3c9824a9	0.018572168
7	0x3d07304d	0.033005048
8	0xbd7607e1	-0.060066108
9	0x3cd881d3	0.026429093
10	0xbcbba594	-0.022906102
11	0x3dfc2c41	0.12313128
12	0xbe07c4b5	-0.13258632
13	0xbcebf180	-0.02880168
14	0xbde94cb4	-0.11391583
15	0xbdaccf81	-0.08438016
16	0xbca52331	-0.020158382
17	0x3b5115de	0.0031903903
18	0xbd67830d	-0.056521464
19	0x3e027017	0.12738071
20	0x3c8490be	0.0161823
21	0x3cf3c65b	0.02975767
22	0xbc478679	-0.012178057
23	0x3dce2529	0.100656815
24	0x3d320386	0.04346039
25	0xbdcc2366	-0.09967689
26	0xbca0ad14	-0.01961378
27	0xbce8df5a	-0.028426815
28	0xbdb68b4e	-0.08913289
29	0xbd99f748	-0.07517868
30	0x3d00ae49	0.03141621
31	0xbcd4b8d3	-0.025967037
32	0x3d52a74a	0.05142907
33	0xbddf46fe	-0.109022126
34	0xbc30a011	-0.01078035
35	0x3b389cb4	0.0028169574
36	0xbd48573d	-0.048911322
37	0xbd01323c	-0.031542048
38	0x3cb4ccb2	0.022070263
39	0xbdb2c74b	-0.08729418
40	0xbd3d7d70	-0.046262205
41	0x3da8f2ee	0.0824946
42	0x3d59e658	0.05319819
43	0xbe4906d6	-0.19631514
44	0xbde43df0	-0.11144626
45	0xbcb779c9	-0.022396939
46	0x3be8417b	0.007087884
47	0x3e13ca3f	0.1443262
48	0xbdaaf094	-0.08346668
49	0x3d14230d	0.03616624
50	0x3ccbe8b4	0.024891235
51	0xbdbb35d5	-0.09141127
52	0xbd2ae37c	-0.041720852
53	0x3d61cff8	0.055129975
54	0x3dc39c2a	0.0955127
55	0xbd92fa70	-0.071766734
56	0x3d776fd3	0.06040938
57	0x3e039033	0.12847976
58	0xbd095fb4	-0.033538535
59	0xbd96f850	-0.073715806
60	0xbd575a68	-0.052576452
61	0x3d468686	0.048468135
62	0x3d8c06f8	0.06837267
63	0x3d4f7619	0.050649736
64	0xbd768697	-0.06018695
65	0x3bd5a091	0.006519385
66	0xbd5b6273	-0.053560685
67	0x3c71766d	0.014737708
68	0x3dc5b087	0.096528105
69	0xbdb48c30	-0.08815801
70	0xbdb1083c	-0.08644149
71	0xbcb3e69b	-0.021960547
72	0x3cc39d40	0.023878694
73	0x3de75e90	0.11297333
74	0x3cc816f4	0.024425007
75	0xbd820a10	-0.063495755
76	0xbd97bb3a	-0.074087575
77	0xbdb401fd	-0.08789442
78	0x3d9da5fd	0.076976754
79	0xbda2ee31	-0.07955588
80	0xbcbf1408	-0.023324981
81	0xbd5cd316	-0.053912245
82	0x3c8c126d	0.01709863
83	0x3db248e8	0.08705312
84	0x3d518440	0.051151514
85	0xbdc19f4e	-0.09454213
86	0x3cc76286	0.024338972
87	0xbdc6e475	-0.097115435
88	0x3d4a7c2a	0.04943482
89	0x3d04de12	0.032438345
90	0xbbc181a9	-0.0059053493
91	0x3d8cb05c	0.068695754
92	0xbd947ca8	-0.07250339
93	0x3d92ff61	0.07177616
94	0x3de14217	0.10998934
95	0x3dc26351	0.09491599
96	0x3c8cbeb8	0.017180786
97	0xbd6c7baa	-0.057735123
98	0xbc772bd3	-0.015086132
99	0xbbb389d0	-0.005479075
100	0xbda4aa3b	-0.080402814
101	0xbcaec8be	-0.021335956
102	0xbd8be7a4	-0.06831291
103	0xbcf8cdb6	-0.030371528
104	0x3d553f35	0.052062232
105	0x3c86a84c	0.016437672
106	0xbd67168c	-0.056417987
107	0x3d8e1c90	0.069390416
108	0x3bf5ba33	0.0074990033
109	0xbd3ab19d	-0.04557954
110	0xbc0711bf	-0.008243977
111	0x3b9fa775	0.0048722574
112	0x3d2a3491	0.041554037
113	0x3d6159f9	0.055017445
114	0xbd2d4c6e	-0.042309217
115	0xbdae435d	-0.08508942
116	0xbd165abe	-0.036707632
117	0xbdab5be0	-0.08367133
118	0x3d7095ef	0.058736738
119	0x3e041778	0.12899578
120	0xbd9b4af6	-0.07582657
121	0x3d2c2a4b	0.04203252
122	0xbc9e4cb8	-0.019323692
123	0xbc6e420e	-0.014542116
124	0xbbfd6f80	-0.007734239
125	0xbd136974	-0.03598924
126	0xbde4b58b	-0.11167439
127	0xbda5c66f	-0.08094489

weight f4 [6, 128]
0	0x3dbd82e9	0.09253485
1	0xbd362c35	-0.044475753
2	0x3d2efadb	0.042719703
3	0xbcd704ad	-0.026247347
4	0x3beb5ebb	0.0071829236
5	0xbce9c485	-0.02853609
6	0x3d187e08	0.037229568
7	0xbea15319	-0.3150871
8	0x3d889657	0.066693
9	0x3cbee388	0.023301855
10	0x3c5a9ba0	0.013342768
11	0x3d6895f9	0.05678365
12	0x3d514fa3	0.051101338
13	0x3daab3d5	0.083350815
14	0xbeea8ca5	-0.45810428
15	0xbda85e40	-0.08221102
16	0xbd74d7f8	-0.059776276
17	0xbdc96cdb	-0.09835216
18	0xbf02713b	-0.50954026
19	0x3d93b2a5	0.07211808
20	0x3cb428c3	0.021992093
21	0x3d6f48e2	0.058419116
22	0xbda8d7c5	-0.0824428
23	0xbecc591e	-0.3991174
24	0xbedf7312	-0.4364248
25	0xbeca57ba	-0.39520055
26	0x3e00f1e9	0.12592281
27	0x3da2a639	0.07941861
28	0xbd9125e4	-0.07087305
29	0x3d90deb5	0.07073728
30	0xbd2b88f8	-0.04187867
31	0xbdae63e4	-0.085151464
32	0x3d3870b6	0.045029365
33	0xbd8fc3cf	-0.070197694
34	0x3c9d10ad	0.01917299
35	0xbd2daf87	-0.042403724
36	0x3c6c1984	0.01441038
37	0xbd1cdcb7	-0.038296428
38	0x3d52fd07	0.051510837
39	0x3d2a7726	0.041617535
40	0xbd865b63	-0.065603994
41	0x3cb3c1ed	0.021943057
42	0x3bfc5c60	0.0077014416
43	0xbf02b68b	-0.5105979
44	0x3d3cc274	0.046083882
45	0xbd6010e7	-0.05470362
46	0x3c90d2b1	0.01767859
47	0x3e00d17d	0.12579913
48	0xbd2cef1d	-0.042220224
49	0xbd365f59	-0.044524524
50	0xbdafbdd8	-0.08581132
51	0x3cadbe04	0.02120877
52	0xbc5cc0ad	-0.013473672
53	0xbdb66c58	-0.08907384
54	0xbe06f514	-0.13179427
55	0x3c0da328	0.0086448565
56	0x3bac8887	0.0052652988
57	0xbc5209da	-0.012819732
58	0x3b8523e6	0.0040631173
59	0x3d2781e6	0.040895365
60	0xbda19853	-0.07890382
61	0x3d11160d	0.03542142
62	0xbd21bac9	-0.039484773
63	0xbe41ad1b	-0.18913691
64	0x3e8279aa	0.25483447
65	0x3c48b919	0.012251162
66	0x3d1364de	0.035984866
67	0x3c751bcc	0.014960241
68	0xbdbe3c17	-0.09288805
69	0x3d908b7e	0.07057856
70	0x3b57585c	0.0032859063
71	0x3c2a15f6	0.010381212
72	0xbe15d68e	-0.14632627
73	0x3da62dbc	0.08114192
74	0x3da2943f	0.07938432
75	0x3bbe4e40	0.005807668
76	0xbb766ce0	-0.0037601516
77	0xbd9d2562	-0.07673146
78	0x3ce7e130	0.02830562
79	0xbd31279b	-0.04325066
80	0xbd817dbd	-0.06322811
81	0xbdeab474	-0.114602
82	0x3ef95452	0.48697144
83	0x3dfecff7	0.1244201
84	0x3d3198c7	0.04335859
85	0x3ca3a4c4	0.019976027
86	0xbf0014d6	-0.50031793
87	0x3cea212e	0.028580274
88	0x3a700c3c	0.00091570965
89	0x3cd2715d	0.025688821
90	0xbcf1d080	-0.029518366
91	0xbe5dacef	-0.21648
92	0xbe253527	-0.16133557
93	0xbc63e228	-0.0139089
94	0xbeac04ac	-0.33597314
95	0x3ce40cdf	0.027838169
96	0x3d229108	0.039689094
97	0xbda22837	-0.079178266
98	0xbd641aa3	-0.055689465
99	0xbe7186ee	-0.23586628
100	0x3c928240	0.017884374
101	0x3d066f2e	0.032820873
102	0xbd0de120	-0.034638524
103	0x3d48835d	0.048953403
104	0xbea65675	-0.32487836
105	0x3daed70b	0.0853711
106	0xbf65d69f	-0.8978061
107	0xbd34d896	-0.044151865
108	0x3d91a7c3	0.07112076
109	0xbceb05ae	-0.028689232
110	0x3cbb7ed1	0.02288762
111	0xbe14367a	-0.14473906
112	0x3cfdb0ee	0.030968156
113	0xbd100859	-0.03516421
114	0x3aea2faf	0.0017866994
115	0xbdb63acb	-0.088979326
116	0x3bc812db	0.0061057634
117	0xbcca2970	-0.024677962
118	0x3da20d1d	0.079126574
119	0xbe18c47c	-0.14918703
120	0xbe78f739	-0.24313058
121	0xbd12ec42	-0.035869844
122	0xbf3aa27b	-0.72904176
123	0xbca53b6b	-0.020169934
124	0x3d23424e	0.039858155
125	0xbc051378	-0.0081223175
126	0xbf6dee4e	-0.9294175
127	0x3d675051	0.05647308
128	0x3ea1c27f	0.315937
129	0x3d80e23d	0.062931515
130	0x3cd40e0c	0.025885604
131	0xbcc6c6cb	-0.024264714
132	0xbdb2facc	-0.08739242
133	0xbc124fc4	-0.00893015
134	0x3c1d97db	0.009618725
135	0x3d2e7ced	0.042599607
136	0xbdb33289	-0.08749873
137	0xbdaa1ac8	-0.08305889
138	0x3ccfe474	0.02537749
139	0x3d1d56df	0.038412925
140	0xbd626d15	-0.05527981
141	0xbd828c90	-0.063744664
142	0x3d5a5f6d	0.05331366
143	0x3d73ad52	0.059491463
144	0x3cc5b21e	0.024132784
145	0xbd7d9fa7	-0.061919834
146	0x3f16f972	0.58974373
147	0xbbd3a969	-0.0064594042
148	0x3cd82393	0.02638415
149	0xbd8b7425	-0.06809262
150	0x3d8f8160	0.07007098
151	0x3c2c4455	0.0105143385
152	0xbdef14f8	-0.11673921
153	0x3eaa2b42	0.33236128
154	0xbe72afe2	-0.23699906
155	0x3d6c0562	0.05762232
156	0xbcb03b7e	-0.021512743
157	0x3ced6adc	0.028981619
158	0x3c6ee6dd	0.014581409
159	0x3cb85c03	0.022504812
160	0x3db5ac24	0.08870724
161	0xbe0c8030	-0.13720775
162	0xbce71d59	-0.028212236
163	0xbd30df2b	-0.04318158
164	0x3c74163c	0.014897879
165	0xbcfc3646	-0.030787598
166	0x3db6bad8	0.08922356
167	0x3aa99b40	0.0012939945
168	0x3d2d4096	0.042297922
169	0xbbb70c53	-0.005586186
170	0x3d4b020a	0.04956249
171	0x3f0d189d	0.5511568
172	0x3dadf31a	0.084936336
173	0xbd0fe9bd	-0.03513502
174	0xbd07e096	-0.033173166
175	0xbe4b0b84	-0.19828612
176	0xbd7a9843	-0.061180364
177	0xbea095de	-0.3136434
178	0x3ce62708	0.028094783
179	0x3d660a68	0.056162268
180	0xbd00934c	-0.031390473
181	0x3d4a7ed9	0.049437378
182	0x3c3deaae	0.0115915965
183	0xbd2c68f1	-0.042092267
184	0x3eb6b9ef	0.3568873
185	0x3cacd19e	0.021096047
186	0xbb925496	-0.00446565
187	0xbd7d7ade	-0.061884753
188	0x3d183072	0.037155576
189	0xbd5ae7a6	-0.053443573
190	0xbc900834	-0.017582037
191	0xbd877749	-0.06614549
192	0x3e88a209	0.26686123
193	0xbd7a687f	-0.06113481
194	0x3dcde168	0.100527585
195	0xbd11908d	-0.035538245
196	0x3e9876c4	0.2977811
197	0xbda5cb0e	-0.0809537
198	0x3ce38866	0.027775
199	0xbcbd2256	-0.023087662
200	0xbdfb5e7a	-0.12273879
201	0x3d5a27d1	0.053260628
202	0xbc904d38	-0.017614946
203	0xbd3059fe	-0.043054573
204	0x3d0b19e2	0.03396023
205	0xbd776e32	-0.060407825
206	0x3d310dce	0.043226056
207	0x3ca11b98	0.019666478
208	0xbe39af37	-0.18133245
209	0xbc944db6	-0.018103462
210	0x3e543d5b	0.2072653
211	0xbdefc65d	-0.11707757
212	0xbd36bf4b	-0.044616025
213	0xbdef5ea0	-0.1168797
214	0x3f4fb305	0.8113254
215	0x3d12dc92	0.035854883
216	0xbd6c269b	-0.057654005
217	0x3d9dade5	0.076991834
218	0xbb98d548	-0.004664097
219	0x3e4cd896	0.20004496
220	0xbf08191f	-0.5316333
221	0x3bbdef96	0.005796383
222	0x3cd7ab78	0.02632688
223	0xbc185f3f	-0.009300052
224	0xbceebb24	-0.02914197
225	0xbcbc2658	-0.022967502
226	0xbee93418	-0.45547557
227	0xbd6f2ca0	-0.058392167
228	0x3d29cb8d	0.041453887
229	0x3ce4b46b	0.027918061
230	0x3c4a6060	0.012352079
231	0xbca6356e	-0.02028915
232	0x3e36cb51	0.17850997
233	0xbc119279	-0.008885019
234	0x3ef8090a	0.48444396
235	0x3d4674ee	0.048451357
236	0xbdb203bf	-0.08692121
237	0x3cb77218	0.022393271
238	0xbd707c99	-0.058712576
239	0x3df37343	0.11887219
240	0x3d3b5740	0.045737505
241	0xbc2c0010	-0.010498062
242	0xbc89192c	-0.016735636
243	0xbbd4c59c	-0.0064932834
244	0xbd39547a	-0.04524658
245	0xbd05d394	-0.03267248
246	0x3d9ba552	0.07599892
247	0x3dc4f587	0.09617143
248	0xbd964e57	-0.07339161
249	0xbd5bc523	-0.0536548
250	0xbdb2ce55	-0.08730761
251	0x3d452139	0.048127387
252	0x3d0c36fc	0.034232125
253	0xbd105a20	-0.0352422
254	0x3ea3b368	0.31972814
255	0x3caaa3a1	0.020829977

bias f4 [6]
0	0xbc7d411b	-0.015457417
1	0x3e09feee	0.13476154
2	0xbd4d3ccd	-0.050106812
3	0xbecb7160	-0.39734936
4	0xbed112b7	-0.4083459
5	0xbf8b77a4	-1.0895886
