models/orientation3D_v_0.pth (torch, 71724 bytes, 5 tensors)

weight f4 [128, 1]
00000000: b01d abbe 6c49 80bf aa10 2fbf cc05 8cbe
00000010: d421 88bd 5e7a 31bf d4dc 94be f09f 073f
00000020: d63f b7be 8c9c d1be 009c 28bf 1bfe 273f
00000030: 9ed4 25bf 08b1 483e f714 033e 0296 003e
00000040: 0407 aebe 8c0d 3dbe da06 38bf e087 69bf
00000050: 4ab4 15bf 9ac5 4f3f 30a3 2ebe 684f 533e
00000060: f865 5f3f 7c3b c5be c87d 1ebf f5e1 703d
00000070: bffc 72be c4a7 173e 4192 b0bd 28f5 68bf
00000080: 70d2 f3bd d499 edbe e3c6 993f d23d 5fbf
00000090: 3379 0e3f 8025 e2bd c3d9 a6be f598 c13e
000000a0: 05a6 543f d026 eebc 5086 e8be 325b 053f
000000b0: 812e 21bf 49a7 593f 5859 503f 4051 6f3d
000000c0: caff 173f 563b a8bf 307d febe 6db4 93bf
000000d0: a010 b33e b8c2 423f 0fe9 ffbe 705b 99be
000000e0: 0a89 a13f 0ed9 4ebe 0449 61be a0c6 993e
000000f0: cd69 403f bdc0 463f af8a f0be ddc3 173f
00000100: 5a6a 48bf 9dc9 77bf 544e 56bf e8cd 7ebf
00000110: fee3 ebbe 24c0 03bf 7cbe 48bf b469 e3be
00000120: ec8e 6dbf 9ee2 f4be 326e 243f 6671 d6be
00000130: 70b8 203f bec3 03bf baab 61ba d1d1 71bf
00000140: 36f5 c5be ace5 f3be defc 4ebf 9869 f93e
00000150: da7b 3d3f 25ce 1e3f 1052 273f 7ec2 30bf
00000160: e4ef 413e 2bca b73e 808d 08bf 00d8 d83d
00000170: 1926 043f b07a b0bd 4058 2cbf 3a2d b33e
00000180: 7534 7dbf e220 123f e9c8 32be 5430 8bbf
00000190: c7e5 8bbf 2835 3abf 6506 63bf fb97 a6be
000001a0: c409 0abf a038 063e a2f5 f03d bcd8 2cbf
000001b0: cdf1 583f 3d04 7cbf c942 56be f271 f8be
000001c0: a598 413f ae97 06bf c802 4e3e 0e33 2abf
000001d0: d7e5 e13e 80bf 65bd 8292 133f 32e7 a8bf
000001e0: 60f5 c9bd 28c7 c93e 00e0 a73e 5cdd 1abf
000001f0: 509a 863d b380 143f a01e 06bf 2242 09bf
-0.33421087 -1.0022407 -0.683848 -0.27348173 -0.06647077 -0.6932734 -0.29074728 0.5297842
-0.3579089 -0.40939748 -0.6586304 0.6562211 -0.64777553 0.19598782 0.12800966 0.12557223
-0.33989727 -0.18462199 -0.71885455 -0.91222954 -0.58478224 0.8116089 -0.17054439 0.2063576
0.87264967 -0.38521945 -0.61910677 0.05880924 -0.23729227 0.14810091 -0.08621646 -0.9099908
-0.11905372 -0.46406424 1.201382 -0.87203705 0.55653685 -0.11042309 -0.32588014 0.3781201
0.83065826 -0.029071242 -0.45414972 0.5209228 -0.62961584 0.8502088 0.8138633 0.058427095
0.5937468 -1.3143108 -0.49704885 -1.1539437 0.3497362 0.7607837 -0.49982497 -0.29952574
1.2619946 -0.20199987 -0.2200051 0.3003435 0.7516144 0.77637845 -0.46980807 0.5928324
-0.7828728 -0.9679201 -0.8371327 -0.9953294 -0.46072382 -0.5146506 -0.78415656 -0.44416583
-0.92796206 -0.47829145 0.64230645 -0.4188339 0.6278143 -0.51470554 -0.0008608658 -0.9446078
-0.38663644 -0.47636163 -0.80854595 0.48713374 0.7401711 0.620333 0.6535959 -0.6904677
0.18939167 0.3589643 -0.5334091 0.10588074 0.5162063 -0.08617151 -0.6732216 0.34995443
-0.9890817 0.57081425 -0.17459454 -1.0874124 -1.0929497 -0.7273736 -0.8868163 -0.32537827
-0.5392115 0.13107538 0.11765601 -0.6751821 0.8474396 -0.9844397 -0.20923914 -0.48524433
0.7562354 -0.52575195 0.20118248 -0.66484153 0.44120666 -0.05609083 0.5764543 -1.3195555
-0.09861255 0.39409757 0.32788086 -0.6049402 0.065724015 0.5800888 -0.5239048 -0.53616536

bias f4 [128]
00000000: 7c24 69bf 2bed 883f 50bd 8bbd d88d 03be
00000010: 0e50 8d3f db28 613f 987f c03f da8b 753f
00000020: edae 9e3f 964d 1bbf ac9e 11bf abf4 bd3f
00000030: 2c0c 3bbf ec43 5dbf 4945 d63f 9839 e53f
00000040: 9c09 04bf 9b4a a33f 1ab2 5abf d408 7b3f
00000050: 483b d8be 5c63 7fbf f0a1 7fbf 9299 2cbf
00000060: 12b0 5f3f 2a7f 963f e8a3 49be 940a e83f
00000070: c2f8 b33f 2929 a83f 9da6 b53f c032 78bd
00000080: 6a32 70bf 3614 25bf fac9 5a3f 499a c93f
00000090: 544e e93f 8a28 2abf 5261 ae3f ba1b e83f
000000a0: 45e3 143f d556 903f 3610 20bf 22f3 3dbf
000000b0: 84bf a43f 2da6 f53e 3a7b 56bf 24a6 69bf
000000c0: d34e b33f a160 d03f 3a0c 43bf 6327 9c3f
000000d0: 006d 24bf fefd 5bbf f864 4b3f 2e8c 2cbf
000000e0: 537a 583f cd44 a43f 9883 da3f 5ce1 b8be
000000f0: c812 e33f 516b 843f b35f a03f 4fb7 b63f
00000100: 4a13 79bf dd80 d63f 70d4 983f 3837 7dbf
00000110: f6fd a33f c7bf c43f 00ba a1be b0b4 afbd
00000120: 08c8 28bf 73bf 9f3f 398d 0c3f 9984 d43f
00000130: 84d8 e63e 0053 88bb 3c56 1e3f 45a1 813f
00000140: f8a3 593f a14c 5d3f a06f 72be d0a9 c13f
00000150: b579 2a3f 20a3 a83e bd6d 4f3f e0c5 60be
00000160: a52f dd3f 16b3 f23d e80d bbbe d29c 903f
00000170: c3aa 2c3f e821 96be 801e 17be 5a28 9d3f
00000180: 7b46 873f f5c4 013f 9092 8f3f b0de b03f
00000190: 7c6c 943f cca7 01bf d093 743f 7d0b e43f
000001a0: 2a82 3dbf 10f0 60be 309d 8c3f 387b 48be
000001b0: 2ef8 2d3f 1025 a93f a9a5 e13f 71b0 e03f
000001c0: 02f7 853f 2ec6 903f 562c 73bf 0e6c 743f
000001d0: 1a90 cf3f 7ec5 40bf e237 72bf e521 b13f
000001e0: a811 79bf a711 b63f 30e4 f9be 8ea7 58bf
000001f0: 40cb 2bbf d0b3 273f ef9a 873f c41f aabe
-0.91071296 1.0697378 -0.06823218 -0.12847078 1.1040056 0.87952965 1.5038939 0.9591652
1.2397133 -0.6066526 -0.5688274 1.4840292 -0.7306545 -0.86431766 1.6739894 1.7908201
-0.5157716 1.2757143 -0.8542801 0.98060346 -0.42232728 -0.99760985 -0.9985647 -0.6742183
0.87378037 1.1757557 -0.19691432 1.8128228 1.406029 1.3137561 1.4191471 -0.060595274
-0.93826926 -0.64483964 0.8546444 1.5750209 1.8227029 -0.6646811 1.362345 1.8133461
0.58159286 1.1276499 -0.62524736 -0.74199116 1.2870946 0.47978345 -0.8378178 -0.91269135
1.400843 1.6279489 -0.7619053 1.219952 -0.6422882 -0.85934436 0.7945094 -0.674014
0.8456165 1.2833496 1.7071409 -0.36109436 1.7740107 1.034525 1.2529205 1.4274691
-0.9729506 1.6758076 1.1939831 -0.9891238 1.2811878 1.5371026 -0.3158722 -0.08579385
-0.65930223 1.2480301 0.5490299 1.6602966 0.45087063 -0.004160285 0.61850333 1.012734
0.8501582 0.8644505 -0.23675394 1.5129948 0.6659196 0.32936954 0.8102682 -0.21950483
1.7280165 0.11850564 -0.36534047 1.1297858 0.6744806 -0.29322743 -0.14757729 1.2277939
1.0568384 0.5069116 1.1216602 1.3817959 1.1595607 -0.5064666 0.95538044 1.7816006
-0.7402674 -0.21966577 1.098547 -0.19578254 0.6795682 1.3214436 1.762868 1.7553846
1.0466006 1.131048 -0.94989526 0.9547738 1.6215851 -0.7530135 -0.9461652 1.3838469
-0.97292566 1.4224137 -0.48806906 -0.8463067 -0.6710701 0.6550875 1.0594157 -0.3322736

weight f4 [128, 128]
00000000: 48dc a8bd da86 203d 8065 063a 7834 843c
00000010: b4ae 1b3b b6ad 423d aa78 fc3c 123d 7fbd
00000020: 5e92 1bbd 0a9a 96bd 7554 63bd e8ad b8bd
00000030: 9cf0 a03c 44b9 a4bc efec 4cbd 88c6 b4bd
00000040: 4075 5a3c ae2f c93c 35fb aebd 3d70 3c3d
00000050: a79d 97bd a02b e13c e0b9 fabc 00d2 9ebb
00000060: 890d 623d 21d1 c1bc 37ab a23d 27ce d7bc
00000070: e73e b1bd 7a58 0e3c 3691 dfbc a33d a5bd
00000080: e8a0 cfbc 8e45 533d 6a8f a7bc a262 3c3d
00000090: 2d66 3fbd bd29 983d 593c f33c 08c3 a43d
000000a0: d444 34bd f32e 073c e54e b2bd 2f1a 843d
000000b0: 0d43 b0bd 3d6e afbd d534 933d f346 94bd
000000c0: 2b18 833d 8797 803d d6ec a1bd 8c10 f0bb
000000d0: a910 8bbd 3fb1 863d 5b15 abbd 18ad 443c
000000e0: 8e62 573c f378 183d 4d19 7a3d 97b2 00bd
000000f0: 3f4f 19bc 2a33 7d3c 34bf 87bd a443 5fbb
00000100: 41f3 903d e400 313d 0a7c 323d 1648 8cbd
00000110: f07f 753b 1f7c 943d becd 8dbd 5875 ab3c
00000120: f6d1 463d 3df6 363c 8530 83bc f18e 83bd
00000130: f105 383d 38e8 fc3c 8a19 9dbd 89be 4d3d
00000140: 0247 d93b e0df 11bd 89c8 abbd 78ef 423c
00000150: b24a 2abc c91b a83d ac52 6bbd 0b0c ac3d
00000160: dfa4 283d 8613 7a3d f0c5 78bc 94d4 833d
00000170: 7724 2fbc f314 2ebd f9fb 8e3d 9980 063d
00000180: 7c9a bebd 7fa1 a13d 0196 5abc d38c 403c
00000190: bb4b 513d 804c 863b 554f 5b3d 5757 49bc
000001a0: 9a7e 66bd 5067 d23c 4a6b 163d c05a 81ba
000001b0: a3c5 45bc 694a ff39 4831 8d3c aed6 76bd
000001c0: e72a 85bc 3d71 983c e3dc 45bd 2442 b7bd
000001d0: 52b1 963d 82e6 5d3d 3bcd 58bd 480e 103d
000001e0: f486 a83c 3596 8bbd e03f 743b 876d 8a3d
000001f0: 10ac 0e3c 02f8 14bd 5206 bebc 583a a6bd
00000200: e9af 8ebd 5cae b23c 86cd 1b3d 302e eabb
00000210: 54ec 8b3c 908c febb fbf0 ad3d 2a1e 92bd
00000220: 6d49 8f3d b098 893b d876 0e3d b4bf 963c
00000230: b0c5 68bd 7465 75bd fcc3 9cbd 74b1 833c
00000240: 650a 9a3d dc5f a6bd 5df1 adbd df22 95bd
00000250: 065c 1f3d 5cca 9e3c 6c79 fcbc 1d70 a53d
00000260: 30d5 353c 00a1 3fbd a06e c83c c837 cc3c
00000270: b501 4dbd 7a38 93bd e70a afbd 0cb9 8bbc
00000280: 9d93 883d 08a1 13bc 4009 463b 0837 9dbd
00000290: 801b eb3a a8b5 dbbc d41f a83c 206d 91bd
000002a0: 00e5 eb3a 057f a1bd fab5 0b3d 48ac a1bc
000002b0: 44fe bdbc 02b9 433d 232b 9dbd dc3e 23bd
000002c0: c0ae 6a3c d2a3 30bd b985 9b3d 6276 5e3d
000002d0: 3499 ee3c 64f0 8cbc 40a2 1e3b 7aa6 523d
000002e0: 1a82 f9bc d0a0 22bd 661d 773d c9ce ab3d
000002f0: f2f2 053d b894 bb3c 4348 8ebd c31c 8a3d
00000300: 5d2e 883d 0718 9bbd ba47 4ebd 1a0d 48bd
00000310: d145 943d 1d83 ab3d b68e 1ebd f0d2 96bd
00000320: cbd7 8c3d b0af 3d3c 40e1 84bd 0fb1 a8bd
00000330: 45c8 83bd d8dc b4bc e72d 3cbd f8fb a5bc
00000340: 60a4 c2bb 99ef 18bd 601c 3abc 4ef0 613d
00000350: 60b5 54bb 40da 9a3b a019 94bd 3559 00bd
00000360: 477b 2dbd aec7 313d e00c 2abd a8fa 663c
00000370: 6488 51bd 8388 aabd af15 9a3d 01ab a13d
00000380: 0adf 233d 8a4f 353d 99ff 63bd 4820 3e3c
00000390: b404 dbbc 5da6 b03d 08cd 063c 449d 7abd
000003a0: ae82 053d f012 fd3c 56cb 4c3d 6ac6 243d
000003b0: 50a3 f1bc 4e46 f1bc c007 fb3b 5fd5 8fbd
000003c0: 479a 843d 5051 2cbc 8ce1 f8bc a874 8abc
000003d0: 10e2 fabb 7079 2cbc 6d29 933d 5091 abbc
000003e0: 5b6a b13d 305d e5bb 827d 2a3d 0414 0ebd
000003f0: e41a ecbc 407f 5a3c 75b7 29bd 6016 20bb
-0.0824514 0.039191104 0.0005126819 0.0161383 0.0023755254 0.047528945 0.030819256 -0.0623141
-0.037981384 -0.07353599 -0.055500466 -0.09017545 0.019645981 -0.020107873 -0.050030645 -0.08826929
0.013333619 0.024558868 -0.08544008 0.046005476 -0.07403117 0.027486622 -0.03060621 -0.0048468113
0.05518869 -0.02365929 0.07942813 -0.026343418 -0.08654576 0.008688087 -0.027290922 -0.08068397
-0.02534528 0.051580004 -0.020454127 0.0459925 -0.0467283 0.07429836 0.029691862 0.08045012
-0.044010952 0.00825094 -0.08706454 0.064503066 -0.08606539 -0.08565948 0.07187811 -0.07240095
0.06401094 0.062789015 -0.07906501 -0.0073261913 -0.06790287 0.06576776 -0.083536826 0.012004159
0.013146056 0.03722472 0.061059285 -0.031420317 -0.009357273 0.015454093 -0.06628266 -0.0034067417
0.07077647 0.04321374 0.043575324 -0.06849687 0.003746029 0.07250237 -0.06924008 0.020929977
0.048540078 0.011167106 -0.016014347 -0.06423748 0.04492754 0.03087245 -0.07670887 0.050230537
0.0066307792 -0.035613894 -0.083878584 0.011897914 -0.010393785 0.082084246 -0.05745189 0.084007345
0.04117286 0.061053775 -0.015183911 0.064370304 -0.010689846 -0.042500447 0.06981654 0.032837484
-0.09306809 0.07892131 -0.013341428 0.011752325 0.051097613 0.004098475 0.053542454 -0.01228889
-0.05627308 0.025684029 0.036723413 -0.0009868965 -0.012071046 0.0004869283 0.017235413 -0.06026333
-0.016255809 0.018608684 -0.048306357 -0.08948162 0.0735804 0.054174908 -0.052930098 0.03516987
0.020572163 -0.06815759 0.0037269518 0.06759172 0.008708015 -0.03636933 -0.023196373 -0.08116597
-0.06967146 0.021811657 0.0380378 -0.0071466193 0.017080463 -0.007768221 0.08493229 -0.071346596
0.06996427 0.00419911 0.034781307 0.018401958 -0.056829154 -0.059911206 -0.076545686 0.016075827
0.07521514 -0.081237525 -0.08493302 -0.07282042 0.03890612 0.019383602 -0.030819617 0.080780245
0.011098191 -0.0467844 0.024466813 0.024928942 -0.050050456 -0.071885064 -0.08547001 -0.01705601
0.0666878 -0.009010561 0.0030217916 -0.07676512 0.0017937273 -0.026820019 0.02052299 -0.07100892
0.0017997324 -0.07885555 0.034109093 -0.01973547 -0.023192532 0.04778386 -0.07674243 -0.03985487
0.01432389 -0.04312498 0.07593865 0.054312117 0.029125787 -0.017204471 0.0024205595 0.051428296
-0.030457545 -0.039704144 0.06033077 0.083890505 0.032702394 0.022898063 -0.069473766 0.06743767
0.06649468 -0.07572942 -0.050361373 -0.04884062 0.07239879 0.08374617 -0.03871032 -0.07364452
0.06877097 0.011577532 -0.064882755 -0.08236896 -0.06434683 -0.022077963 -0.045942213 -0.02026175
-0.005940005 -0.037337873 -0.011359304 0.055160813 -0.003245674 0.0047257245 -0.0723145 -0.031335074
-0.042353895 0.04340332 -0.041516185 0.014097847 -0.051155463 -0.08326819 0.07523667 0.078939445
0.04000763 0.044265307 -0.05566368 0.011604376 -0.026735641 0.08625481 0.008227594 -0.061185136
0.03259533 0.03089282 0.049998604 0.040228285 -0.029496819 -0.02945247 0.007660836 -0.07023119
0.064747386 -0.010517433 -0.030380987 -0.01690133 -0.0076563433 -0.010527 0.07185636 -0.020943314
0.08662864 -0.006999634 0.0416236 -0.034687057 -0.028821416 0.013336003 -0.041434724 -0.00244274

bias f4 [128]
00000000: 0e77 bfbd 0895 b73c 8cb2 8abd d364 06bb
00000010: 4a4d 2d3d 28d1 68bd 9d26 61bd 6f60 833d
00000020: 0826 44bc 028f 073f 7788 0dbd c7c9 813d
00000030: 5555 af3d 3429 e63e a4d2 c43e 87b9 c83e
00000040: 4a9d 263f da52 bb3e b987 113d 137d 01bd
00000050: 4bb8 aebd c58b 0a3f 043e 26bd 27b5 f83e
00000060: 830b 003f 902c f53e ec1b e23e 363a 353d
00000070: 3c63 9abd 8567 e0bc ac58 073f e7fc 53bd
00000080: d24c a63c 4091 863b 0eae 60bd 77f0 2e3e
00000090: 45a5 23bd c143 ed3e 9b78 ad3e 261e ea3e
000000a0: 23db 85bd 1ad3 eabb ab44 923d a9bb 3e3d
000000b0: dd90 d43e 2f90 713d ab50 7ebd ff1f fd3e
000000c0: 39b7 90bc 074f 823d 0024 053f b019 213c
000000d0: a470 d1bc 0a63 26bd 6af1 703d 838d a5bd
000000e0: a451 89bc 241d b3bc 57bf e63e 0ec6 d7bc
000000f0: a8f6 e93c c543 18bd 6cb8 d63c 8519 7bbd
00000100: 6fb0 1d3e a8e2 f73e 9ca0 153f e795 0f3a
00000110: e466 513d 999e 8c3b 1dd7 5c3d b87c 0b3f
00000120: 3ed7 033f af18 f43e 7cdb 1fbd 4183 f43e
00000130: 1567 4abd 9164 063f 162b cc3e 5a62 093f
00000140: c540 28bd 0c2a fc3c 0390 123f d582 003f
00000150: e65b 6d3d 53a4 db3e d210 673d d15e 0bbd
00000160: 63d6 ef3e 9c60 043d a2c6 ee3e 92ee 5e3d
00000170: 71d0 a63e b018 c7bb 4270 dd3e c6f3 023f
00000180: 3011 b23c f679 093f 6edf 25bd d7b1 043f
00000190: 4a98 033f 908b e73c 1fc5 a2bd 8098 183c
000001a0: 113e 133d 762c 8ebd e169 afbc 1eca df3e
000001b0: 5217 0b3d 31b1 bb3c b3f8 2fb9 8697 2f3d
000001c0: 2602 c73c afd1 a93e 57de 82bd 7e6a d63e
000001d0: 9525 0a3f 5c57 c53e 0ff6 803d 7136 0c3f
000001e0: 9fe7 b93e 91a3 8e3d 0f4e 053f 7f9d 34bd
000001f0: 9538 173f 0505 0b3f 74c1 fa3e a5c1 f13e
-0.0934888 0.02240993 -0.06772336 -0.0020506873 0.042310037 -0.056840092 -0.054968465 0.064148776
-0.011971958 0.5295259 -0.03455397 0.06337314 0.08561198 0.4495331 0.38441956 0.39204046
0.65083754 0.36586648 0.035529826 -0.03161342 -0.08531245 0.5411952 -0.040586486 0.48575708
0.50017565 0.4788556 0.44161928 0.044244967 -0.07538459 -0.027393112 0.5286968 -0.05175486
0.020300303 0.0041066706 -0.05485349 0.17083918 -0.039952535 0.46340755 0.33881077 0.45726126
-0.06535938 -0.0071662785 0.071420036 0.046565685 0.41516772 0.058975395 -0.06208865 0.49438474
-0.017665492 0.063627295 0.52008057 0.0098327845 -0.025566407 -0.040621795 0.05882398 -0.08083632
-0.016762562 -0.021864481 0.45067856 -0.026339557 0.028559998 -0.037174005 0.026210986 -0.061303634
0.15399335 0.48415112 0.58448195 0.0005477354 0.051123515 0.0042913673 0.053916086 0.5448718
0.5150031 0.47675082 -0.039027676 0.4775639 -0.049414713 0.524972 0.39876622 0.536657
-0.041077394 0.030781768 0.57250994 0.50199634 0.05794897 0.42898807 0.056412525 -0.03402597
0.46843252 0.032318696 0.4663592 0.054426737 0.32580903 -0.006075941 0.43249708 0.5115322
0.021736711 0.5370172 -0.040496282 0.5183386 0.5140425 0.02826479 -0.07947754 0.009313703
0.035947863 -0.06942074 -0.021412792 0.4370889 0.033957787 0.02291164 -0.00016781948 0.042869113
0.024293017 0.33167788 -0.06390064 0.41878122 0.53963596 0.38543212 0.06296932 0.5477057
0.36309525 0.069647916 0.5207223 -0.044095512 0.5907071 0.54304534 0.48975718 0.47218052

weight f4 [1, 128]
00000000: ccf7 703d fcf1 cdbc 1e5d 753d bd13 0f3d
00000010: 223e 193d 2c84 d03c 9eec 6b3d bd08 103d
00000020: 5dba 953d f8e3 ebbe b8fa bebc 28a6 02bc
00000030: 70bd ce3b 010a fabe eae4 f9be b228 04bf
00000040: 2e50 c43f 801c 0abf 3a49 933d d266 cc3b
00000050: 22c2 713d d123 e7be 43db acbd 37ee 07bf
00000060: 01f6 01bf aafb fcbe 257d 07bf b4f6 b33c
00000070: 18b6 92bd 5e13 4c3d c867 f1be e147 7ebd
00000080: 7948 b739 ad72 0cbd 1800 7cbc 4dc3 893e
00000090: d778 053c 83fe 0abf ae25 0cbf adef ddbe
000000a0: 9e7e 423d 66ff 853d 9c2c 673d 3c39 bf3c
000000b0: fbf9 03bf a03c 9c3d 7310 a83d 0377 dfbe
000000c0: 9310 b13c 5393 903d 211d eabe 5e14 93bd
000000d0: 2802 27bc d2bd 873d c41f 8b3d cdd3 9c3d
000000e0: 4c49 8bbc a109 a0bd 7dcb e8be 0060 41bb
000000f0: 3087 8b3c f14b 673d 319d aebd 72f1 483d
00000100: 3385 843e 3e3f f3be 5857 e4be 8f0f 323d
00000110: 5442 723d 2231 413c 1982 593d 9b76 e8be
00000120: 9c32 f3be 50b5 08bf 34c2 69bd 1f90 02bf
00000130: ef67 a83d 829b f4be 4536 02bf f192 dbbe
00000140: 0dce 8ebd 707d 48bc 5c41 e9be 0455 09bf
00000150: a806 d93c 7ffb 00bf 3529 553d 2aab 213d
00000160: 8f66 06bf 0ed7 a0bd 4b9f 0abf 7e6b 683d
00000170: ead9 a3be 8091 283b a2e6 debe 1783 06bf
00000180: 7d00 80bd 6e1b 00bf 81cb 91bd 2f2e debe
00000190: f789 e8be 2f68 7a3d a239 8ebd 61fe 89bd
000001a0: 6149 a83d 1f2f 2939 0601 963d af81 a1be
000001b0: 336a 9e3d 2953 b03b f16d 2a3c 2fdc c53c
000001c0: 47a0 4c3d 7e8e 0cbf c1c6 923d 0b46 04bf
000001d0: 3e34 e5be b1d7 03bf f317 a93d 52a2 efbe
000001e0: 1e13 07bf 8cf7 613c 6f37 f2be afe9 4d3c
000001f0: e56c e0be 5880 f0be 689b f5be 0302 ffbe
0.058830068 -0.025139801 0.059903257 0.034930933 0.03741277 0.02545365 0.057598703 0.035164583
0.073109366 -0.46072364 -0.023312911 -0.007974185 0.006309204 -0.48835757 -0.4880746 -0.51624596
1.5336969 -0.5394974 0.07191701 0.006237843 0.05902303 -0.45144513 -0.08440258 -0.5309786
-0.50766 -0.49410754 -0.5292533 0.021968223 -0.07163638 0.049823157 -0.4714949 -0.062080268
0.00034958476 -0.03428905 -0.015380882 0.26906815 0.008146486 -0.54294604 -0.54744995 -0.4334692
0.047484033 0.06542854 0.056439027 0.023342721 -0.51553315 0.07628751 0.082062624 -0.43645486
0.021614349 0.0705935 -0.4572535 -0.07181619 -0.010193385 0.06628002 0.06793168 0.07657585
-0.017002724 -0.078143366 -0.4546775 -0.0029506683 0.017032236 0.056468908 -0.08526076 0.049058385
0.25882873 -0.47509187 -0.44597888 0.04347187 0.059145287 0.011791499 0.053102586 -0.4540299
-0.4749955 -0.5340166 -0.057069972 -0.5100116 0.08222949 -0.47774893 -0.5086406 -0.42885545
-0.06972895 -0.012236938 -0.45557678 -0.5364535 0.026492432 -0.5038375 0.05204125 0.039469875
-0.5250024 -0.078535184 -0.5414931 0.056743138 -0.32002193 0.002572149 -0.43535334 -0.5254378
-0.06250093 -0.50041854 -0.071188934 -0.4339461 -0.4541776 0.061134513 -0.06944586 -0.06737972
0.08217121 0.0001613465 0.07324414 -0.31544253 0.077351 0.005381007 0.010402189 0.024152843
0.04995754 -0.54904926 0.071668155 -0.5166938 -0.4476642 -0.51500994 0.08256521 -0.46803528
-0.52763546 0.01379193 -0.47307917 0.012567922 -0.4383308 -0.4697292 -0.47970128 -0.49806222
