models/orientation3D_v_1.pth (torch, 72236 bytes, 5 tensors)

weight f4 [128, 2]
000000 c1 f4 52 3f fd 9e e1 3e ac da 8a bb 57 41 49 3f
       0.82404715 0.4406661 -0.0042374935 0.78615326
000010 0d 3e e6 3f e9 ac 52 3f 30 52 48 be 16 e1 8a be
       1.7987686 0.8229509 -0.19562602 -0.27124852
000020 08 eb 80 3f 3f f1 82 3f b5 77 88 3e 23 25 a3 3f
       1.0071726 1.0229872 0.2665383 1.2745708
000030 3f da 93 3e db 06 3b 3f 38 e5 49 3f e4 06 9b 3f
       0.28877446 0.73057336 0.78865385 1.2111478
000040 e9 5c 72 bc 46 d7 12 3e 0b 0e 00 bf e4 f9 19 3e
       -0.014792659 0.14339933 -0.5002143 0.15036732
000050 c4 3d a1 3e dc 56 9d 3e 4e c1 74 3f 2f 8f c7 3e
       0.31492436 0.3073033 0.9560746 0.38976428
000060 91 e8 7e 3f 47 a3 47 3e a7 8f 85 3f 20 9b 02 3f
       0.9957362 0.19495879 1.0434464 0.5101795
000070 bd 1c c0 3f 90 e6 94 3f 56 81 52 3f 7b 00 3a 3e
       1.500877 1.1632862 0.822286 0.18164246
000080 2a bf eb be a7 56 0e 3f 4c aa 82 3e 5e 7b 1b 3f
       -0.46044284 0.5560097 0.2552055 0.6073512
000090 94 b1 79 3f 63 3b d0 3e 7a 94 90 3f e1 75 bd 3f
       0.9753659 0.40670308 1.1295311 1.4801599
0000a0 c0 ae 6d 3e 14 dc 22 3f d7 c8 40 3f d1 48 41 3f
       0.23211193 0.6361706 0.7530646 0.75501734
0000b0 c6 6e ec be f0 70 a2 be c0 cf 9c bc 5e d8 32 3f
       -0.46178263 -0.3172679 -0.019142032 0.698614
0000c0 ac ba 6e 3f 89 ee be 3e c9 73 8a 3f fd 24 a9 3f
       0.9325359 0.37291363 1.0816585 1.3214413
0000d0 70 ba f5 be 09 70 01 3f a4 61 24 3f 00 f4 22 3e
       -0.47993803 0.5056158 0.6421149 0.15913391
0000e0 a4 9d 30 3f 2b 12 92 3e 51 2f 9c 3d e1 d4 67 3f
       0.6899054 0.28529486 0.076262124 0.905592
0000f0 4a cd ff 3e 24 35 1a be f4 37 34 3f ce 63 8a 3e
       0.4996131 -0.15059334 0.7039788 0.2702927
000100 27 ee 85 3e 8b d1 86 3f 4e 17 84 3d f7 37 9a 3f
       0.26158258 1.0532697 0.064497575 1.2048329
000110 7c 0c 79 3f 08 2e 28 3f a8 86 0e bf f2 89 23 bf
       0.97284675 0.6569524 -0.5567422 -0.6388236
000120 f8 4d 8e 3e 77 91 c9 3e 60 b1 8b bc 30 47 24 bd
       0.2779386 0.39368793 -0.017052352 -0.040106952
000130 66 cf 12 40 7a 09 68 3f 50 68 8a 3f 62 47 57 3e
       2.2939086 0.9063946 1.0813084 0.21023324
000140 58 09 92 3f 85 0b 1c 3f 67 71 63 3f 2f 3a ab 3f
       1.1409101 0.6095508 0.88844913 1.3377131
000150 35 f1 85 be 80 b9 d6 bf df 07 04 3f 44 65 2d 3d
       -0.2616059 -1.677536 0.5157451 0.042332903
000160 4e 71 86 be 20 02 90 bc f2 f7 3e 3e 17 b6 92 3f
       -0.2625832 -0.017579138 0.18649271 1.146182
000170 c4 50 67 3f 4c 81 52 3f 9e f4 67 be 80 86 e2 bc
       0.90357614 0.8222854 -0.22651908 -0.027652025
000180 1f 38 3e 3e 3e aa 82 3f 21 25 27 3f b7 0d 00 3f
       0.18576096 1.0208204 0.6529103 0.5002093
000190 17 80 0a 3f 71 78 43 3f 1c 41 f8 3e 69 14 69 3f
       0.541017 0.76355654 0.48487175 0.9104677
0001a0 b0 80 ca bd a0 9a 4e bd 8d a0 cd be 68 de 03 bf
       -0.098878264 -0.05044043 -0.40161553 -0.5151124
0001b0 ae 57 89 3e b0 b9 62 3e 3b 02 df be 96 9b 88 3e
       0.26824707 0.22141147 -0.4355639 0.26681203
0001c0 73 7b 5c be c8 cf b7 3f e0 18 3a 3e e0 4d 55 bd
       -0.21531467 1.4360285 0.18173552 -0.05207622
0001d0 a7 9b 59 3f 13 5c 9f 3f fc 6f bd 3f 65 66 94 3f
       0.8500313 1.2449974 1.47998 1.1593748
0001e0 a4 07 2e 3f e9 2f e3 3e e3 f6 98 3f d2 df c4 3e
       0.6798041 0.4437249 1.1950344 0.3845201
0001f0 f5 25 0f bf 98 46 d1 3d 4c 51 51 3f 56 0f c7 3e
       -0.5591729 0.10218543 0.81764674 0.38878888
000200 a0 58 87 3f a1 09 c0 3f da 55 27 3f ef 9e 81 3f
       1.0573921 1.5002939 0.65365374 1.0126628
000210 b6 82 8f 3f b2 95 94 3f fd f1 6f 3f a2 ed ae 3f
       1.1211765 1.1608183 0.9372862 1.366627
000220 d8 c7 24 3f 4e 6a a5 3f f6 3f 00 40 a2 56 38 3f
       0.6436744 1.2923067 2.0039039 0.7200719
000230 26 d6 d7 bc 44 04 23 3f a0 c4 50 3d 80 d5 a4 3c
       -0.026347231 0.63678384 0.050968766 0.020121336
000240 20 01 82 3f d1 a9 ee 3e 0a 2c 1d 3f b1 12 87 3f
       1.0156593 0.46613935 0.61395323 1.0552579
000250 a3 e2 f2 3d 80 97 85 3f 47 1f 74 3f 3d ca ae 3f
       0.11859634 1.0436859 0.95360225 1.3655468
000260 df 6f b8 3e f8 6b 02 3f 89 e6 ee 3e 54 15 26 3f
       0.3602285 0.50946 0.4666026 0.64876294
000270 e2 09 79 3f 22 c8 ab 3f 8f c4 2e 3e 05 7b 87 3f
       0.97280705 1.3420451 0.17067169 1.0584418
000280 03 91 19 3f e6 0a ad 3f b7 c8 7f 3f 76 96 71 3f
       0.59986895 1.3518951 0.9991564 0.9437021
000290 32 b5 83 3d 16 c2 eb be b2 b6 bf 3c 9f d9 b8 3f
       0.06431045 -0.46046513 0.023402546 1.4441413
0002a0 9a df a5 3d fd a9 79 3f 3f 4e e9 3d 34 79 eb 3e
       0.08099289 0.97525007 0.113918774 0.45990908
0002b0 76 ca 83 3f 44 d8 00 3f 8c 72 bc be 80 88 a6 bc
       1.0296161 0.50329995 -0.36806142 -0.02032876
0002c0 0d ba 35 3d 82 61 86 3f 25 2e 03 3f 70 bc 18 3f
       0.044366885 1.0498507 0.51242286 0.5966253
0002d0 6a 01 0b bf 36 6d c0 be f8 2f 67 3f 33 9f a8 3f
       -0.5429903 -0.3758332 0.9030757 1.3173584
0002e0 24 e0 1f 3f 94 55 20 3f 41 c9 9c 3d 5f 05 7b 3f
       0.62451386 0.6263058 0.07655574 0.9805507
0002f0 42 eb ca 3e 46 7f b7 3e 28 bc 4a 3e d2 ef b4 3f
       0.39632612 0.3583929 0.19798338 1.4135687
000300 4d 98 37 3f 85 05 3f 3e 78 9c 82 3f 55 6f a3 3f
       0.7171677 0.1865445 1.0204 1.2768351
000310 c0 cb c6 3d 02 ca c2 be 35 79 39 3f 7a f0 3b 3f
       0.09706831 -0.38044745 0.7245057 0.73413813
000320 df e4 2f bf a7 35 0c c0 f4 c2 2f bc 42 84 03 bf
       -0.68708605 -2.1907747 -0.010727633 -0.51373684
000330 b5 07 46 3f 0a 73 88 3f b0 68 ae 3e ba da a6 3f
       0.7735551 1.0660107 0.34064245 1.30355
000340 46 78 35 3f 83 d9 18 3f 39 ff 2e 3f 05 09 e4 3e
       0.7088665 0.59706897 0.6835819 0.4453813
000350 f8 cd 12 3e 5a 88 fa be d7 86 9e 3e 7b f8 b5 3f
       0.14336383 -0.48932153 0.3096225 1.4216455
000360 7d 2c e4 3e 41 38 df 3e de f3 0b be 99 6d 64 3f
       0.44565192 0.43597606 -0.13667247 0.8922973
000370 c2 fd 29 3e 5b 9c d2 3e bf 23 23 bc 3e 0f ac 3f
       0.16600707 0.41134915 -0.009957253 1.3442152
000380 d6 ab 5d 3f 9c 71 c2 3f 85 6c c7 3e e8 58 96 3f
       0.86590326 1.5190921 0.3894998 1.1745882
000390 c5 6a 15 bf 7f fe 09 bf b7 78 1d bf a7 95 db bf
       -0.5836604 -0.53903955 -0.6151232 -1.7155045
0003a0 73 05 83 bb 2d 08 27 c0 37 86 30 3f e7 45 75 3f
       -0.0039984523 -2.609874 0.68954796 0.9580979
0003b0 17 31 6c 3f 13 67 aa 3f c1 b4 52 3f 7b 89 6a 3f
       0.92262405 1.3312706 0.8230706 0.9161603
0003c0 9e 03 e5 3e 9e bc 85 3f 91 b0 e5 bd 36 aa a9 3f
       0.44729322 1.0448186 -0.11215318 1.3255069
0003d0 78 66 b2 bd 32 1b 64 be b0 b6 ca be 62 62 96 3e
       -0.087109506 -0.22275999 -0.39592505 0.29371935
0003e0 ac ec 1d 3f 1d 02 87 3f b2 87 8f 3f 75 42 06 3f
       0.6168926 1.054752 1.1213286 0.52445155
0003f0 0d 91 e6 be 91 bb f7 be c2 a1 77 be f9 ba 08 bf
       -0.4503254 -0.4838529 -0.241828 -0.534103

bias f4 [128]
000000 20 f1 50 3f 81 7c 82 3f 77 a9 c8 3f ef 35 0c bf
       0.8161793 1.0194246 1.5676717 -0.54769796
000010 69 f9 00 3f 29 2d 4b 3f 49 bb 4b 3f 2d 7a 49 3f
       0.5038057 0.79365784 0.7958265 0.7870205
000020 df b0 82 3f 17 d8 2f bf 24 15 4d 3f 84 73 df 3e
       1.0210227 -0.686891 0.80110383 0.4364282
000030 16 ef 50 3f 15 ce 20 3f bf 24 dc 3f d5 73 dd 3e
       0.81614816 0.62814456 1.7198714 0.43252435
000040 f6 2e f7 be a7 3b a1 3f 57 bc 66 3e d5 ce 0c be
       -0.48278016 1.259633 0.22532783 -0.13750775
000050 50 b3 8e 3f 8d 4d b6 3e c9 dc 31 bf 83 a9 92 3f
       1.1148472 0.35606042 -0.69477516 1.1457981
000060 d0 71 3d 3f 26 54 49 3d d2 9e ec be 90 60 a5 3f
       0.7400179 0.049152516 -0.4621492 1.2920094
000070 ed b2 83 3f ac f8 60 3f 11 fc 12 bf 18 99 12 3f
       1.0288979 0.87879443 -0.5741587 0.5726485
000080 4c 64 91 3f 7b de 99 3e fc 50 17 3f de 8a 0c bf
       1.1358733 0.30052552 0.5910795 -0.54899395
000090 0c a8 73 3f 8d 15 e4 be a0 e1 99 3f 6e cd 9e 3f
       0.95178294 -0.44547692 1.202198 1.2406442
0000a0 f1 b5 99 3f c6 27 13 3f c1 2b 59 3f 5b 7b 29 3f
       1.2008649 0.57482564 0.8483239 0.6620385
0000b0 53 b3 b6 be 0d aa 5a 3f ac 84 b1 3e 66 0e 00 bf
       -0.3568369 0.85415727 0.34671533 -0.5002197
0000c0 8c 33 96 3f 06 6c 89 3f b0 78 1a 3f 33 e7 06 3f
       1.1734481 1.0736091 0.60340405 0.5269653
0000d0 09 e8 f1 be 13 71 ae be eb 4b 2a bf e0 12 82 be
       -0.4724734 -0.34070644 -0.6652209 -0.25405025
0000e0 cf ee 84 3f 82 d4 db be ed 65 98 3f b4 45 dd 3f
       1.0385379 -0.42935568 1.1906105 1.7286897
0000f0 66 8f 29 3f ae 91 94 3f f0 f3 25 bf 20 82 88 3f
       0.66234434 1.1606958 -0.64825344 1.0664711
000100 dc da 9f 3e a0 29 2c 3f 32 90 5f bd 07 91 62 3e
       0.31221664 0.67251015 -0.054580875 0.22125636
000110 e6 b8 9f 3f 2a 3b b7 3f a3 d6 8d 3f 30 c5 a1 be
       1.2478302 1.431493 1.1081127 -0.31595755
000120 94 22 8b 3e c2 32 c9 3e cd 4d 5d 3f 1a 70 00 3e
       0.2717482 0.39296538 0.8644684 0.12542763
000130 88 27 34 3f 48 c5 1d 3f 94 da 06 3f 44 df e6 3e
       0.7037282 0.6162915 0.52677274 0.45092213
000140 81 9b 0b 3f 58 70 18 3f ae 4c 9e be 1c 28 b4 3e
       0.54534155 0.5954642 -0.30917877 0.3518685
000150 e0 d2 0e 3f a7 aa 98 3f 43 ce 86 3e d0 55 67 bd
       0.5579052 1.1927079 0.2632924 -0.05647832
000160 42 cc 1d 3f 18 0c 24 3f 44 cf 18 bf cb 8d 18 3f
       0.616398 0.64080954 -0.5969126 0.5959136
000170 51 4e 9a 3f 2e 33 0d 3f 2f 33 9f 3f d4 2d a7 3d
       1.205515 0.5515622 1.2437495 0.08163038
000180 af 23 6e 3f 8d f2 8e 3f da f7 e5 be 72 d5 80 3f
       0.930232 1.1167771 -0.44915658 1.0065138
000190 0b 43 51 3f f8 02 8d be 12 88 a3 3d ce 02 9e 3f
       0.81742924 -0.27541327 0.07984938 1.2344606
0001a0 4b 68 09 3f fd 98 82 3f 92 77 29 bf e4 ba 49 3f
       0.53674763 1.0202938 -0.66198075 0.788008
0001b0 e0 a0 82 3f 98 58 99 3f 4f 00 85 3f 86 42 4a 3f
       1.0205345 1.1980162 1.0390719 0.79007757
0001c0 c4 7a c6 3e db b0 4a 3f 58 13 c6 be 71 17 61 3f
       0.38765538 0.7917611 -0.38686633 0.87926394
0001d0 d8 59 8e be 42 b3 91 3f 58 0c 84 3f 80 92 20 3e
       -0.2780292 1.138283 1.0316267 0.15680885
0001e0 6e 68 93 3e 33 53 78 3f cc 41 1a be 61 87 8f be
       0.2879061 0.9700195 -0.15064162 -0.28032973
0001f0 68 25 39 3e 96 f3 07 3e 15 6c 88 be 30 10 f7 bd
       0.18080676 0.13276514 -0.2664496 -0.120636344

weight f4 [128, 128]
000000 0a c3 07 3b 2c 80 4c bd 7c e2 08 3d 70 46 aa bc
       0.0020715618 -0.04992692 0.033419117 -0.02078554
000010 11 92 a4 3a 81 18 0c 3d df ea ac bd 86 22 d2 bc
       0.0012555738 0.034203056 -0.084432356 -0.025651228
000020 66 a7 9a bd 00 68 89 bb 71 56 05 3d 57 a6 68 3c
       -0.0755146 -0.004193306 0.03255314 0.014199815
000030 db d7 8f 3d 07 d4 20 bd fa 6c 23 bd ba 86 57 3d
       0.07023593 -0.039264705 -0.03989885 0.05261872
000040 f8 92 48 3c 8b 1d 17 3d 64 02 17 bd 99 be 6f bd
       0.012242071 0.03689341 -0.036867514 -0.058531377
000050 85 8c 77 3d da 8e 9d 3d 9e 58 98 bd 53 59 07 bd
       0.060436744 0.076932624 -0.074387774 -0.03304417
000060 3e 93 80 bd 2a 8a 54 3d be 15 43 3d 12 43 e7 3c
       -0.06278084 0.051889576 0.047628157 0.028230224
000070 97 6b 8b 3d cc d9 be bd 0a 49 8c bd 0c e7 85 3d
       0.068076305 -0.09318885 -0.068498686 0.06538209
000080 6b fb 62 3d 25 0a b7 bd 35 84 cd bc 33 ba 84 3d
       0.055415552 -0.08937482 -0.025087455 0.06480827
000090 91 05 4e bd de 4e 6a 3d 20 30 62 bc c7 b5 7a bc
       -0.050298277 0.05720412 -0.013805419 -0.015302128
0000a0 f3 4b 8e 3d eb 8b 40 3d 26 4e 7e bd 08 37 83 bd
       0.0694808 0.047008436 -0.062086247 -0.06406981
0000b0 6e 12 73 3d 5f 46 9d 3d eb 19 9a bc 54 8c 65 bd
       0.059343748 0.07679438 -0.018811187 -0.05604203
0000c0 bd fc 8f 3d 80 33 b2 bd 06 bf 9c bc bc 0d 7b 3c
       0.07030628 -0.08701229 -0.019134056 0.015323099
0000d0 54 ad d2 bc 7e 75 13 bd e0 a2 5b 3b 18 1b 91 bd
       -0.025717415 -0.03600072 0.003351383 -0.07085246
0000e0 07 8e 97 3d 80 d0 31 3b e9 27 9b 3d 2d f6 a2 3d
       0.074001364 0.0027132332 0.07575972 0.079571106
0000f0 76 1e 99 bc 3b 69 26 bd 12 03 78 bd bc 11 a8 bd
       -0.018691283 -0.0406277 -0.060549803 -0.082065076
000100 74 ac 44 bd 49 f4 7a 3d 82 be 93 bd 0f e6 1a bd
       -0.048016027 0.061268125 -0.07214071 -0.037817057
000110 66 56 03 bd 69 3e a7 bd 11 12 8f bc 20 98 7e 3b
       -0.032064818 -0.08166201 -0.01746467 0.0038847998
000120 91 d5 6a bd a6 1d 50 bd cb 18 19 bd ad d1 2b bc
       -0.05733258 -0.050809525 -0.03737716 -0.010487002
000130 3d cf e2 3c fa a1 4d bd 2f 4d f1 3c cb a8 6c bd
       0.02768671 -0.0502033 0.02945575 -0.05777816
000140 7c 3e 55 3d dc ad 71 ba b0 57 aa bc e6 39 ac bd
       0.052061543 -0.00092193275 -0.020793766 -0.08409481
000150 d7 4f 63 3d 4d ca 7a bd 21 ac 8d 3d cc e6 12 3d
       0.055496063 -0.061228085 0.069175966 0.035864636
000160 91 f5 5e 3d 1b cd 52 bd f4 09 e0 3c 70 92 8d bd
       0.05443341 -0.051465135 0.027348496 -0.06912696
000170 5d 9f 9d bd a7 81 0c 3b d0 70 08 3d af b0 9f bd
       -0.07696412 0.0021439584 0.03331071 -0.077973716
000180 0e 56 8f bd 1a 0b 94 bd fb f0 4a bd d9 b7 96 bc
       -0.069988355 -0.0722868 -0.049546223 -0.018398212
000190 d0 54 da 3c b0 be ad 3b 43 7b 38 bd b2 fb ba bd
       0.02665177 0.0053022727 -0.045039427 -0.09130038
0001a0 da 68 9f 3d ba 05 37 3d 78 29 5d bc 2c 4a d3 bb
       0.07783671 0.044683196 -0.013498656 -0.006448051
0001b0 99 b8 1d bd 84 0f 5d bd 72 fb 9d 3c f2 86 87 3c
       -0.038506124 -0.053969875 0.019284938 0.01654384
0001c0 45 cb 89 3d 58 21 e1 bb b0 22 16 3c 9e 89 56 3d
       0.06728224 -0.00687043 0.009163544 0.052377336
0001d0 a2 49 51 3d 84 49 55 bd 09 e7 6b bc 49 c4 05 bd
       0.051095612 -0.052072063 -0.014398345 -0.032657895
0001e0 3b 32 93 3b 2a f6 d8 bc f6 5d b2 bd 5f 4e 69 bd
       0.004492072 -0.026484568 -0.08709328 -0.056959506
0001f0 b5 a7 93 bd dc 9b 9d bd c8 73 8f 3c 47 3a 7b bd
       -0.07209722 -0.076957434 0.017511263 -0.061334874
000200 e4 17 56 3d 7e 86 90 3c 90 35 88 bc d0 55 42 bd
       0.052268878 0.017642256 -0.016627103 -0.04744512
000210 36 3a 89 3c 65 20 32 bc a8 95 2c 3d 44 d3 c0 bd
       0.01675139 -0.010871981 0.04213491 -0.09415296
000220 d0 6d 96 bd ed 4a 4f bd c1 f7 a2 3d 5f 5d 82 3d
       -0.07345164 -0.050608564 0.079574116 0.063654654
000230 b7 87 97 3d 5d a6 96 3d 37 d7 8e bd f0 1d 8e bd
       0.073989324 0.0735595 -0.06974643 -0.06939304
000240 3a c6 79 3d bc 04 21 3c cd 97 e5 bb 07 ff 90 bd
       0.06098006 0.009827789 -0.0070066215 -0.070798926
000250 3f 88 8a 3d b3 e1 05 bd c4 fc 7d bd f4 94 34 3d
       0.06764268 -0.032685947 -0.062008634 0.044087365
000260 af f0 c3 bd ac 54 52 3d b3 be 8b 3d 28 9e 4f bd
       -0.09567391 0.05135028 0.06823482 -0.05068794
000270 74 6c 3d 3d 14 e0 4f 3a e8 10 1e bc 14 ba ce 3b
       0.046246007 0.00079298136 -0.009647585 0.0063088033
000280 3d 53 9a bd 9e 28 ce bc 80 5f 5b 3d a0 b4 82 3c
       -0.07535408 -0.025165852 0.053557873 0.01595527
000290 b8 36 70 3d 70 8f ef 3c 90 60 88 bc df 07 ba bd
       0.058645934 0.029243201 -0.016647607 -0.090835325
0002a0 b7 7a af bd ae a1 fb bc 58 1b 6e bd 3e 4e 1e bd
       -0.08568328 -0.030716743 -0.058131546 -0.038648836
0002b0 d0 a4 f3 bb 7c d7 6f bc 3d 21 ae bd de db 5f bd
       -0.0074354187 -0.014638778 -0.085024334 -0.05465304
0002c0 98 d0 01 3d ae f2 c0 3c 41 46 3b bd 5f dc 74 3d
       0.03169307 0.023553219 -0.045721296 0.059780475
0002d0 b6 4d ab bd 0d e5 49 bd 2e 43 60 bd a4 4b 7c bd
       -0.083644316 -0.049290705 -0.054751568 -0.061595574
0002e0 13 52 12 3d 22 3e 3b 3d ad 51 dc 3c e0 c9 98 bd
       0.035722803 0.04571355 0.026894415 -0.074603796
0002f0 39 f8 24 bd 37 a4 9b bc b0 c7 22 3c 7d b0 4d bc
       -0.040275786 -0.018999202 0.0099353045 -0.012554285
000300 a0 e6 39 3d 84 34 12 bb 79 2d 86 bc 18 17 14 3d
       0.045385957 -0.0022309134 -0.016379105 0.036154836
000310 b3 c3 b1 bd d4 63 e4 bc 70 51 56 3d 05 14 5d bd
       -0.08679905 -0.027879633 0.05232376 -0.05397417
000320 74 64 b4 bd 6a b2 3d bd 93 25 88 bc cc 89 6d 3d
       -0.088082224 -0.046312727 -0.01661948 0.05799274
000330 90 cf 29 3d a4 6c 81 3c 69 a0 35 bd 64 a8 4b 3d
       0.041457713 0.015798874 -0.044342432 0.049721137
000340 2a 04 37 bd 6e 6f b2 3c 36 83 a2 bd 43 3a ce bc
       -0.044681706 0.02178165 -0.07935183 -0.025174266
000350 a0 3c 73 bd ff 76 87 3d 1b ec 95 bc 2a ca 41 3d
       -0.05938399 0.066144936 -0.01830106 0.04731194
000360 8f b8 d9 bc 92 94 a9 3c 80 33 3e ba 8e aa 30 bd
       -0.026577262 0.020700727 -0.0007255599 -0.043131404
000370 c6 bf f2 bc 4d e1 b1 bd e0 a0 03 bd 0a c9 b2 bd
       -0.02963246 -0.08685551 -0.032135844 -0.087297514
000380 3d cd 86 bd a9 94 e2 3c 50 e0 f7 3c 5c 74 92 3c
       -0.06582115 0.027658777 0.030258328 0.01787775
000390 fc 8b fe 3c 03 0e 98 bd e2 50 94 3c 8b fe 84 3d
       0.03107261 -0.074245475 0.018104974 0.06493863
0003a0 84 9e 0e 3d 7a 73 bc bd 90 37 01 3d de 07 8e bd
       0.03481914 -0.09201713 0.03154713 -0.06935094
0003b0 77 b1 e0 bc 81 f1 b4 bd db e8 aa 3c 10 f8 2a 3d
       -0.027428372 -0.08835126 0.020862987 0.041740477
0003c0 55 a5 e8 3c 3d fe 7f 3d 42 ff 6b bd 00 60 af ba
       0.028399149 0.06249832 -0.05761648 -0.0013380051
0003d0 a2 be 50 3d 2e 6c a0 bb 34 cc 9b bd 21 cc 0f bd
       0.05096305 -0.0048957085 -0.07607308 -0.035106782
0003e0 04 fe 1b 3d 54 09 9e bd 46 81 34 3d 21 c1 86 3d
       0.038084045 -0.07716623 0.044068597 0.06579805
0003f0 28 46 a1 3c c0 7d 26 3d ef 19 2c bd d8 83 56 bc
       0.019686773 0.04064727 -0.04201692 -0.013092957

bias f4 [128]
000000 a7 f0 40 3d 9c 2c 9b bd 97 66 cd 3e 5f 6c 88 3d
       0.047104504 -0.07576868 0.40117332 0.06661295
000010 49 45 35 3d 7d 35 a1 3d a6 02 73 bd 9a 0a b9 3e
       0.04425553 0.0787153 -0.059328698 0.361409
000020 48 97 c4 3e 00 9a 4d 39 a4 a0 8c 3d 60 35 bd 3b
       0.38396668 0.00019607693 0.06866577 0.005774185
000030 66 3c 40 3d 7f 7d 4b 3f 5c 9d a9 3e 24 2f 92 3e
       0.0469326 0.79488367 0.33127868 0.2855159
000040 01 a1 c4 3e f8 3f c5 3e 22 ae 9f 3e b1 21 2b 3c
       0.38404086 0.38525367 0.3118754 0.010445044
000050 82 5e 99 bc 18 3d 6a bc 2c 28 c2 3e 9e 29 c4 3e
       -0.018721823 -0.014296792 0.37921274 0.38313
000060 6b 08 d1 3e 53 eb 81 bd ee 3d 62 bd f9 6e 5a 3d
       0.40826735 -0.06343713 -0.055234842 0.053328488
000070 9a 66 4c bd eb 23 de 3e c6 8e 93 3e a4 eb d4 3e
       -0.049902536 0.43386778 0.28819865 0.4158603
000080 02 8e 9f bc 86 80 50 3d fc f1 b9 bc 12 c7 c7 bb
       -0.019476894 0.05090382 -0.022698395 -0.006096729
000090 dd de cf 3e df f0 ee 3e f2 a8 91 3d fc ab 22 3f
       0.4059972 0.46668145 0.07112302 0.6354368
0000a0 74 9b 67 bd 21 19 c3 3e d1 2d ba 3e 8d b4 b3 3e
       -0.056544736 0.3810511 0.3636308 0.35098687
0000b0 ba 66 92 3f 79 d4 70 3d d7 9d bc 3e 15 d9 7a bc
       1.14376 0.05879638 0.36839172 -0.015310545
0000c0 0f 1b 52 bd 2d 19 b0 3c 3a ec c5 3e 19 8e c0 3e
       -0.051295336 0.02149638 0.3865679 0.37608412
0000d0 12 b7 4c 3d cf c2 e6 3d b3 b2 48 bd fd 44 15 3d
       0.049979277 0.112676255 -0.048998546 0.036442745
0000e0 09 31 9b 3d c3 d6 ba 3e 55 a7 90 bd 43 18 cf 3e
       0.07577712 0.36491975 -0.07063166 0.40448198
0000f0 53 28 81 3d a6 83 b5 3e 3e bb 71 3e de 00 ea bc
       0.06306519 0.35452002 0.23606583 -0.028564867
000100 f7 55 70 3e 05 8a 58 bd ed ad 8f bd c8 7d be 3e
       0.23470293 -0.052866 -0.070155956 0.37205338
000110 d0 45 71 bc ae 54 5d 3d b4 e9 00 bd 02 d1 45 3d
       -0.014726117 0.054035835 -0.031472877 0.04829503
000120 3c 33 6d 3d c4 f1 95 3e 88 eb 26 bd 2d 05 d7 3f
       0.05791019 0.29286015 -0.040751964 1.6798455
000130 46 3a b6 3e 36 3b 41 3d df 67 b9 3e 2b 79 a1 3e
       0.35591334 0.04717561 0.3621206 0.31537756
000140 92 cc 42 3d d5 0a 89 3e aa 88 ad bc bf 6e 8b bd
       0.047558375 0.26766077 -0.02118333 -0.068082325
000150 3e bf cb 3e 6d 3b c0 3e 6e 07 d8 3e f5 3e ac 3e
       0.39794344 0.37545338 0.42193168 0.33641782
000160 54 54 e7 bc b8 b8 a6 3e c5 07 f1 3e 54 d4 c1 3e
       -0.028238453 0.32562804 0.4707624 0.37857306
000170 10 54 46 bc 02 71 8c bc 87 6e c1 bd bd e6 9c 3e
       -0.012105003 -0.01714373 -0.094449095 0.3064479
000180 e0 f3 b7 bb 5a bc b2 3e 31 58 87 3d 00 87 b4 3e
       -0.005613789 0.34909326 0.06608618 0.35259247
000190 81 1b a0 bd 0a fb c5 3f ff f0 6d 3b f4 ea de 3e
       -0.07817746 1.5467236 0.0036306975 0.4353863
0001a0 f0 d6 de 3e 0a 61 75 bc b2 85 83 3d c4 43 45 bd
       0.4352336 -0.014976749 0.06421985 -0.04816033
0001b0 70 ed 8e 3e fc fc 63 3d ac ee 9c 3b 2a 8a a8 3e
       0.27915525 0.055661187 0.004789194 0.3291791
0001c0 95 2f af 3d b7 90 8d 3d 3b 6c 8d bd 00 22 c7 3e
       0.085539974 0.06912368 -0.06905409 0.38893127
0001d0 cf 73 a4 3e c6 4a 04 3c 77 34 d3 3e 1f 3b 97 3e
       0.32119605 0.008074468 0.41250965 0.29537293
0001e0 11 fc 4b bd 1f 5d ad 3e 2c 42 99 3e 5b 9a c6 3e
       -0.049800936 0.33860108 0.29933298 0.3878964
0001f0 95 60 d9 bc 66 17 b1 3e 79 41 ab 3e 5b ae b2 bd
       -0.026535312 0.34588164 0.3344839 -0.08724662

weight f4 [1, 128]
000000 f2 fd 84 3d e8 e5 4b 3d e8 e9 19 bf 7f ae 9b 3d
       0.06493749 0.049779803 -0.6012254 0.07601642
000010 03 91 35 3d 9a 03 10 39 d8 b2 7e bc 90 36 22 bf
       0.044327747 0.00013734252 -0.015545569 -0.63364506
000020 05 dd 16 bf e5 de 02 bd 4d 20 11 3d 60 9d 81 3d
       -0.58931 -0.03195085 0.035431195 0.06328845
000030 c0 c1 19 bd 99 39 59 c0 bd 0a 15 bf 32 91 24 bf
       -0.03753829 -3.3941405 -0.5821951 -0.6428405
000040 00 8e 1f bf 01 3b 27 bf 99 0f 19 bf 88 11 db 3c
       -0.6232605 -0.6532441 -0.59789425 0.026741758
000050 8f 82 23 3d cf 55 9c 3d 8d 1c 2c bf 72 6b 1a bf
       0.039919432 0.07633554 -0.67231065 -0.603202
000060 76 6b 0e bf bb cb 8f 3d cc 64 70 3d a7 3b 89 3c
       -0.5563272 0.070212804 0.058689877 0.016752077
000070 b8 2f 28 b9 6f f9 15 bf 09 32 1b bf 13 20 1c bf
       -0.00016039505 -0.5858373 -0.6062322 -0.6098644
000080 c1 f1 f7 3c e5 60 20 bd 90 84 9e bd 94 57 85 3d
       0.030266644 -0.039154906 -0.07740128 0.06510845
000090 2e d1 19 bf 23 73 12 bf a0 cc f7 3c bf 87 69 3f
       -0.6008481 -0.57206935 0.03024894 0.9122276
0000a0 90 aa d0 3c 80 48 23 bf 06 11 1e bf ef 7d 11 bf
       0.025471956 -0.637825 -0.61744726 -0.56832784
0000b0 1a 41 b5 3f 7d e6 62 3b 86 61 23 bf 2f e6 1f 3d
       1.4160492 0.0034622245 -0.63820684 0.03903788
0000c0 68 01 8c 3d b1 96 6c 3c 55 bf 14 bf 5d 41 16 bf
       0.06836206 0.0144402245 -0.5810445 -0.58693486
0000d0 2c 7b 9c 3c 7b d4 7c be 7d 4a af bd c4 c2 2d 3d
       0.019101702 -0.2469043 -0.085591294 0.04242207
0000e0 29 a0 83 3d 2d 0d 19 bf 1c ef a3 3d 3d e8 16 bf
       0.064270325 -0.5978573 0.08004591 -0.5894812
0000f0 a2 79 9b 3c 77 34 13 bf ad 0e 28 bf d5 b8 19 bd
       0.018978897 -0.5750193 -0.65647393 -0.037529785
000100 c1 db 2a bf 53 81 03 3c e8 c7 fd 3c 60 c2 0f bf
       -0.6674157 0.008026439 0.030979112 -0.5615597
000110 47 2f 35 bd a4 e9 53 bd 97 46 79 3c 04 a7 d2 bc
       -0.04423454 -0.05173649 0.015214584 -0.025714405
000120 ee 0e 82 3d 17 fa 18 bf ed fd 10 3d 71 fc de 3f
       0.06350504 -0.59756607 0.035398412 1.7420789
000130 b9 d0 1c bf b9 20 86 3d 7b a9 23 bf e0 ff 1a bf
       -0.61255985 0.0654921 -0.6393048 -0.60546684
000140 41 55 06 ba 80 2c 27 bf 7a 9d 31 3c 41 fa 18 3d
       -0.0005124398 -0.65302277 0.010840768 0.037348036
000150 76 73 23 bf d6 1e 25 bf 58 64 12 bf 45 d3 24 bf
       -0.63848054 -0.64500177 -0.5718436 -0.6438487
000160 7e 8a 02 3d cc c4 1d bf 8e 03 11 bf ae 5d 1d bf
       0.031870358 -0.61628413 -0.5664605 -0.6147107
000170 36 c1 dc bc b3 fe a3 3c 34 9d 80 3d 0a 20 21 bf
       -0.026947599 0.020018911 0.06279984 -0.6293951
000180 48 70 7e 3c 58 ec 22 bf 5e 28 21 bd 3e 0d 22 bf
       0.0155297 -0.6364188 -0.039345138 -0.63301456
000190 d8 60 1e 3c 08 1d e1 3f 89 ec 26 3d 04 68 18 bf
       0.009666644 1.7586985 0.04075292 -0.59533715
0001a0 12 8d 11 bf 42 2a ee bc 7f 23 95 3d 58 cc c1 bc
       -0.5685588 -0.029072884 0.07282161 -0.023657009
0001b0 9a e5 12 bf 77 a7 53 3c a3 bc 5b 3d f0 68 13 bf
       -0.57381594 0.012918345 0.053646695 -0.57581997
0001c0 12 e5 7a bd 0d d5 da 3b 6d 8f 9e bd e5 49 0e bf
       -0.061253615 0.0066782297 -0.077422 -0.55581504
0001d0 d9 19 1b bf c1 c7 94 3d 20 49 0f bf 7a 23 20 bf
       -0.60586315 0.072646625 -0.55970955 -0.6255413
0001e0 98 71 0f 3d a6 f0 1c bf aa ac 21 bf 2e 56 13 bf
       0.03502044 -0.613047 -0.6315409 -0.57553375
0001f0 58 a8 4e 3d 0e e9 13 bf 60 9e 14 bf e8 d3 02 3c
       0.050453514 -0.5777749 -0.5805416 0.007985093
