models/orientation3D_v_170.pth (torch, 3696 bytes, 3 tensors)

weight f4 [16, 4]
-6.920056 -0.16466865 -0.23876297 0.28495026 -6.8405013 0.54622203 -0.60142 -0.28157493
-5.6717486 0.058093984 1.7657311 -0.2642493 -6.019538 0.059529714 -1.1979612 0.2925604
-6.870568 -0.49939767 0.16532733 0.29246992 -6.520408 0.5350214 -0.09704932 0.19158563
-1.5786124 0.2340584 0.13959073 -3.769243 -6.3108797 0.043720953 -0.41267198 0.41974586
-11.3489065 0.40449637 -0.99961317 0.17157811 -6.348228 0.3147074 -0.28137362 0.15274331
-6.739803 0.06243959 -0.10193471 0.31925502 -6.3609223 -0.03561262 -0.7816176 0.4876942
-5.802643 0.5184303 -0.43315768 0.72364116 -6.0033565 0.015197561 -0.13051707 -0.3339941
-6.970347 -0.22229362 0.09815445 0.21097821 -6.4237943 -0.26035374 -1.3629298 0.23175494
00000000: 1971 ddc0 e69e 28be 487e 74be 00e5 913e
00000010: 63e5 dac0 35d5 0b3f a9f6 19bf 972a 90be
00000020: f77e b5c0 f5f3 6d3d 7a03 e23f af4b 87be
00000030: 0ea0 c0c0 6ed5 733d cb56 99bf 7aca 953e
00000040: b1db dbc0 0db1 ffbe 914b 293e 9ebe 953e
00000050: 2fa7 d0c0 2af7 083f cbc1 c6bd 062f 443e
00000060: f90f cabf 01ad 6f3e dff0 0e3e 473b 71c0
00000070: baf2 c9c0 be14 333d be49 d3be eee8 d63e
00000080: 1f95 35c1 261a cf3e a6e6 7fbf 2cb2 2f3e
00000090: af24 cbc0 5421 a13e 3410 90be be68 1c3e
000000a0: 77ac d7c0 a8c0 7f3d 25c3 d0bd 6575 a33e
000000b0: ad8c cbc0 8ade 11bd 1718 48bf 0eb3 f93e
000000c0: 40af b9c0 d9b7 043f d8c6 ddbe 8c40 393f
000000d0: 7f1b c0c0 31ff 783c 44a6 05be 4601 abbe
000000e0: 150d dfc0 f0a0 63be 3305 c93d ac0a 583e
000000f0: b98f cdc0 164d 85be 7c74 aebf 2b51 6d3e

bias f4 [16]
6.9193583 6.381452 6.153423 6.162059 7.009324 6.744623 0.5766184 6.325379
3.9798741 6.45198 6.671266 6.507759 5.988387 5.784698 6.9595103 6.493946
00000000: 626b dd40 db34 cc40 d7e8 c440 962f c540
00000010: 624c e040 f4d3 d740 439d 133f 8169 ca40
00000020: 42b6 7e40 9f76 ce40 037b d540 903f d040
00000030: dea0 bf40 3f1c b940 4fb4 de40 68ce cf40

weight f4 [1, 16]
-2.481036 -1.032653 -3.941963 -1.3677526 -2.3192253 -1.8628111 -2.7906418 -1.433481
-0.9523109 -1.8628966 -1.290418 -1.6077478 -0.6670752 -4.5985947 -2.2388692 -1.1154552
00000000: 4bc9 1ec0 f92d 84bf 1f49 7cc0 8412 afbf
00000010: 306e 14c0 9870 eebf e099 32c0 4e7c b7bf
00000020: a6ca 73bf 6573 eebf 6b2c a5bf aeca cdbf
00000030: 71c5 2abf b027 93c0 a249 0fc0 3cc7 8ebf
