models/orientation3D_pi_170_new.pth (torch, 76146 bytes, 6 tensors)

weight f4 [128, 4]
0	0x3b0593cc	0.0020382283
1	0x3ef5dc07	0.4801943
2	0xbf3fa71a	-0.7486435
3	0x3f0d282a	0.5513941
4	0xbe9e976a	-0.30974895
5	0xbdfb6de1	-0.12276817
6	0x3f0a17f8	0.53942823
7	0xbf25a959	-0.6471153
8	0xbed4d658	-0.4156978
9	0xbf46aa0d	-0.77603227
10	0x3ee3f61c	0.44523704
11	0x3e84f0fe	0.25965112
12	0xbf00094f	-0.50014204
13	0xbdaf8ea2	-0.08572127
14	0x3ed5ced6	0.41759366
15	0xbf612464	-0.8794615
16	0x3eb79f95	0.3586394
17	0x3e922be6	0.28549117
18	0x3f9065a5	1.128102
19	0x3eed0f9c	0.46300972
20	0xbea4b12d	-0.32166424
21	0x3ead6430	0.338655
22	0x3f0b669d	0.5445345
23	0x3f2854e6	0.65754545
24	0xbd6557b0	-0.05599183
25	0xbe3f09d8	-0.18656099
26	0xbd62c630	-0.055364788
27	0xbc99c560	-0.018770874
28	0x3c8e2ced	0.017355407
29	0xbf1b130e	-0.6057595
30	0x3f478f67	0.7795319
31	0xbcaab305	-0.020837316
32	0xbe43df29	-0.19128098
33	0x3efcdaa7	0.49385568
34	0xbf1b129e	-0.6057528
35	0x3ec143f2	0.3774715
36	0xbf55cd00	-0.8351593
37	0x3e9a39ff	0.30122373
38	0x3ef959fe	0.4870147
39	0xbe8f8dee	-0.2803797
40	0x3a564905	0.0008174333
41	0xbf678848	-0.90442324
42	0xbf8105a9	-1.0079852
43	0xbf7cd6e7	-0.98765415
44	0xbf52124f	-0.82059187
45	0x3e6fda2b	0.23423068
46	0x3f43b968	0.7645478
47	0xbeaadb15	-0.3337027
48	0xbed6b5c4	-0.4193555
49	0xbddc7078	-0.10763639
50	0x3e997b4c	0.2997688
51	0xbed8dc2a	-0.42355472
52	0xbd6b3a04	-0.057428375
53	0xbe1c505c	-0.1526503
54	0xbf297da2	-0.66207325
55	0xbf99b6aa	-1.200887
56	0xbdf8df41	-0.12151957
57	0xbeed8fee	-0.46398872
58	0xbf0ee394	-0.55816007
59	0xbf994622	-1.1974528
60	0xbe0aca18	-0.13553655
61	0x3d0d2b8a	0.03446535
62	0xbf25b0e6	-0.6472305
63	0xbe90f342	-0.2831059
64	0xbd0f9d6d	-0.035062242
65	0xbc613742	-0.013746085
66	0xbf29dcad	-0.6635235
67	0xbe02d0a4	-0.12774903
68	0xbeb66c9b	-0.35629734
69	0x3ee12477	0.43973133
70	0xbd87e693	-0.066357754
71	0xbed90462	-0.42386156
72	0xbe966772	-0.29375798
73	0xbeab9149	-0.3350928
74	0x3edc82f3	0.43068656
75	0x3e8490a5	0.25891605
76	0x3e23508b	0.15948693
77	0x3eb40336	0.351587
78	0xbf06f716	-0.52720773
79	0x3cbcd336	0.023049932
80	0xbeb3dcbd	-0.35129347
81	0xbe4de113	-0.2010539
82	0xbe2fc72d	-0.17165823
83	0x3e5b4e55	0.214166
84	0xbe8afa78	-0.27144217
85	0x3f31c691	0.69443613
86	0xbf10a6a1	-0.56504256
87	0x3e42eddb	0.19036047
88	0xbe2515d5	-0.1612161
89	0xbe97e4a8	-0.29666638
90	0x3f12ff23	0.5742056
91	0x3e81bea5	0.25340763
92	0xbe87698b	-0.2644771
93	0xbe9833db	-0.29727063
94	0xbea7f974	-0.32807505
95	0x3e5500dd	0.2080111
96	0x3e69c58e	0.22829267
97	0x3ee6a9c8	0.45051408
98	0xbe4a2037	-0.19738851
99	0xbefc78a4	-0.49310791
100	0x3e63078f	0.22170852
101	0x3e9d828e	0.30763668
102	0xbef3a660	-0.47587872
103	0x3e38bd09	0.18040861
104	0xbd1afd10	-0.037838995
105	0xbe815918	-0.25263286
106	0xbd6abc90	-0.057308733
107	0x3e622694	0.22085029
108	0x3d904a55	0.07045428
109	0x3ef5373e	0.4789371
110	0x3f365bef	0.7123403
111	0xbf0a76f9	-0.5408779
112	0xbe911435	-0.2833573
113	0x3ee74b29	0.4517453
114	0x3f0c132d	0.5471676
115	0x3e2f4be7	0.17118798
116	0x3e216f45	0.15765102
117	0xbf168288	-0.58792925
118	0x3e96eee5	0.29479137
119	0x3f248099	0.64258724
120	0xbe79774f	-0.24361919
121	0xbf1e11f0	-0.6174612
122	0xbf4a7102	-0.79078686
123	0xbf249486	-0.6428913
124	0x3e1432eb	0.14472549
125	0x3d6e24ee	0.058140688
126	0x3dc732d9	0.09726495
127	0x3e99a2f1	0.30007127
128	0xbe3600fc	-0.17773813
129	0xbec4e4e8	-0.38455892
130	0x3e7d1f18	0.24718893
131	0xbefc1e3e	-0.49241823
132	0x3e5a972f	0.21346734
133	0xbd259992	-0.04042966
134	0xbe9ddb59	-0.3083141
135	0x3f1131ec	0.567168
136	0x3e97958e	0.2960629
137	0xbe046ee8	-0.12932932
138	0xbe31ced5	-0.17364056
139	0xc01fc259	-2.496237
140	0xbbb65970	-0.005564861
141	0xbf228e4e	-0.6349839
142	0x3f9008ea	1.125272
143	0xbd8fe2a8	-0.07025653
144	0x3ea2ac79	0.3177221
145	0xc030689f	-2.7563856
146	0xbf1599e5	-0.5843795
147	0x3d9a619b	0.07538148
148	0xbeac436d	-0.33645192
149	0x3ed70575	0.4199635
150	0x3d9aea02	0.07564165
151	0xbe8dd21a	-0.27699357
152	0xbe07db86	-0.13267335
153	0xbf31118c	-0.691674
154	0xbf5f2306	-0.87162817
155	0x3cfb19bc	0.03065192
156	0xbd5ce5e0	-0.053930163
157	0xbe3b3190	-0.18280625
158	0x3ccaeac0	0.02477014
159	0xbee95a1a	-0.45576555
160	0xbc8317c0	-0.016002536
161	0xbe9b90da	-0.3038395
162	0x3e97f7bc	0.29681194
163	0xbe86b26e	-0.26308006
164	0x3d203c79	0.03912017
165	0x3f350853	0.70715827
166	0x3e087ca4	0.13328797
167	0xbf223d39	-0.6337467
168	0xbedc277d	-0.42998877
169	0xbee73a75	-0.45161787
170	0x3f905c43	1.1278156
171	0xbe2d0175	-0.16895087
172	0x3d81c9af	0.06337296
173	0xbd0c1a8c	-0.034205005
174	0xbf49df4c	-0.7885635
175	0xbe319b6c	-0.17344445
176	0x3eb0d609	0.34538296
177	0x3e8357d3	0.25652942
178	0x3f2ac980	0.66713715
179	0xbec0e259	-0.3767269
180	0x3e4195c8	0.18904793
181	0x3e8c48c5	0.2739927
182	0xbe11ea8d	-0.1424963
183	0xbd99818d	-0.07495413
184	0xbc87a68c	-0.016558908
185	0xbfaeecab	-1.3665975
186	0x3f202804	0.6256106
187	0xc0114989	-2.2701132
188	0xbcfc3520	-0.03078705
189	0x3e59708c	0.2123434
190	0xbdbcc5a0	-0.092173815
191	0xbed90998	-0.42390132
192	0xbdd88485	-0.10572151
193	0xbefee9a0	-0.49787617
194	0xbe77e995	-0.24210198
195	0x3ee74c59	0.45175436
196	0x3e80557b	0.25065216
197	0xbd95e36d	-0.07318769
198	0xbeaa4a0c	-0.33259618
199	0xbf641d72	-0.8910743
200	0xbf2e3e2b	-0.6806361
201	0x3ea5cca3	0.32382688
202	0x3dc84313	0.097784184
203	0x3e1510ce	0.14557192
204	0xbe3f4a95	-0.18680795
205	0xbe82de27	-0.25560114
206	0xbf4cf092	-0.8005458
207	0xbe99ccd4	-0.30039084
208	0xbeaf17d3	-0.34197864
209	0xbe99f141	-0.30066875
210	0x3f08bfe8	0.53417826
211	0x3edccf01	0.4312668
212	0x3e85f68d	0.26164666
213	0xbe64cc5c	-0.22343582
214	0x3f1f3a71	0.6219855
215	0xbf61b9a9	-0.8817392
216	0xbe99a326	-0.30007285
217	0xbe2d871c	-0.16946071
218	0x3e0d658c	0.13808268
219	0x3eac9af2	0.33711964
220	0x3bac2100	0.0052529573
221	0xbe3f332c	-0.18671864
222	0x3e1c75f4	0.1527937
223	0x3c3efb40	0.011656582
224	0xbdf1bd68	-0.118037045
225	0xbf17c2fd	-0.59281904
226	0xbec804e4	-0.3906623
227	0x3f119e95	0.568826
228	0xbe16dbb6	-0.1473225
229	0xbeb210c7	-0.34778425
230	0xbe1c2a43	-0.15250497
231	0xbff0bb75	-1.8807207
232	0xbdfd2108	-0.12359816
233	0xbed2e7b7	-0.4119241
234	0x3de91fb0	0.11382997
235	0x3f09e48e	0.5386437
236	0xbf1507f5	-0.58215266
237	0xbe683e08	-0.22679913
238	0x3f47e73d	0.78087217
239	0x3e48ed00	0.19621658
240	0xbe58d325	-0.21174295
241	0xbc4684c5	-0.012116616
242	0x3f0757bd	0.52868253
243	0xbdee2093	-0.11627307
244	0xbd163e90	-0.036680758
245	0x3f08c9c7	0.5343289
246	0xbf041b1a	-0.51603854
247	0x3f2e3b5a	0.68059313
248	0xbed243f2	-0.41067463
249	0xbd05a340	-0.03262639
250	0x3e870c52	0.26376587
251	0x3d45dc80	0.04830599
252	0xbf58395a	-0.8446251
253	0x3eb6e405	0.3572084
254	0x3df2bd91	0.11852563
255	0xbecba67c	-0.39775455

bias f4 [128]
0	0xbeb1b13d	-0.34705535
1	0x3eb28ffd	0.3487548
2	0x3ec47d64	0.38376915
3	0x3efaad14	0.48960173
4	0xbead3784	-0.33831418
5	0x3e466bd3	0.19377069
6	0xbe61c9b8	-0.22049606
7	0x3e53217d	0.20618244
8	0xbee1ece5	-0.4412605
9	0xbe16b0f1	-0.14715935
10	0x3dcb7133	0.099337004
11	0x3e144b44	0.14481837
12	0xbe87af58	-0.26500964
13	0x3d9f204d	0.07769833
14	0x3e0a4e8e	0.13506529
15	0x3bbda030	0.005786918
16	0x3d351628	0.044210583
17	0xbe60f668	-0.21968997
18	0x3d1b6950	0.03794223
19	0xbe154bee	-0.14579746
20	0x3e97eb01	0.2967148
21	0xbd0c81ac	-0.034303352
22	0xbd3a571b	-0.045493226
23	0x3d60d54b	0.054890912
24	0xbee4f70b	-0.4471973
25	0xbe60f8e3	-0.21969943
26	0xbeedee6a	-0.46470958
27	0xbd70599e	-0.058679216
28	0xbe810d0a	-0.2520526
29	0x3c085853	0.008321839
30	0x3e84c4df	0.2593145
31	0xbe632dd0	-0.22185445
32	0xbee234e6	-0.44180983
33	0xbe1f6c2f	-0.15568613
34	0xbe0205e5	-0.12697561
35	0x3d247b4f	0.04015666
36	0xbe7b54fc	-0.24544138
37	0xbe1f0bcc	-0.15531844
38	0x3e0c7406	0.13716134
39	0xbe633df0	-0.22191596
40	0xbe8dcc2c	-0.27694833
41	0x3d176b87	0.03696778
42	0xbcbb57dd	-0.022869045
43	0xbdc341a7	-0.095340066
44	0xbe0c551b	-0.1370434
45	0xbe3f6c94	-0.18693763
46	0x3bfe9d3f	0.00777021
47	0xbee6d802	-0.45086676
48	0x3e0a38e6	0.13498268
49	0xbd1628c2	-0.036659963
50	0x3d8c8544	0.06861356
51	0x3e17ec0a	0.14836136
52	0x3e7dcdf2	0.24785593
53	0x3d3154c4	0.04329373
54	0xbec62164	-0.3869735
55	0xbec9e7b4	-0.39434588
56	0x3ccc5d11	0.024946721
57	0x3e453ffa	0.19262686
58	0xbcdf0995	-0.027226249
59	0x3e9ba807	0.30401632
60	0x3e42a7a4	0.19009262
61	0xbe88b9b3	-0.26704177
62	0xbec55036	-0.3853776
63	0xbdb68f45	-0.08914045
64	0xbe836018	-0.2565925
65	0xbe0edbde	-0.1395106
66	0xbceecd85	-0.029150734
67	0x3c805d57	0.015669508
68	0x3ec8d977	0.39228413
69	0xbe1bd158	-0.15216577
70	0xbeb1da88	-0.3473704
71	0xbda0b7e6	-0.07847576
72	0x3ee40548	0.4453528
73	0xbeb196d4	-0.34685385
74	0x3e84c313	0.2593008
75	0xbe22ce30	-0.15898967
76	0xbe587325	-0.21137674
77	0x3e1c1850	0.1524365
78	0xbda6be3d	-0.08141754
79	0x3e854432	0.2602859
80	0x3e2c8247	0.16846572
81	0xbe953506	-0.29142016
82	0x3e93dc47	0.28878996
83	0xbc983e7b	-0.01858448
84	0x3d9a7d57	0.07543438
85	0xbea5f7a7	-0.32415506
86	0xbecbd992	-0.3981443
87	0x3e535bbb	0.20640461
88	0xbc9bf64d	-0.019038344
89	0xbd42561d	-0.047445405
90	0x3e468192	0.19385365
91	0x3e992876	0.29913682
92	0xbe71f409	-0.23628248
93	0xbeb12113	-0.34595546
94	0xbef4e0b0	-0.47827673
95	0xbeb51287	-0.35365698
96	0x3e4c7d73	0.1996973
97	0xbda7fdb3	-0.08202686
98	0xbec76433	-0.38943633
99	0xbeda608a	-0.42651778
100	0x3d885114	0.066560894
101	0x3e9840f9	0.2973707
102	0x3eab0503	0.3340226
103	0x3c5df69b	0.013547565
104	0xbe32dd90	-0.17467332
105	0xbda4ff7a	-0.08056541
106	0x3e4ba200	0.19886017
107	0xbd081626	-0.033224247
108	0x3e8b31d5	0.27186456
109	0x3d61fef2	0.055174775
110	0xbd73c6b0	-0.059515655
111	0xbe1f1d48	-0.15538514
112	0xbef39c20	-0.4758005
113	0x3dc50048	0.09619194
114	0x3e7cc1f2	0.2468336
115	0x3d862b3d	0.06551216
116	0x3e931436	0.28726357
117	0x3dcb61c9	0.099307604
118	0xbdd81ec2	-0.105527416
119	0xbdf9ebb1	-0.12203158
120	0xbcea885f	-0.02862948
121	0x3e640127	0.22266065
122	0x3dcbb19a	0.09945984
123	0xbe04785c	-0.12936538
124	0xbc49ab3d	-0.012308893
125	0x3e5c72f2	0.21528223
126	0xbefe55e4	-0.49674904
127	0x3ea21c08	0.3166201

weight f4 [128, 128]
0	0x3dac9b02	0.08428003
1	0xbccf9efa	-0.02534436
2	0xbeca5898	-0.39520717
3	0x3c4bfba5	0.012450133
4	0xbee3d937	-0.4450166
5	0xbdf97386	-0.121802375
6	0x3d4b5e5e	0.049650542
7	0xbd968453	-0.073494576
8	0x3e956888	0.29181314
9	0xbddfd68f	-0.10929596
10	0x3ec660b7	0.38745663
11	0x3c6cb999	0.014448547
12	0x3d910f25	0.07082967
13	0x3e33d044	0.17559916
14	0x3dfe6e24	0.124233514
15	0x3d827817	0.063705616
16	0xbc84cf85	-0.016212234
17	0xbe2f33d6	-0.17109618
18	0xbe379541	-0.1792803
19	0xbd4f8437	-0.0506632
20	0xbe3c637d	-0.18397327
21	0x3d9eabec	0.07747635
22	0xbd1a3abc	-0.03765367
23	0xbded8ba1	-0.11598898
24	0x3da90718	0.08253306
25	0x3d4e22db	0.05032621
26	0xbb922a70	-0.0044606254
27	0x3d8ba4e3	0.06818559
28	0xbcc3b9db	-0.023892334
29	0xbd3c8a7a	-0.0460305
30	0x3e0246dc	0.12722343
31	0xbd779fda	-0.06045518
32	0x3d9649dd	0.07338307
33	0xbbc99a90	-0.0061524585
34	0x3e6f7512	0.23384503
35	0xbf1e0fc3	-0.617428
36	0x3f3703df	0.7149028
37	0x3d9b255b	0.07575484
38	0xbe22179d	-0.1582932
39	0xbd3476ee	-0.044058733
40	0xbda18261	-0.07886196
41	0x3e8aa039	0.27075365
42	0xbd3f43c4	-0.046695486
43	0xbd44dfa0	-0.048064828
44	0x3c7b3723	0.01533297
45	0x3e0ea9fa	0.13932028
46	0x3e9ba2b0	0.30397558
47	0x3b59c560	0.0033229217
48	0xbe07aa7b	-0.13248627
49	0x3ddb0ce4	0.10695818
50	0x3dac214a	0.08404787
51	0xbe423773	-0.18966465
52	0xbdc5215e	-0.09625505
53	0x3e20bfab	0.15698116
54	0xbc421ea0	-0.011848122
55	0xbdb27bda	-0.08715029
56	0xbe858d78	-0.26084495
57	0x3ed8b659	0.4232662
58	0xbd1ee65e	-0.038793914
59	0xbdcd6442	-0.10028888
60	0xbcd89eb5	-0.026442865
61	0xbba743ea	-0.0051045315
62	0x3bdbc1c0	0.0067064464
63	0xbe223a8c	-0.15842646
64	0x3e94c586	0.29056948
65	0xbdc77491	-0.0973903
66	0xbd40ed6e	-0.04710143
67	0xbee8980f	-0.45428512
68	0xbdb289c1	-0.08717681
69	0x3d7aa652	0.06119377
70	0x3c213af0	0.009840712
71	0xbddd66f1	-0.1081065
72	0xbeb5736a	-0.35439616
73	0x3d861ab3	0.06548061
74	0x3cf58e63	0.029975122
75	0x3c5d66d7	0.013513288
76	0x3ae8b479	0.001775398
77	0xbe0dc1e3	-0.13843493
78	0x3dc212fb	0.094762765
79	0xbd715333	-0.058917236
80	0xbc962585	-0.018328438
81	0xbdeb1d0e	-0.11480151
82	0xbe081fad	-0.13293333
83	0xbd88182f	-0.06645238
84	0x3d151c82	0.03640414
85	0xbd39ed30	-0.045392215
86	0x3bf6fc10	0.0075373724
87	0xbdcb57d7	-0.099288635
88	0xbe90a49d	-0.2825059
89	0xbe71b953	-0.23605852
90	0xbc573b39	-0.013136678
91	0xbdd6a170	-0.104800105
92	0xbe5f9d17	-0.21837269
93	0x3c48c87e	0.012254832
94	0xbd5f981b	-0.05458842
95	0xbd8c68a0	-0.06855893
96	0xbe8a96a3	-0.27068052
97	0xbe838a37	-0.25691387
98	0x3ca57142	0.020195607
99	0xbd3a6f7c	-0.045516476
100	0x3d23fde5	0.040037055
101	0xbdff0c38	-0.124535024
102	0xbda1e1ed	-0.0790442
103	0x3d810434	0.0629963
104	0xbdd132ae	-0.102147445
105	0xbdf6c26c	-0.12048802
106	0xbead80a0	-0.33887196
107	0x3ed3867b	0.41313538
108	0x3dfb2dc3	0.12264588
109	0xbeab6c2c	-0.33480966
110	0xbdd6f386	-0.10495667
111	0xbd84a48b	-0.064766966
112	0xbcca6890	-0.024708062
113	0x3dc5304c	0.096283525
114	0xbd86b84e	-0.06578122
115	0xbe17cc28	-0.14823973
116	0xbea09663	-0.31364736
117	0xba5e3125	-0.0008475951
118	0x3d23819e	0.039918534
119	0x3de2b587	0.1106978
120	0xbd1cea4c	-0.03830938
121	0xbd232e65	-0.039839167
122	0x3a4d0799	0.00078212615
123	0xbb19e7cb	-0.0023484107
124	0x3e08775a	0.13326779
125	0x3d810231	0.06299246
126	0xbcdaf50a	-0.026728172
127	0xbeea69c6	-0.45783824
128	0x3d90d1a7	0.07071238
129	0xbe8913ad	-0.26772824
130	0xbe4c00ae	-0.19922134
131	0xbf0e07b9	-0.55480534
132	0xbefb3598	-0.49064326
133	0xbf27d322	-0.6555654
134	0x3d30466e	0.043035917
135	0x3daaca55	0.08339373
136	0x3e233a08	0.15940106
137	0xbd51afbd	-0.051192988
138	0x3f35b360	0.7097683
139	0x3e79db9f	0.24400185
140	0xbcad2d9c	-0.021139912
141	0x3e06f766	0.13180313
142	0x3e6b4f76	0.2297953
143	0xbe445090	-0.19171357
144	0xbdbcbfcb	-0.09216269
145	0xbdeb1e84	-0.1148043
146	0xbc3d01b4	-0.011536051
147	0xbde6d49c	-0.11271021
148	0xbe7110c1	-0.23541547
149	0x3de53d5d	0.11193345
150	0xbe7a4564	-0.24440533
151	0xbe6a2281	-0.22864725
152	0xbdc29dc3	-0.09502747
153	0xbe855058	-0.2603786
154	0x3d2cdf02	0.042204864
155	0xbf182274	-0.5942757
156	0x3c9c841b	0.019105962
157	0x3e1d3567	0.15352403
158	0x3eec77d2	0.46185166
159	0x3da40f4b	0.080107294
160	0xbd62041b	-0.055179697
161	0x3d8addd2	0.0678059
162	0x3dee0e93	0.116238736
163	0xbefc84ad	-0.49319974
164	0x3f507286	0.8142475
165	0x3d0b8963	0.03406657
166	0x3e69f23e	0.22846314
167	0x3d1bc76e	0.038031988
168	0xbcfdc8dc	-0.030979566
169	0xbebe99e8	-0.37226796
170	0xbed6498a	-0.4185298
171	0xbe181868	-0.1485306
172	0xbe062939	-0.13101663
173	0xbd858f10	-0.06521428
174	0xbe094e90	-0.13408875
175	0x3d8382e3	0.06421449
176	0xbda6398d	-0.08116446
177	0x3d64eccd	0.055889893
178	0x3c799fc4	0.015235845
179	0x3ca08775	0.019595841
180	0xbec2aa9b	-0.38020787
181	0xbdcfc2a1	-0.101445444
182	0xbd9d9744	-0.07694867
183	0x3cb84838	0.022495374
184	0x3c914426	0.017732691
185	0xbeb1acb1	-0.34702066
186	0xbe62a209	-0.22132124
187	0x3e300f6c	0.17193383
188	0xbd5490b6	-0.05189582
189	0x3db7721c	0.089573115
190	0xbccc9dec	-0.024977647
191	0xbe7ddf5d	-0.24792238
192	0xbe44e315	-0.1922725
193	0xbee2a6a6	-0.44267768
194	0xbe72ab0a	-0.23698059
195	0x3f26739d	0.6502016
196	0xbdf55598	-0.11979216
197	0xbd1f5df6	-0.038907968
198	0xbda9f986	-0.08299546
199	0xbaa30fe7	-0.0012440652
200	0xbe5d6cf2	-0.2162359
201	0x3daffceb	0.08593162
202	0xbcae6911	-0.021290334
203	0x3e154341	0.14576437
204	0xbcf6ff5c	-0.030151062
205	0xbc1d2ac3	-0.009592715
206	0xbe4bacaa	-0.19890085
207	0xbe4f0afa	-0.20219031
208	0xbe324da5	-0.17412432
209	0xbe54ab08	-0.20768368
210	0xbf2b2afe	-0.66862476
211	0x3cd518d6	0.02601282
212	0x3de85013	0.11343398
213	0x3f06b71e	0.52623165
214	0x3d6c8e76	0.05775305
215	0xbcef35d9	-0.029200481
216	0x3e320858	0.17385995
217	0xbef0a106	-0.4699785
218	0xbc6e6ac0	-0.014551818
219	0xbe88de1c	-0.26731956
220	0x3f0b0e74	0.5431893
221	0x3e2a9a8d	0.16660519
222	0x3cd663ec	0.026170693
223	0x3bf3b7fa	0.007437703
224	0x3d4895e0	0.048971057
225	0x3b322ce1	0.0027187394
226	0xbef6d507	-0.48209402
227	0x3d88b875	0.066758074
228	0xbc47df9f	-0.0121993115
229	0xbee1a043	-0.44067582
230	0xbf2b863d	-0.67001706
231	0xbea93302	-0.33046728
232	0xbcd1d5b0	-0.02561459
233	0xbdf4c7d6	-0.11952178
234	0xbe5af1f6	-0.21381363
235	0xbdb3c7f9	-0.08778376
236	0xbedbaa8b	-0.4290355
237	0xbe016758	-0.12637079
238	0xbe5bdb31	-0.21470334
239	0x3d22bc82	0.039730556
240	0xbccbb9d4	-0.024868883
241	0xbd3f71f7	-0.046739545
242	0xbf138e5a	-0.57639086
243	0x3e5df081	0.21673776
244	0xbe29bb19	-0.16575278
245	0xbefe56f3	-0.49675712
246	0x3d1f6bdf	0.038921233
247	0x3e139581	0.144125
248	0xbce400f4	-0.027832486
249	0xbdc126a2	-0.09431197
250	0xbe9aeee7	-0.30260393
251	0x3eb8f0fe	0.36121362
252	0xbe43186c	-0.19052285
253	0xbde4ab2f	-0.11165463
254	0xbda369d1	-0.07979167
255	0xbe5a4a1c	-0.21317333

bias f4 [128]
0	0xbe0a0ccf	-0.13481449
1	0xbe3ef87d	-0.18649478
2	0xbd8a2176	-0.067446634
3	0x3cdcd4da	0.026956964
4	0x3ce8049c	0.02832251
5	0x3dce6ceb	0.10079368
6	0x3df4e6f6	0.11958115
7	0x3dc0372a	0.09385522
8	0x3dbbf8f2	0.09178342
9	0xbd07da27	-0.03316703
10	0x3d49a5b2	0.049230285
11	0xbdfb7e70	-0.122799754
12	0x3da3b191	0.079928525
13	0xbcab111c	-0.020882182
14	0x3bfdd893	0.007746765
15	0x3d6a042b	0.05713288
16	0xbd7b6f13	-0.061385226
17	0x3d653276	0.055956326
18	0xbd842d61	-0.06453968
19	0xbd5c474d	-0.053778935
20	0x3a3f300f	0.0007293233
21	0x3d1aa9c8	0.037759572
22	0x3cfe20ed	0.03102156
23	0xbd3960c4	-0.0452583
24	0xbb009da2	-0.0019625206
25	0x3da96ce1	0.0827272
26	0x3bc59787	0.0060300264
27	0xbcde631a	-0.027146865
28	0xbded40a0	-0.11584592
29	0x3d389a67	0.045069125
30	0x3dfc886e	0.123307094
31	0xbd9ab2b1	-0.07553614
32	0xbc9be9b5	-0.019032339
33	0xbdc56882	-0.09639074
34	0xbda57982	-0.080798164
35	0xbd8ba525	-0.06818608
36	0xbd9a3397	-0.07529371
37	0xbdb31403	-0.08744051
38	0xbc902d0b	-0.017599603
39	0xbe0d8fd3	-0.13824396
40	0xbd35cacc	-0.044382855
41	0xbdb5b682	-0.08872701
42	0x3d1df6e9	0.03856555
43	0x3d26c4e6	0.04071512
44	0x3d83076c	0.063979
45	0x3d1edc12	0.038784094
46	0x3cac2ace	0.021016505
47	0x3d37cef6	0.044875108
48	0x3c2a68f2	0.0104009975
49	0xbcf36100	-0.02970934
50	0x3da45a68	0.08025056
51	0x3cdcee05	0.026968965
52	0xbdf603cb	-0.12012442
53	0xbd8ea79a	-0.06965561
54	0x3d2af282	0.04173518
55	0xbd50a9ca	-0.050943173
56	0xbd4f0cc3	-0.05054928
57	0xbc9e4b3b	-0.019322982
58	0x3d0679f9	0.032831166
59	0xbcb84c9e	-0.022497471
60	0xbd0a5f86	-0.033782504
61	0xbd0a9682	-0.03383494
62	0xbdff1f5e	-0.12457155
63	0x3cda1f03	0.026626116
64	0xbe309c0f	-0.17247032
65	0xbd31a18d	-0.043366957
66	0xbb1076df	-0.002204351
67	0xbdc664f2	-0.096872225
68	0xbc4f1392	-0.012638943
69	0x3ccb0d0a	0.024786491
70	0xbd70c008	-0.058776885
71	0x3d3061d3	0.043062042
72	0xbd488da3	-0.0489632
73	0x3b962ee2	0.0045832256
74	0xbafa6dd6	-0.001910622
75	0x3da637dd	0.08116124
76	0xbc8f437b	-0.017488232
77	0xbd3cbef0	-0.04608053
78	0x3da4d6d5	0.080487885
79	0xbdad62f4	-0.084661394
80	0x3c287c99	0.010283613
81	0x3d0d0069	0.03442422
82	0xbd715ea9	-0.058928166
83	0xbd8603bf	-0.06543683
84	0x3c1b6f36	0.009486964
85	0xbd0c30f6	-0.03422638
86	0x3d82639d	0.06366656
87	0xba266f1d	-0.00063489546
88	0xbd0b94fb	-0.034077626
89	0xbda13376	-0.078711435
90	0xbd57f964	-0.05272807
91	0xbd0441ae	-0.0322892
92	0xbd933f30	-0.071897864
93	0xbc8270c1	-0.015922906
94	0xbca2175d	-0.019786531
95	0x3d1c0ca7	0.038098004
96	0xbbcf2db2	-0.006322586
97	0xbd3a3af9	-0.045466397
98	0xbdf26958	-0.11836499
99	0x3d4c3492	0.049854822
100	0x3c7c35dc	0.0153937
101	0x3a3ca1cd	0.0007195741
102	0x3cc029b9	0.023457395
103	0xbd8b09bb	-0.06788965
104	0x3d292d58	0.04130301
105	0xbb076ef7	-0.0020665505
106	0xbd45c952	-0.048287697
107	0xbc06b0f0	-0.008220896
108	0xbd5b22e1	-0.05350006
109	0xbd68595b	-0.05672584
110	0x3d662db4	0.05619593
111	0xbd58469d	-0.052801717
112	0x3d946bbb	0.072471105
113	0xbd891d12	-0.06694998
114	0xbced74ba	-0.028986324
115	0xbd73ba53	-0.059503864
116	0x3de558a8	0.111985505
117	0xbc121132	-0.0089152325
118	0xbd838d62	-0.06423451
119	0xbd93fef3	-0.07226362
120	0xbdaa7ed5	-0.083249725
121	0xbdd4f739	-0.103987165
122	0xbdf0d01f	-0.11758446
123	0xbdb4e25b	-0.088322364
124	0xbd80adba	-0.06283136
125	0x3d345fcb	0.044036668
126	0x3ae5404f	0.0017490479
127	0x3d4bb533	0.049733352

weight f4 [6, 128]
0	0x3e014249	0.12622942
1	0xbf2a863d	-0.6661108
2	0xbd1666b6	-0.036719047
3	0x3cf8a3e4	0.030351587
4	0x3c580f1f	0.013187199
5	0xbf14f383	-0.5818407
6	0x3db78ac2	0.08962013
7	0x3e4a9a4b	0.1978542
8	0xbea746aa	-0.326711
9	0xbd05f85f	-0.03270757
10	0xbe67ccec	-0.22636765
11	0x3f531ba1	0.82464033
12	0x3d08fa55	0.03344186
13	0x3c0c90ff	0.008579492
14	0xbe192976	-0.14957222
15	0x3d227295	0.039660055
16	0x3db4f909	0.08836562
17	0xbd7e607a	-0.062103726
18	0x3cbe9808	0.023265854
19	0x3e593f6c	0.212156
20	0x3ccb4410	0.024812728
21	0xbf8d83b8	-1.1055822
22	0x3d3936d5	0.045218308
23	0x3cd46d00	0.025930882
24	0x3e89f57c	0.26945102
25	0x3e8f2797	0.27959892
26	0x3e2703e8	0.16310084
27	0xbe68d926	-0.22739086
28	0xbd1da7dd	-0.038490165
29	0x3e96a1e6	0.29420394
30	0xbcf7b200	-0.030236244
31	0x3c27e373	0.010247099
32	0xbbcde603	-0.006283523
33	0x3e4e85e2	0.2016826
34	0x3c8b2575	0.016985634
35	0x3d9e8588	0.07740313
36	0xbc98b2a8	-0.018639877
37	0xbd2beddb	-0.041974884
38	0xbeb46947	-0.3523657
39	0xbcdae78d	-0.02672174
40	0xbd2ea580	-0.0426383
41	0x3eaf2e3e	0.34214967
42	0x3d7a23a2	0.06106914
43	0x3e7592b7	0.23981749
44	0xbcfb7ea3	-0.030700034
45	0x3e4430d5	0.19159253
46	0xbc1842a1	-0.009293229
47	0x3d1555a7	0.036458638
48	0xbcef4ce6	-0.029211473
49	0x3d704f6f	0.058669504
50	0x3db67d4d	0.08910618
51	0x3e1ee205	0.15515907
52	0xbd912431	-0.07086981
53	0x3d8303df	0.06397223
54	0xbedf7c52	-0.43649536
55	0x3e616acf	0.220134
56	0xbc5bd576	-0.013417592
57	0x3f22bed2	0.6357242
58	0x3e3a86e4	0.18215519
59	0xbd3e4611	-0.04645354
60	0xbc3215ca	-0.010869453
61	0x3cdd99f4	0.02705095
62	0x3d92d958	0.07170361
63	0xbd404e27	-0.046949532
64	0x3b3eaf82	0.002909631
65	0xbdc0200f	-0.09381115
66	0x3d865755	0.06559626
67	0xbe82fe9b	-0.25584874
68	0xbd470407	-0.048587825
69	0x3e18bbf4	0.14915448
70	0xbd754a0a	-0.059885062
71	0x3ef02806	0.46905535
72	0x3d62815c	0.055299148
73	0x3d4f9ed7	0.05068859
74	0x3d20795b	0.039178234
75	0x3dac61df	0.08417105
76	0xbc6ef8ee	-0.014585717
77	0xbe44a792	-0.19204548
78	0xbd47ddf4	-0.048795655
79	0x3e5154af	0.2044246
80	0xbb2c284b	-0.0026269134
81	0x3d16927a	0.036760785
82	0x3cf6175b	0.030040434
83	0x3d36182a	0.04445664
84	0xbe017365	-0.12641676
85	0xbcfd7b20	-0.0309425
86	0xbe04a0f4	-0.12952024
87	0x3ca9f81c	0.02074819
88	0xbd72e4f9	-0.059300397
89	0x3d8ceb36	0.068808004
90	0x3d2a741d	0.04161464
91	0xbd47c449	-0.048771176
92	0x3ba832ec	0.0051330235
93	0x3d3ee6e4	0.046606913
94	0xbf72e6ff	-0.9488372
95	0xbf148da2	-0.58028615
96	0xbcdb3a91	-0.026761325
97	0xba837f50	-0.0010032449
98	0x3d502de6	0.050825022
99	0xbe5b4294	-0.21412116
100	0x3cba6ecd	0.022757912
101	0xbd00c9cd	-0.031442452
102	0xbcf8140e	-0.030283
103	0xbc51734d	-0.0127838375
104	0x3dbbf4cb	0.0917755
105	0xba8584a4	-0.0010186625
106	0xbe481754	-0.19540149
107	0x3da06752	0.07832207
108	0x3d968023	0.07348659
109	0xbcf03cbb	-0.029325834
110	0xbac62d3b	-0.0015119681
111	0x3d8e07e3	0.06935098
112	0x3db68a97	0.08913153
113	0x3d7a39dd	0.06109034
114	0x3d51a040	0.051178217
115	0x3ddcabd3	0.1077496
116	0xbe299d40	-0.16563892
117	0x3c3f865d	0.01168975
118	0x3d358176	0.044312917
119	0x3d453968	0.04815045
120	0xbd14e2e2	-0.036349185
121	0x3e92d102	0.28675085
122	0x3d686e6c	0.05674593
123	0x3d1cbda3	0.03826679
124	0xbd5c4f47	-0.053786542
125	0x3d1f64e2	0.03891457
126	0xbf1d29d2	-0.6139194
127	0xbe398142	-0.18115714
128	0x3e9f5ebf	0.31126973
129	0x3ebb0b8d	0.3653225
130	0x3d2a6100	0.041596413
131	0x3d5d19d6	0.053979717
132	0x3decde58	0.11565846
133	0x3dd50825	0.10401944
134	0x3d390b5e	0.045176856
135	0x3d57e9e8	0.052713305
136	0xbcfb5a2e	-0.03068265
137	0xbcd93b55	-0.02651755
138	0xbe6191ed	-0.22028323
139	0x3ebb2f14	0.36559355
140	0xbdd3cc86	-0.10341744
141	0xbc9f7c3d	-0.019468421
142	0xbafd709b	-0.0019335927
143	0xbc8c8698	-0.017154023
144	0xbe9beb57	-0.30452988
145	0xbd8f0bea	-0.06984694
146	0xbb9cc560	-0.004784271
147	0xbd6e7e67	-0.058226015
148	0xbd8ead89	-0.06966693
149	0xbe3464d5	-0.1761659
150	0xbcd7fcac	-0.0263656
151	0x3e069e00	0.1314621
152	0xbc412299	-0.011788034
153	0x3e11f54b	0.14253728
154	0x3e8ddf2d	0.27709332
155	0x3da7d678	0.081952035
156	0x3cbd38ee	0.023098435
157	0x3e26f57e	0.16304585
158	0x3eb5707e	0.35437387
159	0xbd386b06	-0.04502394
160	0x3d7f39ed	0.0623111
161	0x3ec3b5a7	0.38224527
162	0x3c987e00	0.018614769
163	0x3f4bb14d	0.79567415
164	0xbc724a38	-0.014788203
165	0xbe24439c	-0.16041416
166	0x3daee8e4	0.08540514
167	0x3df4af70	0.119475245
168	0x3d8a5395	0.06754223
169	0x3d04a73c	0.03238605
170	0x3d474238	0.048647135
171	0x3f06912d	0.5256527
172	0x3eae02af	0.33986422
173	0x3efcdfdd	0.49389544
174	0x3d8e0503	0.0693455
175	0x3e253c22	0.1613622
176	0xbc83c7d7	-0.016086502
177	0xbae2fe9e	-0.0017318313
178	0xbd9e20b7	-0.077210836
179	0xbe6d639d	-0.2318253
180	0x3d2c1981	0.04201651
181	0x3cf61667	0.03003998
182	0xbea03f9a	-0.31298524
183	0xbc189540	-0.009312928
184	0xbdb0400d	-0.08605967
185	0x3f3a77b8	0.72838926
186	0x3e35d876	0.17758355
187	0x3e18e04a	0.1492931
188	0xbc428444	-0.011872355
189	0xba07a300	-0.000517413
190	0xbf073adc	-0.5282419
191	0xbd6c2ecc	-0.057661816
192	0xbc25dff0	-0.010124192
193	0x3e074723	0.1321073
194	0xbca4d917	-0.020123048
195	0x3f4c8e31	0.79904467
196	0xbc0529cf	-0.008127644
197	0x3efefbd2	0.498015
198	0x3e194616	0.14968142
199	0x3e9c15c5	0.3048536
200	0x3d742e05	0.0596142
201	0x3de30a39	0.11085934
202	0x3dd66cdd	0.10469983
203	0xbc9b855b	-0.018984487
204	0x3e5cc0e3	0.21557955
205	0xbd9d35e0	-0.076762915
206	0xbd36742c	-0.044544384
207	0xbd696567	-0.05698147
208	0xbd63e28b	-0.05563597
209	0xbc964889	-0.018345134
210	0xbc1e91c4	-0.009678308
211	0xbe228835	-0.15872271
212	0xbdd55ad2	-0.10417713
213	0x3d7e9429	0.062153015
214	0x3dabcc20	0.08388543
215	0xbc9e0f33	-0.019294357
216	0x3d4f137f	0.050555702
217	0x3f888a12	1.0667136
218	0xbd09120c	-0.033464476
219	0xbd1575ca	-0.036489286
220	0x3bd14904	0.006386878
221	0xbd70f883	-0.05883075
222	0x3dca96cf	0.09892046
223	0xbee0daa7	-0.43916818
224	0x3cabd96a	0.020977695
225	0x3d2f4523	0.042790543
226	0xbd12a661	-0.035803203
227	0xbd5e2a97	-0.054239836
228	0x3d7bf53a	0.061513163
229	0x3c945d41	0.018110873
230	0xbd565786	-0.052329563
231	0x3cf80021	0.030273499
232	0x3d6cbdf4	0.05779834
233	0xbe4c61e5	-0.19959219
234	0xbe924345	-0.28566948
235	0x3d8b2c14	0.067955166
236	0x3c76708a	0.01504148
237	0x3d5a655b	0.053319316
238	0x3f58cadf	0.84684557
239	0xbd7e9619	-0.062154863
240	0x3e4e511a	0.20148125
241	0xbd9ebae5	-0.07750491
242	0x3e0ff513	0.14058332
243	0x3df6ccf4	0.120508105
244	0xbd9e4ce4	-0.077295095
245	0x3d089fc4	0.03335549
246	0xbda93ae3	-0.08263185
247	0xbae1302d	-0.0017180495
248	0x3de76a2e	0.11299549
249	0xbee6caf8	-0.45076728
250	0xbec7beb0	-0.3901267
251	0x3d841dd2	0.06451
252	0xbd081bfb	-0.03322981
253	0x3ccf421c	0.025300078
254	0xbd5359b8	-0.051599234
255	0x3d22fc2f	0.039791282

bias f4 [6]
0	0xbce52b16	-0.027974647
1	0x3d3414d5	0.04396518
2	0x3b133884	0.0022464106
3	0xc0ab15e7	-5.3464236
4	0xc08479b8	-4.1398582
5	0xc00b8baf	-2.1804006
