models/pendulum_pi_model.pth (torch, 73452 bytes, 6 tensors)

weight f4 [128, 3]
0	0x3d830afe	0.06398581
1	0xbee1cdc4	-0.441023
2	0xbeec63b0	-0.46169806
3	0x3ef59685	0.479664
4	0xbec53624	-0.3851787
5	0x3ec3c876	0.38238877
6	0xbede26eb	-0.43389067
7	0xbe0a06aa	-0.13479105
8	0x3e2cc760	0.1687293
9	0xbf23a906	-0.63929784
10	0xbb9bfc0d	-0.0047602714
11	0xbda38f4c	-0.07986316
12	0xbf0bf7ff	-0.54675287
13	0x3ec42e13	0.38316402
14	0x3e8a3a26	0.2699749
15	0xbeb4604c	-0.3522972
16	0x3ec9c755	0.3940989
17	0xbf012d36	-0.5045961
18	0xbd78a31a	-0.06070242
19	0x3c974981	0.018467667
20	0xbe01a025	-0.12658747
21	0x3e6fad6c	0.23405999
22	0x3ed14dec	0.40879762
23	0xbebd3682	-0.3695565
24	0xbf0bfc09	-0.5468145
25	0x3ed373a2	0.41299158
26	0xbeeba537	-0.46024486
27	0x3eeece24	0.46641648
28	0x3eea5ff6	0.45776337
29	0x3eacc281	0.33742145
30	0x3ebb1d0b	0.36545596
31	0xbe4a0a26	-0.19730434
32	0xbe55e908	-0.20889676
33	0x3ddb0e3b	0.106960736
34	0x3f177097	0.59156173
35	0xbe4cbbd0	-0.1999352
36	0xbe5e0cf7	-0.21684633
37	0xbca22d1c	-0.0197969
38	0x3ecdfe76	0.402332
39	0xbee00092	-0.43750435
40	0xbec6fd95	-0.38865343
41	0x3eb52e0b	0.3538669
42	0x3f104dea	0.5636889
43	0xbdab84b5	-0.08374921
44	0xbe1a4a98	-0.15067518
45	0x3e34570b	0.1761133
46	0xbec0a328	-0.37624478
47	0x3edd3eb5	0.43211904
48	0x3eb686e7	0.35649797
49	0x3f31f232	0.69510186
50	0x3ed337ab	0.4125341
51	0xbee04631	-0.43803552
52	0x3eb74def	0.35801646
53	0xbf04c319	-0.51860195
54	0x3e4df60d	0.20113392
55	0x3ec542aa	0.38527423
56	0x3d7ba3b6	0.061435424
57	0x3e5b014c	0.21387213
58	0x3f1f7dd7	0.6230139
59	0x3e6ab151	0.22919203
60	0xbe926859	-0.28595236
61	0x3efcd181	0.4937859
62	0x3e2491f6	0.16071305
63	0xbf32c951	-0.69838434
64	0x3d8141e2	0.06311394
65	0xbe63ad23	-0.22234015
66	0x3f074c66	0.5285095
67	0x3d41296e	0.04715865
68	0xbe1be53c	-0.15224165
69	0xbf19f99a	-0.60146487
70	0xbf2e9ba3	-0.6820623
71	0x3f0a5b38	0.5404544
72	0x3eacc6f6	0.33745545
73	0xbeff2db8	-0.49839568
74	0xbc77a22b	-0.015114347
75	0xbe0f1db9	-0.13976182
76	0x3f0d158e	0.55111015
77	0xbf01a5be	-0.5064353
78	0xbeab829b	-0.33498082
79	0x3eaa6f0c	0.33287847
80	0xbd471fe8	-0.048614413
81	0xbf173fe4	-0.59081864
82	0xbee99049	-0.45617893
83	0xbeb8e233	-0.36110076
84	0xbe3bcf23	-0.18340735
85	0x3eb5ef43	0.35534105
86	0x3e95cd2d	0.292581
87	0x3e19ce64	0.15020138
88	0x3d879abc	0.0662131
89	0xbdab0680	-0.08350849
90	0xbf12b48a	-0.5730673
91	0x3f2d7807	0.6776127
92	0xbe20dc86	-0.15709123
93	0x3d8fed36	0.07027666
94	0x3f326739	0.69688755
95	0x3daef946	0.08543639
96	0x3db2fda3	0.087397836
97	0xbf192d03	-0.5983431
98	0x3d243eaa	0.040098824
99	0xbe96b55d	-0.29435244
100	0x3d9022be	0.070378765
101	0xbf027db2	-0.50973046
102	0x3e704fd2	0.23467949
103	0xbf092bed	-0.5358265
104	0x3d8ab43f	0.067726605
105	0x3e8054e9	0.2506478
106	0x3e7f76a7	0.24947606
107	0xbeec54a9	-0.4615834
108	0x3d36850a	0.04456047
109	0xbf19b06d	-0.6003483
110	0xbe7bb5ef	-0.24581121
111	0xbeacd1f9	-0.33753946
112	0x3f1e904d	0.61938936
113	0x3eeaae14	0.45835936
114	0x3efce522	0.49393564
115	0x3f0825dc	0.5318277
116	0xbe69b71b	-0.22823755
117	0x3e5a39b7	0.21311079
118	0x3f4b47ce	0.7940644
119	0xbdee8bbc	-0.11647746
120	0x3e5523c5	0.20814426
121	0xbebc8926	-0.36823386
122	0x3e66e70e	0.22549078
123	0x3eab64a7	0.3347523
124	0xbe8ba600	-0.27275085
125	0x3e1bf712	0.15230969
126	0x3edb276c	0.42803514
127	0xbf36c809	-0.7139898
128	0xbeb8af34	-0.3607117
129	0xbe3bf579	-0.18355359
130	0xbf1c6642	-0.61093533
131	0xbdbfbbd2	-0.09361996
132	0x3f0284fc	0.5098417
133	0xbf076479	-0.52887684
134	0xbf06c387	-0.526421
135	0xbf0af8e3	-0.5428602
136	0xbf227bfc	-0.63470435
137	0xbd057441	-0.03258157
138	0xbde3199d	-0.1108887
139	0xbe0915c4	-0.13387209
140	0xbe2293d7	-0.15876709
141	0xbec6832e	-0.38771957
142	0xbe74079b	-0.23831026
143	0x3eed1728	0.4630673
144	0xbf16fb2d	-0.58977014
145	0xbf137eb6	-0.5761522
146	0x3eefa8ad	0.46808377
147	0x3e1d5d49	0.15367617
148	0x3e79adce	0.24382707
149	0xbe0e24b5	-0.1388119
150	0xbf03b486	-0.5144733
151	0xbe8cb8fc	-0.27484882
152	0x3f06046b	0.5235049
153	0xbeb87b70	-0.36031675
154	0xbea67456	-0.32510632
155	0x3e8a9dae	0.27073425
156	0xbee6f011	-0.4510503
157	0x3ec602aa	0.38673908
158	0xbf0677c4	-0.525265
159	0xbf006ce1	-0.50166136
160	0x3d36907f	0.044571396
161	0x3ec0d4ee	0.37662452
162	0xbeb6aa9c	-0.3567704
163	0x3f377e42	0.7167703
164	0xbdd4b89a	-0.103867725
165	0xbdc2c20b	-0.09509667
166	0x3f152c95	0.5827115
167	0xbd9c9dd3	-0.0764729
168	0xbf11ab1f	-0.56901735
169	0x3f16d053	0.5891163
170	0x3ed503fb	0.416046
171	0x3ecc25fa	0.39872724
172	0xbb8cfef6	-0.0043028546
173	0xbe6ce0e8	-0.2313267
174	0xbe6fbe65	-0.23412473
175	0xbe8a3139	-0.2699068
176	0x3e8fbda5	0.28074375
177	0x3f25a17c	0.6469953
178	0x3ea2d55b	0.31803402
179	0x3f0c6801	0.548462
180	0x3e94f326	0.29091758
181	0xbeb8adf7	-0.36070225
182	0xbe0f3c4b	-0.13987844
183	0x3f1d5737	0.61461204
184	0xbf331df4	-0.6996758
185	0xbd90acdb	-0.070642196
186	0x3f1d0496	0.6133512
187	0x3e17d776	0.14828286
188	0x3eb91f15	0.36156526
189	0x3e9d0a09	0.3067172
190	0x3f294857	0.66126007
191	0x3eaac6c7	0.3335478
192	0xbe4de82d	-0.201081
193	0xbed38fbe	-0.41320604
194	0x3eabe544	0.33573353
195	0xbd7ce6bd	-0.061743487
196	0x3f30bf5c	0.6904199
197	0xbec419e2	-0.38300997
198	0x3f44d0ab	0.768809
199	0xbe714ffa	-0.23565665
200	0x3e814950	0.25251245
201	0xbf05a45e	-0.5220393
202	0xbebe050e	-0.3711323
203	0x3e52bc7d	0.20579715
204	0x3eac1f38	0.33617568
205	0x3e300127	0.1718794
206	0xbedf9342	-0.43667036
207	0xbf14b2c9	-0.58085304
208	0xbe271c8c	-0.16319484
209	0x3e66a583	0.22524075
210	0xbf168d63	-0.5880949
211	0xbd85d278	-0.06534284
212	0xbf074e65	-0.52853996
213	0x3e18539a	0.14875641
214	0xbe8295e3	-0.2550498
215	0xbed09629	-0.40739563
216	0x3e945fc1	0.28979304
217	0x3f2cc251	0.67484003
218	0x3df4e653	0.11957993
219	0xbf1a4607	-0.60263103
220	0xbef58177	-0.47950336
221	0xbf022d2c	-0.50850177
222	0xbf34264d	-0.7037094
223	0xbe2e058e	-0.16994306
224	0xbf05445a	-0.5205742
225	0xbef31111	-0.47473958
226	0x3f3c2a12	0.73501694
227	0x3e1c7838	0.15280235
228	0x3e908b42	0.28231245
229	0x3e08ee35	0.13372119
230	0x3eb6d452	0.35708863
231	0x3dde74d5	0.10862128
232	0x3f665f7a	0.89989436
233	0x3e9b259b	0.30302128
234	0xbf0665de	-0.52499187
235	0xbea84fde	-0.32873434
236	0x3e2c2acd	0.16813202
237	0xbf2e4a39	-0.68082005
238	0xbef6036e	-0.48049492
239	0xbe27a632	-0.16371992
240	0x3ed03a2a	0.40669376
241	0xbdc1d71b	-0.09464856
242	0xbe6ec885	-0.2331868
243	0x3f339082	0.70142376
244	0xbf388781	-0.7208176
245	0x3ecfa607	0.40556356
246	0xbec84d0d	-0.39121285
247	0xbf05eee1	-0.52317625
248	0x3ec45230	0.38343954
249	0x3f0df2fc	0.5544889
250	0x3f1eaefd	0.6198576
251	0x3e527e8e	0.2055609
252	0xbf3023ae	-0.6880444
253	0xbf119e80	-0.56882477
254	0x3cdd225d	0.026993925
255	0xbe49fd52	-0.1972554

bias f4 [128]
0	0x3dd90941	0.10597468
1	0x3eb37492	0.35049874
2	0x3e6961f4	0.22791272
3	0x3f0ffa75	0.5624154
4	0xbd71e323	-0.059054505
5	0xbe4a121d	-0.19733472
6	0xbd38aabb	-0.045084696
7	0xbeca34d4	-0.3949343
8	0xbe0b6134	-0.13611299
9	0xbeef8a8c	-0.4678539
10	0xbec427a0	-0.3831148
11	0x3eaec22f	0.34132525
12	0xbe3e8b95	-0.18607934
13	0x3e16d960	0.1473136
14	0xbdbb3781	-0.09141446
15	0xbf1cbf07	-0.61228985
16	0x3e67b2ea	0.22626844
17	0x3e1abfce	0.1511223
18	0x3e8de31c	0.27712333
19	0x3e97d389	0.29653576
20	0x3f034275	0.5127328
21	0xbea89bea	-0.32931453
22	0x3ec81396	0.39077443
23	0x3d502454	0.050815895
24	0xbd02658b	-0.03183512
25	0x3d071b48	0.032985
26	0xbeae0589	-0.33988598
27	0x3e4818d0	0.19540715
28	0xbec903f2	-0.39260823
29	0xbebbd0a8	-0.3668263
30	0xbef76e0a	-0.4832614
31	0xbe3e18ba	-0.1856412
32	0x3f0e6fec	0.5563953
33	0xbf222fe4	-0.63354325
34	0x3eb5d021	0.35510352
35	0xbf1e33c0	-0.61797714
36	0x3e4e76ee	0.20162556
37	0xbe4b4fc4	-0.19854647
38	0xbe350fe5	-0.17681845
39	0x3eabbfc8	0.33544755
40	0x3ec3e59d	0.3826112
41	0xbed632a9	-0.41835526
42	0x3e515f66	0.20446548
43	0x3f178f06	0.5920261
44	0xbe5f322b	-0.21796481
45	0x3da39319	0.07987041
46	0xbe9b850d	-0.30374947
47	0xbe2c9c0b	-0.168564
48	0xbd8b6b4c	-0.06807575
49	0xbf01349d	-0.50470906
50	0x3f02246c	0.50836825
51	0x3f0ade1c	0.5424516
52	0x39c5508a	0.00037634774
53	0xbd95a340	-0.07306528
54	0x3f0eac8f	0.55732054
55	0x3ef7e202	0.48414618
56	0xbe879dce	-0.26487583
57	0xbe8eccfb	-0.27890763
58	0x3e5a473a	0.21316233
59	0x3df14fef	0.11782824
60	0xbe1f0b2b	-0.15531604
61	0xbcb7d4d2	-0.022440348
62	0xbe11b432	-0.14228895
63	0x3e098b9e	0.13432166
64	0x3e39fc95	0.18162759
65	0xbec0bbd0	-0.3764329
66	0xbd7fce4d	-0.062452603
67	0xbeb45800	-0.3522339
68	0xbf054dff	-0.5207214
69	0xbec541d9	-0.385268
70	0xbead2703	-0.33818826
71	0xbe3ce326	-0.18446025
72	0x3ed944fb	0.4243544
73	0xbe96c789	-0.29449108
74	0xbe878a58	-0.26472735
75	0xbdd4a361	-0.103827246
76	0x3f02c005	0.5107425
77	0x3eea498d	0.4575924
78	0xbe689b31	-0.22715451
79	0xbd983a0f	-0.07432949
80	0xbe452927	-0.1925398
81	0x3e7b920f	0.24567436
82	0x3dee9571	0.116495974
83	0x3e9fcf37	0.3121278
84	0xbc188082	-0.009307982
85	0x38ca6faa	9.65291e-05
86	0x3ee6fbda	0.45114022
87	0x3d80512f	0.062654845
88	0xbec24275	-0.37941328
89	0xbd399d18	-0.045315832
90	0xbf2683ee	-0.6504506
91	0xbe8413e3	-0.25796422
92	0x3ee02dbb	0.4378489
93	0xbe919398	-0.28432918
94	0xbe88ab93	-0.266934
95	0xbf1a4e4b	-0.60275716
96	0xbebd820a	-0.37013274
97	0x3f0248c3	0.50892276
98	0xbe600c74	-0.2187975
99	0xbe705fe6	-0.23474082
100	0x3f09e760	0.53868675
101	0xbf2b9326	-0.67021406
102	0xbe64cd43	-0.22343926
103	0xbecb4e12	-0.39708
104	0x3eb0da3f	0.3454151
105	0xbeb2a4a7	-0.34891245
106	0x3ee68117	0.45020363
107	0x3eec1283	0.46107873
108	0xbedf2bf5	-0.43588224
109	0xbe59be2f	-0.21263956
110	0x3efd1a0a	0.4943393
111	0xbee4bf0a	-0.44677
112	0x3f1165c2	0.56795895
113	0xbed6e8c6	-0.41974467
114	0x3e284bd8	0.16435182
115	0x3e02354c	0.12715644
116	0x3ef50716	0.4785697
117	0xbd0c5436	-0.034259997
118	0xbf16acb6	-0.58857286
119	0x3eb4f7dc	0.35345352
120	0xbe6e64ec	-0.23280686
121	0xbd8ae2a8	-0.067815125
122	0xbd615ae8	-0.055018336
123	0xbf1645a8	-0.58700037
124	0x3ec12a0d	0.37727395
125	0xbd3574cc	-0.04430084
126	0x3ef4cc8b	0.47812304
127	0x3ebee509	0.37284115

weight f4 [128, 128]
0	0x3bf52521	0.0074812328
1	0x3cffb222	0.03121287
2	0xbe38bbc0	-0.18040371
3	0xbdeed069	-0.11660845
4	0xbd8fdef2	-0.07024945
5	0x3db42603	0.08796313
6	0xbd518d8b	-0.051160377
7	0xbc4f5aac	-0.012655895
8	0xbd920892	-0.07130541
9	0xbd6ead8e	-0.058270983
10	0x3d8eebd4	0.069785744
11	0x3da54cea	0.08071311
12	0xbdc6bf12	-0.097044125
13	0x3b49f405	0.0030815613
14	0x3b85fb5b	0.004088802
15	0xbdbb520c	-0.091465086
16	0xbd3076e7	-0.043082144
17	0x3c34be94	0.0110317655
18	0xbe004317	-0.12525593
19	0xbcca5296	-0.024697583
20	0xbc9fbe03	-0.019499784
21	0xbe021771	-0.12704255
22	0x3d7c4aa9	0.06159464
23	0xbd24e467	-0.040256884
24	0x3dc534fa	0.09629245
25	0x3db57070	0.088593364
26	0xbd995e60	-0.07488704
27	0x3da2539f	0.07926106
28	0xbcf3a7b1	-0.029743047
29	0x3d0ede7d	0.03488015
30	0xbddb9fd8	-0.10723847
31	0xbd23da64	-0.040003195
32	0xbd12916c	-0.035783216
33	0xbd9d8ba6	-0.076926515
34	0xbd758a95	-0.059946615
35	0x3cecc505	0.02890254
36	0x3c44a6e0	0.012002677
37	0xbd8ad136	-0.06778185
38	0x3c1a20f7	0.0094072735
39	0xbd0339a5	-0.032037396
40	0xbdf68c03	-0.12038424
41	0x3d771112	0.060319014
42	0x3deab678	0.114605844
43	0x3cef063b	0.029177776
44	0x3ce8aa82	0.028401617
45	0xbd7c2f12	-0.061568327
46	0x3d7efd8f	0.06225353
47	0x3c8583ab	0.016298136
48	0xbdca0cdb	-0.09865733
49	0x3db72385	0.08942322
50	0xbb22ca01	-0.0024839642
51	0xbe4f4ece	-0.20244905
52	0xbd6f9c70	-0.0584988
53	0x3c5b84ea	0.013398388
54	0xbdeec162	-0.116579786
55	0xbd5543ff	-0.0520668
56	0xbd5fd066	-0.054642104
57	0x3dc587e9	0.096450634
58	0x3b406a82	0.0029360359
59	0xbc293acc	-0.01032896
60	0x3daae782	0.08344938
61	0x3d132935	0.03592797
62	0xbc806377	-0.015672429
63	0x3da56f01	0.08077813
64	0xbb6d0483	-0.003616602
65	0x3c9896ed	0.018626655
66	0xbdcb7a76	-0.09935467
67	0x3c5d6b93	0.013514417
68	0x3cce2f4c	0.025169037
69	0xbd0c34c5	-0.034230012
70	0x3d0f8a44	0.03504397
71	0x3cdda764	0.027057357
72	0xbc84f3a6	-0.016229462
73	0xbc00dbcf	-0.007864906
74	0xbd40478f	-0.046943244
75	0x3d4e7e76	0.05041357
76	0xbd97a487	-0.07404428
77	0xbc984758	-0.018588707
78	0xbdd4d678	-0.10392469
79	0xbd1a120c	-0.037614867
80	0x3df7beea	0.12096961
81	0xbe17c08f	-0.14819549
82	0xbc344647	-0.011003084
83	0x3c66856c	0.014069896
84	0xbda3104f	-0.07962095
85	0xbd941674	-0.07230845
86	0x3d0310f8	0.031998605
87	0xbe693f6f	-0.22778104
88	0xbd94dc37	-0.07268565
89	0xbd18f67f	-0.037344452
90	0x3d427aee	0.047480516
91	0xbc76d3a7	-0.01506511
92	0xbd2a1ccb	-0.041531365
93	0xbd49fb70	-0.049312055
94	0x3dea6611	0.11445249
95	0xbdf3daa4	-0.11906937
96	0xbcc81a29	-0.024426537
97	0x3ca2feba	0.019896854
98	0xbc93c959	-0.018040346
99	0x3c110bf0	0.008852944
100	0xbdd72b9d	-0.105063654
101	0xbdbea00e	-0.09307872
102	0x3e33201f	0.17492722
103	0x3de04882	0.1095133
104	0x3d2c4365	0.04205646
105	0xbdc8b6a0	-0.09800458
106	0x3d03d2ca	0.032183446
107	0xbd579a2b	-0.05263726
108	0x3d846b41	0.064657696
109	0x3c26d4c2	0.010182561
110	0xbd251146	-0.040299676
111	0xbd2b8277	-0.041872468
112	0x3d11735c	0.035510406
113	0x3cfab119	0.030602025
114	0xbd78afd4	-0.060714558
115	0x3c97f277	0.018548233
116	0xbddc3fc1	-0.107543476
117	0xbd4835bb	-0.048879366
118	0x3c1da154	0.009620983
119	0x3dbd3e92	0.0924045
120	0xbbf28e39	-0.007402208
121	0x3d879a43	0.0662122
122	0xbdfcea01	-0.1234932
123	0xba0f45cb	-0.0005465417
124	0xbd3aacf3	-0.045575093
125	0xbda11f44	-0.078672916
126	0x3dadf52d	0.08494029
127	0xbd13994f	-0.03603488
128	0xbd77cd9f	-0.06049883
129	0xbd02ae77	-0.031904664
130	0xbce14d73	-0.027502751
131	0x3d9df66b	0.07713016
132	0x3d234c25	0.03986754
133	0x3d88e3bc	0.06684062
134	0x3c61ae74	0.013774503
135	0xbdc7ef67	-0.09762459
136	0x3d96853a	0.0734963
137	0x3d0ee7bc	0.034888968
138	0xbd013f40	-0.03155446
139	0xbc9b765b	-0.018977335
140	0xbd68c47b	-0.056828003
141	0xbb1010c3	-0.0021982647
142	0xbe06238e	-0.130995
143	0x3d07fb00	0.033198357
144	0x3d48c22a	0.049013294
145	0xbd906f9e	-0.07052539
146	0x3d351656	0.044210754
147	0xbd09e3e1	-0.033664588
148	0xbd6a1d4f	-0.057156857
149	0x3d1eefd7	0.038802948
150	0x3d95215a	0.07281752
151	0xbc8f0a1a	-0.017460871
152	0xbd128145	-0.035767812
153	0xbba82dac	-0.0051323976
154	0x3cd7374a	0.026271481
155	0xbcd92669	-0.026507573
156	0xbd0412c0	-0.032244444
157	0xbe640e2c	-0.22271031
158	0x3e13dd18	0.1443981
159	0x3d1c2453	0.03812058
160	0xbd5f7994	-0.054559305
161	0x3d4682c1	0.04846454
162	0x3d5c84a2	0.053837426
163	0xbd083811	-0.033256594
164	0xbd57903b	-0.052627783
165	0x3c82d660	0.015971363
166	0x3d4defb3	0.050277423
167	0x3e1d6722	0.15371373
168	0x3db5fce1	0.088861234
169	0x3de87f1e	0.11352371
170	0xbdbf1437	-0.093300276
171	0x3db57fe5	0.088622846
172	0xbdc53529	-0.0962928
173	0xbd8c95bb	-0.06864496
174	0xbcc09e1e	-0.023512896
175	0x3c44ed88	0.0120195225
176	0xbdac4f1e	-0.08413528
177	0xbd812c0a	-0.06307228
178	0xbd49d1d2	-0.049272366
179	0x3c6963c8	0.014244981
180	0x3d607edf	0.054808494
181	0xbd5dc7da	-0.05414567
182	0x3c929a4d	0.017895842
183	0x3d9743af	0.073859565
184	0x3cdb7c83	0.02679277
185	0xbd1881d1	-0.037233178
186	0xbdd948bb	-0.10609575
187	0x3dd0c44a	0.10193689
188	0xbd548820	-0.05188763
189	0xbe08541b	-0.13313334
190	0x3c9d5f33	0.019210434
191	0xbd14d435	-0.03633519
192	0xbdcda29b	-0.1004078
193	0x3b736e1e	0.0037144492
194	0x3d910d2a	0.07082589
195	0x3d5f2501	0.05447865
196	0x3d3abc60	0.045589805
197	0x3d8a9e76	0.06768505
198	0xbc32460a	-0.010880956
199	0x3c8261b3	0.015915727
200	0x3dcbe2fe	0.09955405
201	0xbd801c9a	-0.06255455
202	0x3c6f9196	0.014622113
203	0xbd554d6f	-0.0520758
204	0x3ced7b0d	0.02898934
205	0x3d5759d5	0.052575905
206	0x3d5ba8ca	0.053627767
207	0x3dc22dc6	0.09481387
208	0xbd6d60d7	-0.05795368
209	0x3cd886be	0.026431438
210	0xbd9d04ed	-0.07666955
211	0x3dc17c31	0.09447516
212	0x3d9b04f7	0.07569306
213	0xbd39793b	-0.04528163
214	0x3d166ff1	0.03672785
215	0xbd8c57da	-0.06852694
216	0xbb2defd3	-0.0026540651
217	0x3d810004	0.06298831
218	0xbdd369dd	-0.10322926
219	0x3d6976c7	0.05699804
220	0x3dcaa0f3	0.0989398
221	0x3d558e5c	0.052137718
222	0xbe28f482	-0.16499522
223	0xbbdab858	-0.0066748075
224	0xbe0d7aa9	-0.13816322
225	0xbd82477c	-0.06361291
226	0x3cff2b2e	0.03114852
227	0x3d75188d	0.059837867
228	0xbcf34fd6	-0.029701155
229	0xbd1b75b1	-0.037954036
230	0xbd2fde16	-0.042936407
231	0xbe0fc121	-0.14038517
232	0x3aca41e5	0.0015431015
233	0xbd440f5f	-0.04786622
234	0x3dd6fb06	0.10497098
235	0xbceafead	-0.028685892
236	0xbda63318	-0.08115214
237	0x3d9e90cd	0.07742462
238	0xbd91b4c0	-0.071145535
239	0xbd9d4a78	-0.076802194
240	0x3d808141	0.06274653
241	0xbc9f9594	-0.019480504
242	0xbd5def30	-0.054183185
243	0xbd6f2594	-0.058385447
244	0x3bd71d73	0.00656479
245	0x3dbbb7cd	0.091659166
246	0xbc93f607	-0.01806165
247	0xbbe2b59b	-0.0069186217
248	0x3d1c2ca5	0.038128514
249	0xbb143ef2	-0.0022620526
250	0xbce60460	-0.028078258
251	0xbce4a1d5	-0.027909199
252	0x3d8d0bcd	0.068870164
253	0xbcecbc86	-0.028898489
254	0x3df9a6ca	0.121900156
255	0x3de47925	0.11155919

bias f4 [128]
0	0xbda94a3f	-0.082661144
1	0xbc08778e	-0.008329285
2	0x3d34c85b	0.044136386
3	0xbdad4b56	-0.08461635
4	0x3b5ca96c	0.003367032
5	0xbd3037cd	-0.043021966
6	0x3e00b05c	0.12567276
7	0x3c654792	0.0139941145
8	0x3db90af9	0.09035296
9	0xbd9fa68d	-0.07795439
10	0x3bd76b0a	0.0065740393
11	0xbbbc4dce	-0.0057465797
12	0x3c8aab1b	0.016927293
13	0x3e139b79	0.14414777
14	0x3e076cb8	0.13225067
15	0x3cdff3c4	0.027337916
16	0x3dd9863a	0.10621305
17	0xbd9bf100	-0.076143265
18	0xbd5108ab	-0.051033657
19	0xbd68b098	-0.056809038
20	0xbbd9d119	-0.006647241
21	0xbc7123df	-0.014718025
22	0xbb6d6b40	-0.0036227256
23	0xbdaeabd1	-0.08528865
24	0x3e0cf0bd	0.1376371
25	0x3e0ec741	0.13943197
26	0x3c2dba91	0.010603563
27	0x3ce0fb2c	0.027463518
28	0x3d314d8b	0.04328684
29	0xbd032fc7	-0.032027986
30	0x3d48cace	0.049021535
31	0x3dcf693b	0.10127493
32	0xbdb29f5e	-0.08721803
33	0xbd9cbc13	-0.0765306
34	0xbb52cb22	-0.0032164534
35	0xbd05d86b	-0.032677095
36	0xbe0f5a97	-0.13999401
37	0x3e13bf96	0.14428553
38	0x3c83d809	0.016094225
39	0xbddf55f5	-0.10905067
40	0x3d2d221a	0.04226885
41	0x3d9d613c	0.076845616
42	0x3d22e36c	0.039767668
43	0xbc597ca4	-0.013274346
44	0xbac593d5	-0.0015073965
45	0xbdb6121c	-0.08890173
46	0x3d8947a0	0.067031145
47	0x3d480034	0.04882832
48	0x3dcd99a9	0.10039074
49	0x3cd08657	0.025454683
50	0xbd0b2239	-0.033968184
51	0xbdbf8cfe	-0.09353064
52	0x3d8fbbf8	0.07018274
53	0xbda9a279	-0.08282942
54	0xbd8c054a	-0.06836946
55	0xbd4afdaa	-0.04955832
56	0xbd9cc624	-0.0765498
57	0x3e0b931d	0.13630338
58	0xbdb32d3f	-0.087488644
59	0x3d69a77c	0.05704449
60	0x3d072120	0.032990575
61	0xbc28857e	-0.010285733
62	0xbd6fcb96	-0.058543764
63	0x3d97b6f0	0.074079394
64	0xbd3c41fe	-0.045961373
65	0xbd815b19	-0.063162036
66	0x3e30129f	0.17194603
67	0x3d692a78	0.056925267
68	0x3d1b5439	0.037922118
69	0xbd0a3a23	-0.03374685
70	0xbdcd6c31	-0.100304015
71	0xbc4d10cd	-0.012516213
72	0x3cced001	0.025245668
73	0x3cb198c5	0.021679292
74	0x3c3899d8	0.011267148
75	0x3e28e14f	0.16492198
76	0xbd9aa53a	-0.07551046
77	0x3c9e7a52	0.019345436
78	0xbd56116f	-0.05226272
79	0xbd07b7e5	-0.03313436
80	0x3d8d6bdc	0.06905338
81	0xbaccff9d	-0.0015640144
82	0xbd8dd500	-0.06925392
83	0xbd2be0a4	-0.04196228
84	0xbd7ea7db	-0.0621718
85	0xbcfa47ea	-0.03055187
86	0xbd7e3f81	-0.06207228
87	0xbd3ac815	-0.04560097
88	0x3d996266	0.07489471
89	0x3dc830da	0.09774943
90	0xbcfc74b2	-0.030817363
91	0xbcf63ee6	-0.03005929
92	0xbce7a103	-0.028275019
93	0xbba9cdf9	-0.0051820246
94	0xbc244b7e	-0.010027764
95	0xbd264f4e	-0.040602975
96	0xbd42eae3	-0.047587287
97	0x3d05bb12	0.032649107
98	0x3d91895a	0.07106276
99	0x3c6d0057	0.014465413
100	0x3db91504	0.090372115
101	0xbd7f6c93	-0.062359404
102	0x3d8e9ff4	0.069641024
103	0x3d52dfb8	0.051482886
104	0x3d83d737	0.06437533
105	0x3d4462e0	0.047945857
106	0xbd1bdc31	-0.038051788
107	0x3da88509	0.082284994
108	0x3dd98364	0.10620764
109	0x3d8f1280	0.069859505
110	0x3dcc7288	0.099827826
111	0xbb7c3d15	-0.0038488556
112	0xbc1ef3bf	-0.009701668
113	0xbd7bf0a7	-0.0615088
114	0xbc69366b	-0.014234166
115	0x3df1a388	0.11798769
116	0x3df204a5	0.11817292
117	0x3d933ebd	0.07189701
118	0xbd806c59	-0.06270666
119	0xbb475239	-0.0030413999
120	0x3d6e5f79	0.05819652
121	0x3d10866d	0.03528445
122	0xbc734f02	-0.01485038
123	0x3cc4389c	0.023952775
124	0xbd5b9df8	-0.053617448
125	0x3c856e90	0.016288072
126	0x3c436e19	0.011928105
127	0xbd6a61e5	-0.057222266

weight f4 [2, 128]
0	0x3dbb27f2	0.09138478
1	0xbd995fee	-0.07489
2	0xbe0611ea	-0.13092771
3	0xbd2ed854	-0.042686775
4	0x3decc98f	0.11561882
5	0xbd01fd1b	-0.03173552
6	0x3e5ae88a	0.21377769
7	0xbc8583c8	-0.01629819
8	0xbddea412	-0.10871138
9	0x3d5e7f9c	0.054320917
10	0x3d7c2d32	0.06156654
11	0x3d83d827	0.06437712
12	0xbdc16097	-0.09442251
13	0x3d623880	0.055229664
14	0xbda55af4	-0.080739886
15	0x3e007ade	0.1254687
16	0xbe34f8dc	-0.17673057
17	0xbdb3ff82	-0.087889686
18	0xbd8bdf7e	-0.06829737
19	0xbd5f7fbf	-0.054565188
20	0x3e38dc49	0.18052782
21	0x3d642f61	0.055709247
22	0xbdba98b4	-0.09111157
23	0xbccaa76e	-0.02473804
24	0x3e92a373	0.28640327
25	0xbebc4360	-0.36770153
26	0xbd59ef5b	-0.053206783
27	0xbda40980	-0.080096245
28	0xbc0a1a6b	-0.00842915
29	0xbd9d3ba2	-0.0767739
30	0x3dfd032a	0.12354119
31	0x3e5ee99e	0.21768805
32	0x3e0c77c9	0.1371757
33	0xbcabe527	-0.020983292
34	0x3da42b69	0.08016092
35	0x3c19409d	0.009353784
36	0xbd8c5e7e	-0.068539605
37	0x3e2aec47	0.16691695
38	0xbefd1d4d	-0.49436417
39	0xbd829eb4	-0.063779265
40	0x3e2a1959	0.16611232
41	0x3ea531a0	0.32264423
42	0x3dad943b	0.08475538
43	0xbd8f7345	-0.07004408
44	0x3d8ddc57	0.06926792
45	0x3d44f19e	0.048081987
46	0x3d4eec15	0.050518114
47	0xbec0ff72	-0.3769489
48	0xbd0006fe	-0.03125667
49	0x3e30b246	0.17255506
50	0x3db758d5	0.0895249
51	0x3cbb1ae0	0.022839963
52	0xbe214f63	-0.1575294
53	0x3e1f52eb	0.15558974
54	0x3e11ee95	0.14251168
55	0xbce64faf	-0.028114168
56	0x3cff0c27	0.031133724
57	0xbec3cf17	-0.38243935
58	0xbd45ad4f	-0.048260983
59	0x3e9fdaf9	0.3122175
60	0xbd80c805	-0.06288151
61	0xbccfa195	-0.025345603
62	0x3debb9d0	0.1151005
63	0xbe3fc23e	-0.18726441
64	0xbde742c1	-0.11292029
65	0xbdfc77a7	-0.123275094
66	0xbef9f270	-0.48817778
67	0xbdd65add	-0.104665495
68	0xbe9a1fb8	-0.30102324
69	0x3e0eb5f2	0.13936594
70	0x3c0e45d4	0.0086836405
71	0x3d779f56	0.06045469
72	0x3c52fc7b	0.012877579
73	0xbb7ea7b2	-0.0038857278
74	0xbd5ad0f4	-0.05342193
75	0xbea0c0ab	-0.31396994
76	0x3d2d0fd4	0.042251423
77	0x3da0cd5f	0.078516714
78	0x3c85a081	0.016311886
79	0x3db9820f	0.0905801
80	0x3e3fa317	0.18714558
81	0xbe186e8b	-0.14885919
82	0x3e02f10f	0.12787269
83	0xbdcfeee9	-0.1015299
84	0xbd7e45b4	-0.062078193
85	0xbd04cae4	-0.032420054
86	0xbd651c5a	-0.05593524
87	0xbbe23183	-0.006902875
88	0x3d83d802	0.064376846
89	0xbe67dea0	-0.22643518
90	0x3caaeb34	0.020864107
91	0xbdebecc6	-0.1151977
92	0x3e5b8024	0.214356
93	0xbd51bd84	-0.051206127
94	0x3e5f2054	0.21789676
95	0xbd8611af	-0.06546342
96	0x3db22ee6	0.087003514
97	0xbe2a7894	-0.1664756
98	0xbd658ce5	-0.05604257
99	0xbae17375	-0.0017200547
100	0xbe387e1e	-0.1801686
101	0x3d84f4d3	0.06492009
102	0xbddcb636	-0.107769415
103	0xbd9377dc	-0.07200596
104	0xbdfbb38c	-0.12290105
105	0xbcc55355	-0.024087587
106	0xbe19a18d	-0.15003033
107	0x3e293a9e	0.16526267
108	0x3df11fb1	0.11773623
109	0xbe833086	-0.25622958
110	0x3bb9b085	0.0056667947
111	0xbe34f6dd	-0.17672296
112	0x3c8e59b4	0.017376758
113	0xbba332f9	-0.0049804416
114	0x3b8a8458	0.0042272024
115	0x3da262e6	0.0792902
116	0x3e228e8f	0.15874694
117	0xbe9eeaa6	-0.31038398
118	0x3ad13fb7	0.0015964423
119	0xbe104e13	-0.14092283
120	0xbe019b0a	-0.12656799
121	0xba8579ed	-0.0010183431
122	0xbd9f9879	-0.07792754
123	0xbde1b75a	-0.110213
124	0xbd68ceef	-0.056837972
125	0x3be790c0	0.007066816
126	0x3e496a28	0.19669402
127	0x3c482261	0.012215228
128	0x3e07097f	0.13187216
129	0xbd8d3f6a	-0.06896861
130	0xbbf6257e	-0.0075117936
131	0x3da6b239	0.08139462
132	0x3e37db2f	0.17954706
133	0x3a8dfec1	0.0010833369
134	0xbd94cdc9	-0.07265813
135	0xbd9f0af1	-0.07765759
136	0x3d7d793a	0.06188319
137	0x3cfa6c01	0.030569078
138	0xbe05bfd8	-0.13061464
139	0xbdd6fa7b	-0.10496994
140	0xbd5e17bd	-0.054221857
141	0xbe3c8066	-0.18408355
142	0xbedf41e5	-0.4360496
143	0x3ba3f987	0.005004111
144	0xbd48959b	-0.0489708
145	0xbd89af77	-0.067229204
146	0xbc1ba5ed	-0.009500009
147	0x3d55a27e	0.052156918
148	0x3d0e893e	0.034798853
149	0xbd6cbe48	-0.057798654
150	0xbdb96e0f	-0.09054195
151	0x3c0126be	0.007882772
152	0xbe833865	-0.25628963
153	0xbe105e63	-0.14098506
154	0xbd554c1c	-0.052074537
155	0xbb980829	-0.0046396446
156	0x3b3da4c9	0.002893733
157	0x3da943de	0.08264898
158	0xbe29bae4	-0.165752
159	0xbdc2d9e6	-0.09514217
160	0x3d5e2ebc	0.054243788
161	0x3c005bae	0.007834358
162	0x3c8e6109	0.017380254
163	0xbd4e60e0	-0.050385356
164	0x3d201528	0.039082676
165	0xbdaf3be7	-0.08556347
166	0x3e136d5f	0.1439719
167	0x3d93611a	0.07196255
168	0x3cca7cde	0.024717744
169	0xbe9121a7	-0.28345987
170	0xbe2b59f2	-0.1673353
171	0xbe52f963	-0.20602946
172	0x3d103c24	0.035213605
173	0x3daf88d8	0.08571023
174	0x3c0c7671	0.0085731605
175	0xbd269d31	-0.040677253
176	0xbe7fd95f	-0.24985264
177	0xbcb1ad43	-0.021689063
178	0x3c335d1c	0.010947492
179	0xbd1c8ede	-0.038222186
180	0xbe11aa30	-0.14225078
181	0x3d02bd8d	0.03191905
182	0x3c89b9d4	0.016812243
183	0x3c9ad6ec	0.01890131
184	0xbd45f7ca	-0.048332013
185	0xbde60f1c	-0.11233351
186	0x3d357bf1	0.044307653
187	0xbeefddf7	-0.46849033
188	0xbd70e10a	-0.058808364
189	0xbdc9f326	-0.0986083
190	0xbdcc90a2	-0.09988524
191	0xbdb2a1c4	-0.087222606
192	0xbd4f4a2d	-0.05060785
193	0xbd6f631b	-0.058444124
194	0xbe95ed5c	-0.29282653
195	0xbcbc06c8	-0.022952452
196	0x3c306c1f	0.010767966
197	0x3c6f06d2	0.014589028
198	0x3d965163	0.07339742
199	0xbd959dfe	-0.07305525
200	0x3c26714d	0.010158849
201	0xbea69494	-0.3253523
202	0xbcbe9dc4	-0.023268588
203	0xbe801d0b	-0.25022158
204	0x3d3e86a5	0.046515126
205	0xbd7a0855	-0.061043102
206	0xbd768c76	-0.060192548
207	0xbd101bd2	-0.03518278
208	0x3cecf71c	0.028926425
209	0xbe97f9e0	-0.29682827
210	0xbb86107f	-0.004091322
211	0xbd48f40a	-0.04906086
212	0x3da0c0c2	0.07849266
213	0x3d925940	0.07145929
214	0x3dd63f35	0.104612745
215	0x3cca6f62	0.024711315
216	0xbdc9d12d	-0.0985435
217	0xbda05de4	-0.07830408
218	0xbd648b36	-0.055796824
219	0xbd4f123c	-0.0505545
220	0xbe09a282	-0.13440898
221	0x3da55667	0.080731206
222	0x3d91550a	0.07096298
223	0xbd29add2	-0.041425534
224	0x3d31f8da	0.043450214
225	0x3cb572bf	0.022149442
226	0x3cf37203	0.029717451
227	0xbc97d259	-0.018532919
228	0xbe209b53	-0.15684251
229	0xbd58db26	-0.05294337
230	0xbd689278	-0.05678031
231	0x3d1550a9	0.036453877
232	0xbe154011	-0.1457522
233	0xbe92300a	-0.28552276
234	0xbdf926be	-0.121655926
235	0xbdf28267	-0.118412785
236	0xbe6f324f	-0.23359035
237	0xbe13c461	-0.14430381
238	0xbd892625	-0.066967286
239	0x39fc7f70	0.00048160134
240	0x3be168d7	0.006878953
241	0x3d624326	0.05523982
242	0xbe5a8eb1	-0.21343495
243	0xbe813fdb	-0.2524403
244	0xbe85b502	-0.2611466
245	0xbcc56d1f	-0.024099885
246	0x3d4e4e73	0.050367784
247	0x3ba4be77	0.005027588
248	0xbe1be1eb	-0.152229
249	0xbb4e1977	-0.0031448284
250	0x3d0e7777	0.0347819
251	0xbb8ab119	-0.0042325375
252	0x3c4c64bf	0.012475192
253	0x3cc1ea30	0.02367124
254	0x3d90e7dd	0.070754744
255	0xbe09c89b	-0.13455431

bias f4 [2]
0	0x3d803885	0.0626078
1	0xbddff04e	-0.10934506
