models/pendulum_v_model.pth (torch, 72738 bytes, 5 tensors)

weight f4 [128, 3]
-0.51940805 -0.60166335 -0.37959647 0.055526614 -0.82905567 0.588499 -0.57100093 -0.57701665
0.092626035 -0.3541689 -0.55981064 -0.1451418 0.119351484 -1.1276207 -0.3380475 -0.14747953
-0.56051147 -0.08637446 0.15811461 -0.65722656 0.02519364 -0.7824978 0.40836436 0.2665275
-0.36942363 -0.84704524 0.5101244 -0.02268428 0.18477067 0.5053527 0.49699637 0.087002784
-0.2514754 0.03405851 0.64389944 -0.22871347 0.2187067 -0.27991176 -0.51601267 -0.02693011
0.49646062 0.25212428 -0.27136442 0.86258 0.21099178 0.06142203 -0.7281814 -0.11396844
-0.4194548 -0.2763856 0.5026842 -0.4838257 -0.4152712 0.16679937 -0.4577217 -0.34502324
0.43198434 -0.28512204 -0.53037643 -0.39355737 -0.4680446 0.6917709 -0.036479242 0.3695301
0.020588942 0.59344965 0.015490874 -0.37463197 0.031153193 -0.19733563 -0.36829662 0.09061117
0.17452487 0.2748125 0.43203965 -0.16965696 -1.1609904 -0.255161 0.92981476 -0.96021926
-0.14099 -0.09309341 0.14793763 0.42852604 -0.19750583 0.47168303 0.35579887 0.9273023
0.1640116 0.016261084 -0.02876558 -0.013435653 0.6821945 0.5526485 0.24814944 0.180407
0.2427661 -0.63493514 0.029116657 -0.4488228 0.6185571 0.25717193 0.12976725 0.290163
-0.49908763 -0.14837869 0.90808606 0.21166818 -0.5187212 0.16583231 0.20710666 -0.70088875
0.70201546 -0.1064368 0.42117953 0.23169106 0.6193416 0.53947014 0.5144119 0.42952755
-0.5072863 -0.25612038 -0.3309346 -0.44264996 0.34924522 -0.5437995 -0.44721442 0.18280193
-0.35655838 -0.52237475 -0.7642585 -0.22882237 -0.3623795 -0.0064985794 0.48000267 0.25778466
-1.0315284 0.26570177 -0.5056634 -0.5259527 -0.12844425 0.4281639 0.78242016 -0.56011003
0.1645945 0.74899817 0.5540258 0.61706626 -0.17986792 0.49786687 -0.85744077 0.41681263
0.16705106 -0.5156417 -0.1729141 0.019307224 -0.5174142 -0.8374564 -0.34505576 -0.43431664
0.6735188 -0.039040938 -0.65844035 0.38457435 0.21474831 -0.44070596 0.17328136 0.17026135
-0.33447453 -0.3371638 -0.21364538 -0.88020915 0.65256274 0.28388935 -0.6165649 0.16076747
-0.10761617 0.0054586963 -0.79752034 -0.14058094 0.14673424 -0.5699799 0.03783713 0.25135463
-0.16961049 -0.46192056 -0.8001362 -0.7762013 -0.017549654 0.20620616 -0.35527003 -0.5432199
-0.5462738 -1.1908062 -0.34467372 0.41450092 0.063809074 -0.47551548 0.5053916 -0.95740116
-0.25472826 -0.7131708 0.61155653 0.19845402 -0.2726998 -0.7954199 -0.31905988 0.030109722
0.49569467 0.26631793 0.99370074 0.7339886 -0.014391858 0.072445884 0.9241251 0.34149653
-0.47124907 0.65092665 -0.4997421 0.282285 -0.16259609 -0.59661114 0.27694917 0.73853344
0.10527461 -0.24502872 0.17089887 0.1837931 -0.49150327 0.21308975 0.19710131 -0.1944351
0.85513365 0.13275792 -0.7267603 -0.4979013 0.21587752 -0.5717568 0.2248359 -0.12927401
-0.74223167 0.41992396 -0.16410099 -0.43946218 -0.15290588 -0.19333096 -0.32568905 0.77243984
0.2637531 -0.3494084 -0.0026963504 -0.45969927 -0.30841014 -1.1488299 -0.38772443 -0.31031847
00000000: edf7 04bf 9c06 1abf 785a c2be e06f 633d
00000010: fe3c 54bf dfa7 163f 1e2d 12bf 5db7 13bf
00000020: b8b2 bd3d a055 b5be c04f 0fbf 0da0 14be
00000030: 8d6e f43d e055 90bf 9014 adbe e004 17be
00000040: ae7d 0fbf 18e5 b0bd cce8 213e 0040 28bf
00000050: e462 ce3c c751 48bf 2215 d13e 4b76 883e
00000060: 1825 bdbe f5d7 58bf 8397 023f 62d4 b9bc
00000070: 8634 3d3e cb5e 013f 4f76 fe3e 842e b23d
00000080: 62c1 80be f080 0b3d 98d6 243f dd33 6abe
00000090: a6f4 5f3e 9850 8fbe 6819 04bf 899c dcbc
000000a0: 1630 fe3e 6f16 813e 47f0 8abe 0bd2 5c3f
000000b0: 3b0e 583e ab95 7b3d 196a 3abf 4968 e9bd
000000c0: c8c2 d6be 6a82 8dbe e9af 003f 01b8 f7be
000000d0: 6d9e d4be 74cd 2a3e 805a eabe e3a6 b0be
000000e0: 0d2d dd3e 84fb 91be c0c6 07bf 5a80 c9be
000000f0: 8ba3 efbe e617 313f 426b 15bd 0d33 bd3e
00000100: 24aa a83c 51ec 173f 6fcd 7d3c c3cf bfbe
00000110: fb34 ff3c 5a12 4abe 6091 bcbe 5992 b93d
00000120: a6b6 323e 39b4 8c3e 4d34 dd3e 8eba 2dbe
00000130: 559b 94bf 76a4 82be 5708 6e3f eed0 75bf
00000140: af5f 10be c2a7 bebd f67c 173e c467 db3e
00000150: f83e 4abe 7080 f13e 452b b63e af63 6d3f
00000160: a8f2 273e f735 853c cba5 ebbc 3721 5cbc
00000170: 4ca4 2e3f 5f7a 0d3f e31a 7e3e 9dbc 383e
00000180: ad97 783e 1c8b 22bf 0e86 ee3c 1acc e5be
00000190: c259 1e3f 0aac 833e b5e1 043e 3f90 943e
000001a0: 6a88 ffbe 95f0 17be 5478 683f 8bbf 583e
000001b0: eaca 04bf f2cf 293e c513 543e 726d 33bf
000001c0: 49b7 333f 89fb d9bd d8a4 d73e 6c40 6d3e
000001d0: 2c8d 1e3f b71a 0a3f 80b0 033f 09eb db3e
000001e0: 84dd 01bf 3622 83be 4370 a9be 04a3 e2be
000001f0: 45d0 b23e 7236 0bbf 4af9 e4be 6e30 3b3e
00000200: d28e b6be 5aba 05bf 72a6 43bf 6950 6abe
00000210: ce89 b9be 09f2 d4bb e9c2 f53e 5afc 833e
00000220: 1f09 84bf 100a 883e 2873 01bf d6a4 06bf
00000230: e486 03be 4c38 db3e b04c 483f 5f63 0fbf
00000240: 768b 283e 58be 3f3f a3d4 0d3f 0ef8 1d3f
00000250: 4c2f 38be 68e8 fe3e 3d81 5bbf 7768 d53e
00000260: 6f0f 2b3e 1801 04bf 6510 31be 2f2a 9e3c
00000270: 4275 04bf 8b63 56bf 26ab b0be c05e debe
00000280: ba6b 2c3f 64e9 1fbd 8c8f 28bf eee6 c43e
00000290: fbe6 5b3e 36a4 e1be ab70 313e fe58 2e3e
000002a0: 3f40 abbe bca0 acbe dbc5 5abe 6355 61bf
000002b0: 5a0e 273f f259 913e 33d7 1dbf 3aa0 243e
000002c0: de65 dcbd ddde b23b 4b2a 4cbf 73f4 0fbe
000002d0: 8041 163e 34ea 11bf 1bfb 1a3d 8eb1 803e
000002e0: 5fae 2dbe da80 ecbe bad5 4cbf 21b5 46bf
000002f0: 4bc4 8fbc b527 533e f4e5 b5be 7610 0bbf
00000300: 9ad8 0bbf 566c 98bf 1379 b0be 7739 d43e
00000310: 55ae 823d c476 f3be 5861 013f 3e18 75bf
00000320: be6b 82be 5d92 36bf f88e 1c3f 8837 4b3e
00000330: 4f9f 8bbe a3a0 4bbf d15b a3be aaa8 f63c
00000340: b1cb fd3e d35a 883e 2c63 7e3f ade6 3b3f
00000350: d4cb 6bbc 825e 943d 7693 6c3f a2d8 ae3e
00000360: 8f47 f1be 21a3 263f 32de ffbe a987 903e
00000370: 977f 26be 82bb 18bf 48cc 8d3e 8710 3d3f
00000380: 379a d73d cfe8 7abe 1d00 2f3e 4234 3c3e
00000390: 51a6 fbbe 3334 5a3e edd4 493e ff19 47be
000003a0: 0aea 5a3f b1f1 073e f70c 3abf ebec febe
000003b0: ff0e 5d3e a75e 12bf 623b 663e 6860 04be
000003c0: e502 3ebf 4600 d73e 170a 28be 3001 e1be
000003d0: 5c93 1cbe 8df8 45be b7c0 a6be 9ebe 453f
000003e0: a50a 873e a8e5 b2be 41b5 30bb b45d ebbe
000003f0: efe7 9dbe dc0c 93bf d183 c6be 10e2 9ebe

bias f4 [128]
-0.32948908 -0.4814581 0.4470563 0.11820143 -0.33779916 0.71304935 0.13487874 0.6800349
-0.41118607 -0.25571272 0.4291302 0.4577742 -0.13718577 0.3986995 -0.0093378825 0.23077813
0.18589133 0.21420605 -0.35424817 0.42720422 0.14713933 -0.033502832 0.27969375 0.69742024
-0.34359422 -0.17631377 -0.51870656 -0.15921251 -0.2100465 0.46118227 -0.29646933 -0.46955025
0.5952819 -0.31103548 0.5654163 -0.11117907 0.68621224 0.09592177 0.5760003 0.22207297
-0.045755617 -0.52582425 -0.46981117 0.26714966 0.54417956 0.059163842 0.6436654 -0.17705522
-0.25168893 0.5529133 -0.0890886 0.71716565 0.64353025 0.095195875 0.5098664 0.5315342
0.7253338 0.6017514 0.73330206 0.6218194 0.522894 -0.051158834 -0.24665934 0.056932986
0.24831745 0.121763475 -0.18229671 -0.015936246 0.77127796 0.17373307 -0.10422342 0.14227828
-0.4959206 0.13487451 0.26911065 -0.4062801 0.6136131 0.45642573 0.22382995 0.67678046
0.06194403 0.6720811 0.51647437 0.29033777 0.101330504 0.7291469 0.37817153 0.7164182
0.5382387 -0.4500486 -0.545504 0.19817641 -0.4405779 0.5936077 0.5944827 0.7608604
0.4768621 0.37830916 0.024278687 -0.4953264 0.6404184 0.51675737 0.3992788 0.6083052
0.5629286 0.5184318 -0.14811209 -0.26788372 0.6809887 0.2938082 0.47288513 -0.3626491
-0.025400847 0.72916216 -0.3515484 -0.28669474 -0.19919486 0.3592468 -0.4809351 -0.4735149
0.16538738 0.7155428 -0.31079128 0.65569 0.554014 0.73446834 0.7004303 0.57398003
00000000: cbb2 a8be ad81 f6be 90e4 e43e 9713 f23d
00000010: 03f4 acbe 678a 363f a71d 0a3e c416 2e3f
00000020: fb86 d2be c7ec 82be f4b6 db3e 6161 ea3e
00000030: 6d7a 0cbe 5722 cc3e ebfd 18bc 1a51 6c3e
00000040: 4c5a 3e3e d558 5b3e 0460 b5be 83ba da3e
00000050: b1ab 163e 443a 09bd 0534 8f3e 228a 323f
00000060: 95eb afbe 998b 34be f4c9 04bf 9b08 23be
00000070: 6e16 57be 1520 ec3e d4ca 97be e468 f0be
00000080: 6564 183f 0b40 9fbe 1fbf 103f dab1 e3bd
00000090: 9bab 2f3f a272 c43d c174 133f 1967 633e
000000a0: 3e6a 3bbd 6b9c 06bf 178b f0be d7c7 883e
000000b0: 5a4f 0b3f c955 723d 41c7 243f f74d 35be
000000c0: 5fdd 80be ba8b 0d3f 1574 b6bd 2b98 373f
000000d0: 66be 243f 0ef6 c23d 9b86 023f a012 083f
000000e0: 7aaf 393f 610c 1a3f afb9 3b3f 8e2f 1f3f
000000f0: 62dc 053f ed8b 51bd 4494 7cbe 9032 693d
00000100: ee46 7e3e 215f f93d fdab 3abe bb8c 82bc
00000110: 7972 453f 15e7 313e 1773 d5bd 66b1 113e
00000120: 4ee9 fdbe 8b1c 0a3e dfc8 893e f203 d0be
00000130: c015 1d3f a2b0 e93e ae33 653e 7c41 2d3f
00000140: 06b9 7d3d 820d 2c3f aa37 043f 27a7 943e
00000150: 5e86 cf3d 5fa9 3a3f b39f c13e 2f67 373f
00000160: 03ca 093f c56c e6be 26a6 0bbf c2ee 4a3e
00000170: 6d93 e1be adf6 173f 0530 183f bfc7 423f
00000180: 4527 f43e bdb1 c13e 19e4 c63c 6c9b fdbe
00000190: 76f2 233f 364a 043f 456e cc3e e4b9 1b3f
000001a0: 171c 103f f2b7 043f b2aa 17be 0e28 89be
000001b0: 4755 2e3f 076e 963e 001e f23e 25ad b9be
000001c0: 7015 d0bc 5faa 3a3f 27fe b3be a7c9 92be
000001d0: bdf9 4bbe 32ef b73e 203d f6be 8c70 f2be
000001e0: 4f5b 293e d02d 373f 0920 9fbe 4ddb 273f
000001f0: ddd3 0d3f 1e06 3c3f 664f 333f 5bf0 123f

weight f4 [128, 128]
-0.004927206 -0.11741816 0.115271054 0.17407167 0.064457364 0.05463894 -0.27814877 0.111312225
-0.14609335 -0.039776973 -0.0358697 0.062066205 0.010906391 0.07624979 -0.052952826 -0.019286478
-0.05241493 0.07347564 -0.009429703 0.032453563 0.23282982 -0.055134196 0.22482271 0.07261096
-0.009697419 0.022431983 0.3656592 -0.05726879 -0.10245733 0.35781085 -0.008881297 0.70495373
0.045372296 -0.11917388 0.084470645 0.20449845 0.17110623 0.13878277 0.041696973 0.04359064
0.043041807 -0.1316177 -0.114539206 -0.006153173 0.03195467 -0.13278483 0.16529153 -0.115865335
0.014363558 0.031768873 -0.13444713 0.07579025 0.12916784 0.23483685 0.22455433 0.080882646
0.12675893 0.13898942 0.1323465 0.093510956 0.19917826 0.0051784124 0.0016112934 0.023845507
0.07114963 -0.08155428 0.3062964 -0.0997066 0.05511279 -0.08203149 0.053147476 -0.03207818
-0.09530459 -0.032673024 0.041679434 -0.24928504 0.20098029 0.050499357 0.084045656 0.044930354
0.07875595 0.12112847 0.07764389 0.019360537 0.059669737 0.116022944 0.042659555 0.06578892
0.14246549 0.082493864 -0.10512763 0.14942877 -0.011137827 0.0142722605 0.21045606 0.16634111
0.22622503 0.040704 -0.1689664 0.70426786 0.11114353 0.0077181747 0.09196119 -0.03896051
0.1701732 0.08331488 -0.06057812 -0.09484874 0.1817456 0.066908054 0.026835373 -0.08278459
0.0873042 0.18474576 0.34753644 -0.14774035 -0.26386234 0.13615003 -0.07928425 0.06456125
0.02542953 0.19274127 0.026533134 0.055408742 0.18012203 0.18927674 0.03254017 0.037154645
-0.044059813 -0.18223684 0.17117874 0.23623948 -0.057389837 0.18278547 -0.17434475 0.20339832
-0.15388152 -0.024341827 -0.03158692 -0.047599733 -0.06905366 -0.052447937 -0.040877376 -0.027696036
0.0729809 0.07955975 -0.058880083 0.02459727 0.11010247 -0.10565414 0.17632736 0.06327271
-0.022647424 0.11612895 0.4732437 -0.10687528 -0.014175004 0.30962327 -0.1104893 0.5887946
0.11728113 -0.16045384 -0.022714086 0.28610054 0.1777094 0.17799197 -0.0769232 -0.09114693
-0.020539973 -0.13405037 -0.05920405 0.16089521 -0.020439215 -0.08711643 0.08801216 -0.06434515
-0.13117044 -0.04875552 0.025318597 0.0680975 0.09594677 0.1113471 0.13549714 0.10303566
0.06436958 0.11841169 0.048810754 0.042311914 0.1836804 -0.09692546 -0.0011652425 -0.0041922308
0.09853494 -0.055596747 0.22348799 -0.0825123 0.15980136 0.005377881 0.039382383 0.01605177
-0.09306981 0.045723207 0.15399337 -0.25987697 0.2216157 0.12042473 0.08774951 0.072179794
0.10442633 0.022560915 0.08493957 0.04066728 -0.014359074 0.06836301 0.042106684 0.062321935
0.040271368 -0.04647908 -0.12714069 0.04982337 -0.007545286 0.10238035 0.098881125 0.19130532
0.17004035 0.03973814 -0.12611267 0.57806 0.13689633 0.13318697 0.10315894 0.078890644
0.14594083 0.04583688 -0.045110065 -0.03740543 0.13340358 0.19494084 0.010410205 -0.06888952
0.1696473 0.12689783 0.46004722 -0.19688179 -0.27837613 0.1690119 0.02314529 -0.051384907
0.052523468 0.0989591 -0.14162694 0.13278876 0.21564262 0.16060871 0.11078867 0.17142324
00000000: 6674 a1bb ef78 f0bd 3b13 ec3d d83f 323e
00000010: 3902 843d 15cd 5f3d 8469 8ebe aaf7 e33d
00000020: 7f99 15be 2eed 22bd 1bec 12bd 2239 7e3d
00000030: b8b0 323c da28 9c3d 10e5 58bd adfe 9dbc
00000040: 0ab1 56bd 657a 963d 0a7f 1abc 07ee 043d
00000050: f16a 6e3e 65d4 61bd ed37 663e 0eb5 943d
00000060: ece1 1ebc 47c3 b73c af37 bb3e ae92 6abd
00000070: 26d5 d1bd fc32 b73e dc82 11bc d977 343f
00000080: 4dd8 393d 6f11 f4bd f2fe ac3d 0b68 513e
00000090: 7936 2f3e 121d 0e3e 72ca 2a3d 198c 323d
000000a0: 9b4c 303d cac6 06be 8893 eabd 8ea0 c9bb
000000b0: e6e2 023d bff8 07be 2f42 293e ce4a edbd
000000c0: 2155 6b3c 1420 023d 82ac 09be eb37 9b3d
000000d0: 9344 043e 1279 703e 92f1 653e cda5 a53d
000000e0: 18cd 013e 3e53 0e3e d785 073e ac82 bf3d
000000f0: 63f5 4b3e acaf a93b 0932 d33a a757 c33c
00000100: e6b6 913d ee05 a7bd e2d2 9c3e f932 ccbd
00000110: f3bd 613d 2000 a8bd 2bb1 593d 6964 03bd
00000120: 0e2f c3bd 26d4 05bd 0eb8 2a3d 9444 7fbe
00000130: c7cd 4d3e 6ad8 4e3d 2120 ac3d e408 383d
00000140: cd4a a13d 3412 f83d c303 9f3d fd99 9e3c
00000150: 4168 743d 709d ed3d c9bb 2e3d 57bc 863d
00000160: 79e2 113e 8bf2 a83d 284d d7bd db03 193e
00000170: 6f7b 36bc 33d6 693c cb81 573e 5355 2a3e
00000180: 89a7 673e 3db9 263d 8705 2dbe e64a 343f
00000190: 389f e33d bee8 fc3b 2656 bc3d 0e95 1fbd
000001a0: e241 2e3e fea0 aa3d c320 78bd 0e40 c2bd
000001b0: 851b 3a3e 1707 893d dbd5 db3c f88a a9bd
000001c0: 8bcc b23d fe2d 3d3e 4cf0 b13e 3f49 17be
000001d0: f718 87be ea6a 0b3e c85f a2bd b038 843d
000001e0: 9751 d03c f85d 453e 045c d93c 47f4 623d
000001f0: e971 383e c3d1 413e d748 053d 782f 183d
00000200: 1078 34bd 4b9c 3abe 7b49 2f3e c3e8 713e
00000210: 9b11 6bbd 1d2c 3b3e 6e87 32be a647 503e
00000220: 1e93 1dbe 8368 c7bc 4961 01bd f0f7 42bd
00000230: 016c 8dbd a6d3 56bd 096f 27bd cce2 e2bc
00000240: 0377 953d 39f0 a23d 3e2c 71bd 3780 c93c
00000250: 677d e13d 3361 d8bd 298f 343e 1f95 813d
00000260: 1787 b9bc 04d5 ed3d 004d f23e 6de1 dabd
00000270: 473e 68bc f186 9e3e 3748 e2bd 3ebb 163f
00000280: 1731 f03d 034e 24be e412 babc c57b 923e
00000290: 74f9 353e 8743 363e e989 9dbd 3eab babd
000002a0: 7243 a8bc 8044 09be f27f 72bd b7c1 243e
000002b0: 2470 a7bc 196a b2bd b83f b43d 64c7 83bd
000002c0: 8b51 06be deb3 47bd f268 cf3c b476 8b3d
000002d0: bd7f c43d f309 e43d c3bf 0a3e 5c04 d33d
000002e0: 33d4 833d d481 f23d c9ed 473d 424f 2d3d
000002f0: b716 3c3e db80 c6bd 0dbb 98ba fb5e 89bb
00000300: b0cc c93d 6ab9 63bd 09da 643e 35fc a8bd
00000310: f8a2 233e f038 b03b 6c4f 213d 007f 833c
00000320: 629b bebd 4248 3b3d 70b0 1d3e 980e 85be
00000330: 3aef 623e 3ea1 f63d 04b6 b33d 00d3 933d
00000340: 79dd d53d abd1 b83c ccf4 ad3d bc92 263d
00000350: 5242 6bbc e801 8c3d 0f78 2c3d 4945 7f3d
00000360: 97f3 243d d960 3ebd 2b31 02be 9713 4c3d
00000370: 723e f7bb caac d13d 3082 ca3d 8be5 433e
00000380: 0f1f 2e3e 76c4 223d ae23 01be bdfb 133f
00000390: 8d2e 0c3e 2a62 083e ff44 d33d 6b91 a13d
000003a0: 8371 153e 74bf 3b3d 55c5 38bd 7036 19bd
000003b0: f39a 083e 929e 473e 918f 2a3c f315 8dbd
000003c0: 06b8 2d3e 81f1 013e 4f8b eb3e 619b 49be
000003d0: 5187 8ebe 7511 2d3e 319b bd3c fb78 52bd
000003e0: d922 573d 12ab ca3d a706 11be c7f9 073e
000003f0: 6bd1 5c3e 9c76 243e 2ce5 e23d 9389 2f3e

bias f4 [128]
0.14014953 0.11205021 0.0467398 0.05429436 0.13567229 0.12959906 -0.04820768 0.120079935
0.20274334 0.1144018 0.108308606 0.02138658 0.088447325 0.09466844 -0.016059134 0.11847703
0.06400225 0.06399743 0.065291576 0.17934254 0.14117375 0.14894031 0.14627397 -0.09882187
0.0646784 0.1182081 0.20072748 0.17649241 0.1850904 -0.06931638 -0.092083536 0.12682544
0.25084668 0.17629975 0.116185516 0.15958092 0.012769248 -0.017102355 -0.030525222 0.20928618
0.26520914 0.13339467 -0.08982021 0.0545407 0.07415844 0.041900843 0.04738743 0.1255379
0.056268074 -0.028235681 -0.09759396 0.18780158 0.03949955 0.080416285 0.19468947 0.026316203
0.060603034 0.10528952 0.053994898 -0.08792445 0.12617567 0.09782868 0.04961975 0.19023369
-0.011778962 0.19194789 0.10242389 0.017665377 0.004965385 0.10615273 0.13233958 0.07824435
-0.18660052 -0.05931893 0.032640286 0.046668984 -0.07449868 -0.038136326 0.1750354 -0.010603211
0.06343863 -0.038796198 0.014247658 0.046588615 0.16800466 0.05379018 0.03816599 0.020781133
-0.03599798 0.11096785 0.07708675 -0.09397265 0.16916671 -0.10004106 0.16066694 0.1592427
0.11747094 0.09224777 0.05004837 0.07778047 0.07539838 0.0028893426 0.041519642 -0.028174061
-0.046517316 0.02907954 0.15389767 -0.04706252 0.1286838 0.051109802 -0.0621118 0.10844215
0.020345392 0.061977476 0.11060746 0.015572207 0.054126546 0.16104922 0.021906815 0.0009192991
0.05127673 -0.045133587 0.16010502 0.12463986 0.058843512 0.09357658 0.20504922 0.071662225
00000000: 5c83 0f3e 957a e53d 3c72 3f3d c363 5e3d
00000010: aded 0a3e 9eb5 043e 6b75 45bd 78ec f53d
00000020: f39b 4f3e 7e4b ea3d e7d0 dd3d e932 af3c
00000030: df23 b53d 87e1 c13d 728e 83bc 16a4 f23d
00000040: 9d13 833d 1611 833d 97b7 853d 92a5 373e
00000050: da8f 103e cf83 183e d8c8 153e 1f63 cabd
00000060: 1c76 843d 1717 f23d 818b 4d3e 6dba 343e
00000070: 5688 3d3e bff5 8dbd 4b96 bcbd 87de 013e
00000080: fa6e 803e ec87 343e acf2 ed3d 2e69 233e
00000090: 1c36 513c 3d1a 8cbc 0810 fabc 1e4f 563e
000000a0: 7ec9 873e 9d98 083e a9f3 b7bd 1266 5f3d
000000b0: 61e0 973d 38a0 2b3d 5219 423d 028d 003e
000000c0: 5a79 663d 844e e7bc 58df c7bd 0f4f 403e
000000d0: 48ca 213d 4bb1 a43d ad5c 473e 1495 d73c
000000e0: e33a 783d 08a2 d73d c129 5d3d bc11 b4bd
000000f0: 3234 013e 675a c83d 143e 4b3d 9fcc 423e
00000100: 8cfc 40bc fd8d 443e 9ec3 d13d fbb6 903c
00000110: abb4 a23b 9a66 d93d 0784 073e 933e a03d
00000120: 3514 3fbe 68f8 72bd d2b1 053d fa27 3f3d
00000130: c492 98bd d634 1cbd 7b3c 333e 17b9 2dbc
00000140: 1dec 813d c3e8 1ebd 026f 693c b4d3 3e3d
00000150: 6a09 2c3e 1753 5c3d f153 1c3d 323d aa3c
00000160: 9e72 13bd 1d43 e33d a8df 9d3d bc74 c0bd
00000170: 0a3a 2d3e 54e2 ccbd e085 243e 8510 233e
00000180: 9b94 f03d 66ec bc3d 85ff 4c3d 5e4b 9f3d
00000190: 776a 9a3d 205b 3d3b 8010 2a3d 4acd e6bc
000001a0: f188 3ebd 3738 ee3c 5a97 1d3e a1c4 40bd
000001b0: b0c5 033e 8358 513d f168 7ebd eb16 de3d
000001c0: 61ab a63c 18dc 7d3d 2a86 e23d 9222 7f3c
000001d0: ccb3 5d3d 16ea 243e ec75 b33c 1efd 703a
000001e0: 8c07 523d ffdd 38bd 92f2 233e 2f43 ff3d
000001f0: e505 713d 14a5 bf3d 6cf8 513e a5c3 923d

weight f4 [1, 128]
-0.16896904 -0.20997196 -0.14688604 -0.19108142 -0.16961893 -0.17444263 -0.054311354 -0.17861551
0.893569 -0.1837561 -0.20415412 -0.21171924 -0.12598218 -0.16394134 0.6205339 -0.14123097
0.014914713 -0.14645404 -0.16416484 -0.1972917 0.7717968 0.7394743 -0.16245109 0.040090647
0.04436986 -0.18844926 -0.12310518 -0.20169249 -0.1386274 0.01701832 0.0634307 -0.22027622
0.4876795 -0.18996823 -0.1473183 -0.17722946 -0.20284517 0.07696448 0.024999127 -0.13604392
0.63719743 -0.21144575 0.06599371 -0.13827384 0.059581865 -0.15439759 0.018541086 0.2038269
0.45162448 0.035989754 0.05354662 -0.13188687 -0.20076339 -0.16276026 -0.13490888 0.004763884
0.07679013 1.1020333 -0.16118209 0.061411396 -0.17801951 0.7617174 -0.15935908 -0.11999995
0.00076314737 -0.12688671 1.0689608 0.012678172 0.5434767 -0.17947993 -0.13176188 -0.20008834
0.44501594 0.018171225 0.056668397 -0.1531637 0.0016101376 0.021574778 -0.19062412 0.069931924
0.048295055 0.044657767 -0.1949184 0.017071627 -0.14893484 -0.1474779 0.0016782898 0.039437745
0.031722203 -0.19462615 -0.18796262 0.039815366 -0.13454877 0.031066837 -0.19729504 -0.12198892
-0.14522319 -0.19428474 -0.19635412 -0.18143758 -0.1698387 -0.067458294 -0.15851067 -0.05464953
0.0115790805 -0.20277433 -0.13293812 0.07844667 -0.19347742 0.016716477 0.017985137 -0.15887387
-0.20377108 0.05775615 -0.13842663 -0.19412635 0.039984968 0.84017104 0.041700106 0.015146843
0.07448147 0.0034273814 -0.18232325 -0.1807723 -0.14182164 -0.17280212 -0.48624894 -0.14818333
00000000: 3806 2dbe e402 57be 4b69 16be d9aa 43be
00000010: 96b0 2dbe 17a1 32be 9575 5ebd fce6 36be
00000020: f0c0 643f 8f2a 3cbe c70d 51be eecc 58be
00000030: 7901 01be 3de0 27be 4fdb 1e3f da9e 10be
00000040: d75c 743c 0cf8 15be d41a 28be d606 4abe
00000050: 7a94 453f 304e 3d3f 9459 26be 1736 243d
00000060: 2cbd 353d d8f8 40be 921e fcbd 7a88 4ebe
00000070: 57f4 0dbe 016a 8b3c f4e7 813d 1790 61be
00000080: 21b1 f93e 0887 42be 9cda 16be a47b 35be
00000090: a5b6 4fbe 8e9f 9d3d f8ca cc3c 194f 0bbe
000000a0: 5f1f 233f 3c85 58be b627 873d a897 0dbe
000000b0: 1d0c 743d 671a 1ebe 7ae3 973c 00b8 503e
000000c0: 533b e73e fe69 133d b353 5b3d 5a0d 07be
000000d0: eb94 4dbe a0aa 26be 8e25 0abe 5b1a 9c3b
000000e0: 2544 9d3d 6d0f 8d3f eb0c 25be 848a 7b3d
000000f0: bf4a 36be e9ff 423f 072f 23be 89c2 f5bd
00000100: f40d 483a 97ee 01be b5d3 883f 1cb8 4f3c
00000110: 4a21 0b3f 96c9 37be 96ec 06be f5e3 4cbe
00000120: 21d9 e33e d2db 943c 1f1d 683d f2d6 1cbe
00000130: 410b d33a 97bd b03c f832 43be 7838 8f3d
00000140: 09d1 453d 10eb 363d b098 47be ccd9 8b3c
00000150: 6082 18be 7204 17be 10fa db3a 7989 213d
00000160: 24ef 013d 144c 47be 4679 40be 7015 233d
00000170: 27c7 09be e17f fe3c b607 4abe 54d5 f9bd
00000180: 63b5 14be 94f2 46be 0e11 49be c6ca 39be
00000190: 32ea 2dbe 9327 8abd 9f50 22be 30d8 5fbd
000001a0: 2fb6 3d3c 13a4 4fbe ee20 08be a6a8 a03d
000001b0: f21e 46be fef0 883c 9155 933c d5af 22be
000001c0: 5ea9 50be b691 6c3d b6bf 0dbe 0fc9 46be
000001d0: 47c7 233d 7315 573f bbcd 2a3d 772a 783c
000001e0: be89 983d eb9d 603b f2b2 3abe 601c 39be
000001f0: b139 11be 0af3 30be 9ff5 f8be 5fbd 17be
